2pose_gcn_model.pt (torch, 7640 bytes, 6 tensors)

conv1.bias f4 [32]
0	0xb1b6ec47	-5.3237588e-09
1	0x8000d736	-7.7203e-41
2	0xb5f6c5ba	-1.8385974e-06
3	0xb92bfea5	-0.00016402693
4	0x800050c5	-2.8975e-41
5	0xacdcbcdd	-6.273744e-12
6	0x80002847	-1.4449e-41
7	0x8000b5ac	-6.5172e-41
8	0xb4f53434	-4.567279e-07
9	0x80010deb	-9.6828e-41
10	0x8000c1cd	-6.9523e-41
11	0x80008b23	-4.9913e-41
12	0xa6dda4de	-1.5379643e-15
13	0xb1166616	-2.1885902e-09
14	0x8000b9fe	-6.6721e-41
15	0x800059d6	-3.2227e-41
16	0x80019f06	-1.48882e-40
17	0xbbe8d46b	-0.0071054003
18	0x8001277c	-1.06e-40
19	0x8000eca8	-8.4896e-41
20	0x8001842d	-1.39251e-40
21	0xbcc951cd	-0.024575138
22	0xb39a3d70	-7.182359e-08
23	0xa7a8e570	-4.6878124e-15
24	0x80010fda	-9.7522e-41
25	0x80006c79	-3.8913e-41
26	0x80015822	-1.23452e-40
27	0xad83bece	-1.497771e-11
28	0x800045ff	-2.511e-41
29	0x8000f125	-8.6506e-41
30	0x80014eec	-1.20147e-40
31	0xb63a31e0	-2.774519e-06

conv1.lin.weight f4 [32, 2]
0	0xb0bc9d0e	-1.3723438e-09
1	0x3141fbf1	2.8228408e-09
2	0x8000b909	-6.6378e-41
3	0x0000366d	1.9524e-41
4	0xb5abb107	-1.2792015e-06
5	0xb59f96fb	-1.1890364e-06
6	0xb6439714	-2.9145203e-06
7	0xb1d6bdbb	-6.2497896e-09
8	0x8000b6bb	-6.5551e-41
9	0x00002512	1.3298e-41
10	0xaceb027b	-6.679377e-12
11	0xac96a3d6	-4.281446e-12
12	0x80009308	-5.2745e-41
13	0x80003d0a	-2.1897e-41
14	0x8000081c	-2.909e-42
15	0x00000bdd	4.256e-42
16	0x351e546a	5.8982425e-07
17	0xb484b2ee	-2.4717104e-07
18	0x80008cc4	-5.0497e-41
19	0x8000f2d8	-8.7116e-41
20	0x80000f05	-5.388e-42
21	0x8000f5b9	-8.8149e-41
22	0x0000271c	1.403e-41
23	0x80000398	-1.289e-42
24	0xa70f2b12	-1.9868585e-15
25	0xa75442ef	-2.9457195e-15
26	0xb09ebec3	-1.1550231e-09
27	0xb09c27fc	-1.1361858e-09
28	0x800197c9	-1.46286e-40
29	0x8000baa4	-6.6954e-41
30	0x8000f64a	-8.8352e-41
31	0x8000f9a2	-8.9551e-41
32	0x8000ce04	-7.3904e-41
33	0x80009532	-5.3521e-41
34	0xb8d069ad	-9.9378965e-05
35	0xb85f086d	-5.317519e-05
36	0x8000ca79	-7.2634e-41
37	0x8000df12	-8.0023e-41
38	0x80008f80	-5.1478e-41
39	0x80009b9f	-5.5826e-41
40	0x8000bf6e	-6.8672e-41
41	0x800149b0	-1.1827e-40
42	0x3f619f02	0.8813325
43	0x3d1f4b44	0.03889014
44	0xb3644ae5	-5.3153503e-08
45	0xb3357234	-4.2246214e-08
46	0xa6845fb4	-9.18528e-16
47	0xa51ea593	-1.3760414e-16
48	0x80013909	-1.12296e-40
49	0x000028aa	1.4588e-41
50	0x800132ec	-1.10103e-40
51	0x8000e236	-8.1149e-41
52	0x00007ce9	4.481e-41
53	0x8001444e	-1.16339e-40
54	0x1edad1b4	2.3168379e-20
55	0x1cfcbea2	1.6725239e-21
56	0x800086d4	-4.8367e-41
57	0x800135e1	-1.11164e-40
58	0x80011627	-9.9782e-41
59	0x8001a6b7	-1.51642e-40
60	0x8000244f	-1.3025e-41
61	0x8000504c	-2.8805e-41
62	0xb6091dd0	-2.0431944e-06
63	0xb5bbc939	-1.3991149e-06

conv2.bias f4 [32]
0	0xbc04fbbe	-0.008116661
1	0x31475c03	2.9010614e-09
2	0xb56f83c7	-8.92262e-07
3	0xb07dfc3e	-9.239932e-10
4	0xba2f84ff	-0.0006695538
5	0xae8631a8	-6.102435e-11
6	0xb353e042	-4.9331227e-08
7	0xaf285a34	-1.5311558e-10
8	0xac00db0a	-1.8311485e-12
9	0xaca453d9	-4.6704693e-12
10	0xbcd77f39	-0.026305782
11	0xb13afa04	-2.720868e-09
12	0xb609567c	-2.0464931e-06
13	0xbdcc74b5	-0.099831976
14	0xbc9698cd	-0.018383408
15	0xb29bb234	-1.8125412e-08
16	0xbce4c8e3	-0.027927822
17	0xb44d7193	-1.9133431e-07
18	0xb7c6fbbb	-2.372066e-05
19	0xb40868c7	-1.2704105e-07
20	0xbd01e57e	-0.031713
21	0xbb091954	-0.0020919638
22	0xb78fe204	-1.7152175e-05
23	0xb7587397	-1.2901516e-05
24	0xb477a9cc	-2.306544e-07
25	0xb78207a5	-1.5500767e-05
26	0xacaf467e	-4.9816254e-12
27	0xb1e01840	-6.522015e-09
28	0xb6aee246	-5.211946e-06
29	0xbc43889e	-0.011934428
30	0xb07ab090	-9.120038e-10
31	0xadc22429	-2.2071305e-11

conv2.lin.weight f4 [32, 32]
0	0x00704700	1.0311046e-38
1	0x0000154c	7.64e-42
2	0x80010de0	-9.6813e-41
3	0x964daf4a	-1.661508e-25
4	0x8000ded2	-7.9933e-41
5	0x1d7d26de	3.3504365e-21
6	0x000007e3	2.829e-42
7	0x800125e3	-1.05427e-40
8	0x0cd536aa	3.2850746e-31
9	0x8000f140	-8.6544e-41
10	0x8000cb52	-7.2938e-41
11	0x8000c8ae	-7.199e-41
12	0x0011d325	1.636948e-39
13	0x0006bf62	6.19668e-40
14	0x8000a2fc	-5.8468e-41
15	0x00000f84	5.566e-42
16	0x0000fc82	9.0583e-41
17	0x1969f7fc	1.2095898e-23
18	0x80001ff8	-1.1468e-41
19	0x80011ac3	-1.01436e-40
20	0x8000253a	-1.3354e-41
21	0xba77ef31	-0.00094579445
22	0x2db12eee	2.0143411e-11
23	0xbac57524	-0.0015064818
24	0x80014609	-1.1696e-40
25	0x8000c0bd	-6.9141e-41
26	0x80011856	-1.00566e-40
27	0x9c95701b	-9.888971e-22
28	0x8000ec5f	-8.4794e-41
29	0x80004b8b	-2.71e-41
30	0x8000830b	-4.701e-41
31	0x1b34a0cc	1.4941207e-22
32	0x2ed41564	9.6444436e-11
33	0x33335ac0	4.1759222e-08
34	0xa386d577	-1.4618715e-17
35	0x16a4688e	2.6561612e-25
36	0x33cb7cb8	9.47561e-08
37	0xae927df4	-6.661685e-11
38	0x00000e0a	5.036e-42
39	0x00003d19	2.1918e-41
40	0x2dc15bae	2.1982274e-11
41	0x80004214	-2.3704e-41
42	0x80015c14	-1.24867e-40
43	0x800086be	-4.8336e-41
44	0xb378b498	-5.790625e-08
45	0x28cfaad4	2.3055701e-14
46	0x80012638	-1.05546e-40
47	0x35123d7e	5.447872e-07
48	0xb12b4f42	-2.4928828e-09
49	0xae2b4a03	-3.8946634e-11
50	0x000000f3	3.4e-43
51	0x800106d6	-9.4288e-41
52	0x00009ac1	5.5515e-41
53	0x3146e08e	2.8940437e-09
54	0x2c0ffc40	2.046155e-12
55	0xb828b7e2	-4.0225576e-05
56	0x0000b0e9	6.3463e-41
57	0x80011464	-9.915e-41
58	0x00000e06	5.03e-42
59	0xba905549	-0.0011011745
60	0x00007e7f	4.5378e-41
61	0x80002080	-1.1659e-41
62	0x00015701	1.23047e-40
63	0x3002925a	4.75017e-10
64	0x00150ea2	1.933795e-39
65	0x80002642	-1.3724e-41
66	0x3324f2f0	3.8405176e-08
67	0x30c346ea	1.4208272e-09
68	0x80001517	-7.566e-42
69	0xb4891dbc	-2.5539873e-07
70	0x000088e8	4.9113e-41
71	0x00006ffb	4.0171e-41
72	0x0000c0b3	6.9127e-41
73	0x00006278	3.5324e-41
74	0x80010b68	-9.5927e-41
75	0x00001651	8.006e-42
76	0xb19c1e60	-4.543651e-09
77	0x2ec0c9bc	8.7669844e-11
78	0x80004188	-2.3508e-41
79	0x00013ed9	1.14381e-40
80	0x00005956	3.2048e-41
81	0xb06ffe5b	-8.7309154e-10
82	0x800026ac	-1.3873e-41
83	0x00003f6d	2.2753e-41
84	0x8000a9e1	-6.0941e-41
85	0xabc8696e	-1.4240117e-12
86	0x300b28a8	5.062568e-10
87	0xb818d6c7	-3.643965e-05
88	0x00008e93	5.1146e-41
89	0x00001bb9	9.945e-42
90	0x8000d172	-7.5135e-41
91	0xb7048148	-7.897914e-06
92	0x0000c01f	6.892e-41
93	0x80002f96	-1.707e-41
94	0x0000b86b	6.6157e-41
95	0xb6af2f90	-5.2209434e-06
96	0x3a89b62a	0.001050656
97	0x8000e36e	-8.1586e-41
98	0xa76656e4	-3.1966015e-15
99	0x178a4f8c	8.938121e-25
100	0x0001305e	1.09186e-40
101	0x1d6e4dbf	3.1539232e-21
102	0x8000024b	-8.23e-43
103	0x80014e2c	-1.19878e-40
104	0x36c54b42	5.8798187e-06
105	0x800151a0	-1.21117e-40
106	0x80008c14	-5.025e-41
107	0x8000d4b3	-7.6302e-41
108	0x38a2110c	7.727937e-05
109	0x29855f33	5.922901e-14
110	0x8000c21a	-6.963e-41
111	0x8000b2b7	-6.4111e-41
112	0x80009767	-5.4313e-41
113	0x26f885b8	1.7244701e-15
114	0x00002d72	1.6303e-41
115	0x80011fe9	-1.03283e-40
116	0x000053a8	3.001e-41
117	0xafe3e3bc	-4.1452874e-10
118	0xb7b8561a	-2.1974603e-05
119	0x80246b77	-3.344629e-39
120	0x80003ccc	-2.181e-41
121	0x00005608	3.0862e-41
122	0x8000ce82	-7.4081e-41
123	0x3a482590	0.0007634992
124	0x8000a667	-5.9694e-41
125	0x80006348	-3.5615e-41
126	0x80003b06	-2.1174e-41
127	0x35d4897c	1.5835244e-06
128	0x2033c92c	1.5228452e-19
129	0x0000ff7e	9.1653e-41
130	0x2d095bec	7.807959e-12
131	0x0d5bb976	6.7707826e-31
132	0x800105e3	-9.3947e-41
133	0x35916b80	1.0834628e-06
134	0x8000725b	-4.1023e-41
135	0x00006609	3.6603e-41
136	0x3468835c	2.1654472e-07
137	0x000052e6	2.9738e-41
138	0x0000a88a	6.046e-41
139	0x00003781	1.9911e-41
140	0xb19c4633	-4.5481783e-09
141	0xaf179787	-1.3787203e-10
142	0x800050ef	-2.9034e-41
143	0x0001844c	1.39295e-40
144	0x00008798	4.8642e-41
145	0x2e9ddd6c	7.178866e-11
146	0x80003a06	-2.0815e-41
147	0x00011e6d	1.0275e-40
148	0x00007298	4.1108e-41
149	0xb9e62627	-0.00043897444
150	0x2e2a868a	3.877302e-11
151	0x1c6faa40	7.929851e-22
152	0x8000844b	-4.7458e-41
153	0x0000d5ec	7.6741e-41
154	0x0000cb73	7.2984e-41
155	0x3777b2d8	1.4763988e-05
156	0x00013b84	1.13186e-40
157	0x0000cec8	7.4179e-41
158	0x0000a931	6.0694e-41
159	0xad22e3b0	-9.259191e-12
160	0x00012aaf	1.07147e-40
161	0x8000822a	-4.6694e-41
162	0x95172f60	-3.053158e-26
163	0x15aa287d	6.872633e-26
164	0x0001091b	9.5102e-41
165	0x395739aa	0.0002052548
166	0x800031e9	-1.7904e-41
167	0x80007c5c	-4.4612e-41
168	0x3a1ae5b8	0.00059088646
169	0x80015d92	-1.25402e-40
170	0x80014fec	-1.20506e-40
171	0x8000457d	-2.4928e-41
172	0x2d81e69c	1.4768013e-11
173	0x379ee986	1.894381e-05
174	0x8000d9e5	-7.8166e-41
175	0x0001267d	1.05642e-40
176	0x0000a672	5.971e-41
177	0x00009579	5.362e-41
178	0x0000cd5f	7.3673e-41
179	0x8000774e	-4.2798e-41
180	0x00009199	5.223e-41
181	0x2efc5038	1.1473883e-10
182	0xb230c4dc	-1.0289309e-08
183	0x2b802a9a	9.106771e-13
184	0x8000d0e7	-7.494e-41
185	0x800022ad	-1.244e-41
186	0x0000bcda	6.7747e-41
187	0xb8097412	-3.2771444e-05
188	0x8001986f	-1.46518e-40
189	0x0000d395	7.5901e-41
190	0x8000529c	-2.9635e-41
191	0x97f0c5b0	-1.555954e-24
192	0x2f05d18e	1.2170728e-10
193	0x000099f6	5.5231e-41
194	0xa852d2e6	-1.1703073e-14
195	0x3ae2a8b0	0.0017292704
196	0x000184d3	1.39484e-40
197	0xb09f2cb4	-1.1581478e-09
198	0x8000ce20	-7.3944e-41
199	0x00010b13	9.5808e-41
200	0xb66c2e42	-3.5193666e-06
201	0x00017fb3	1.37645e-40
202	0x8000e1f8	-8.1062e-41
203	0x00000cf8	4.652e-42
204	0x332d18fa	4.0302417e-08
205	0x34b1aada	3.309313e-07
206	0x38128e48	3.4941622e-05
207	0x00005b2e	3.2709e-41
208	0x0000d48b	7.6246e-41
209	0xaed7d648	-9.815132e-11
210	0x00010475	9.3434e-41
211	0x80009921	-5.4932e-41
212	0x00005566	3.0635e-41
213	0xb2a8c60c	-1.9647835e-08
214	0x2db7693b	2.0851423e-11
215	0x9ee8ebd4	-2.4661492e-20
216	0x00001ef4	1.1104e-41
217	0x00008deb	5.091e-41
218	0x0000ea29	8.4001e-41
219	0xb2ac01eb	-2.0024308e-08
220	0x80000e11	-5.046e-42
221	0x80006a0b	-3.8041e-41
222	0x80013509	-1.10861e-40
223	0xad64d390	-1.3007276e-11
224	0x389a8e70	7.369823e-05
225	0x8000861b	-4.8108e-41
226	0xaa8abd21	-2.464496e-13
227	0x95df5f3d	-9.021924e-26
228	0x0000fd26	9.0813e-41
229	0xb7e72aad	-2.7557218e-05
230	0x80008c4f	-5.0333e-41
231	0x80009693	-5.4016e-41
232	0x25943a7e	2.5713543e-16
233	0x00004d03	2.7627e-41
234	0x80006ee9	-3.9787e-41
235	0x80001946	-9.066e-42
236	0xb979b5a8	-0.00023814163
237	0xb1524d30	-3.0602898e-09
238	0x00004b77	2.7072e-41
239	0x8001159a	-9.9585e-41
240	0x80003069	-1.7366e-41
241	0x250690f8	1.1671765e-16
242	0x8000ab46	-6.1441e-41
243	0x80005a9b	-3.2503e-41
244	0x8000424e	-2.3786e-41
245	0x2f10686c	1.3133822e-10
246	0x32f34480	2.8320073e-08
247	0x32988d2e	1.775933e-08
248	0x800115b6	-9.9624e-41
249	0x80000d50	-4.776e-42
250	0x00001d97	1.0615e-41
251	0x2e4a9e45	4.6070054e-11
252	0x00011fef	1.03291e-40
253	0x800168f1	-1.29481e-40
254	0x0000d977	7.8012e-41
255	0x37f8adda	2.964486e-05

fc.weight f4 [2, 32]
0	0x3b74e2be	0.0037366594
1	0xb130017d	-2.5612217e-09
2	0xacde4e39	-6.318304e-12
3	0x30972e96	1.0999937e-09
4	0xba51f3a2	-0.00080090214
5	0xb112a5f3	-2.1340127e-09
6	0xb19eb202	-4.6186424e-09
7	0xae805232	-5.835367e-11
8	0x26c73917	1.3823873e-15
9	0xa7d2ecbc	-5.8543377e-15
10	0xba81855d	-0.0009881664
11	0x300f9434	5.2233706e-10
12	0x301dbb9f	5.7382893e-10
13	0xbdc0610d	-0.09393511
14	0xbbb29d25	-0.005450862
15	0x2fe52039	4.1677753e-10
16	0xbaa0ab56	-0.0012258093
17	0x3466aaaa	2.1482506e-07
18	0xb5ef4e5e	-1.7829695e-06
19	0x34553534	1.9856526e-07
20	0x3c868246	0.016419541
21	0xb9ceb5b6	-0.00039426767
22	0x36d09270	6.2159306e-06
23	0x34a66f1d	3.1000755e-07
24	0xb45c9b37	-2.0545563e-07
25	0x345a4b9d	2.033034e-07
26	0x2c5163d8	2.975611e-12
27	0xae230b4a	-3.7071936e-11
28	0xb659091d	-3.2340824e-06
29	0x3eb70e54	0.3575312
30	0xb1505284	-3.0314888e-09
31	0x2e20390e	3.6430463e-11
32	0xbb74e2b6	-0.0037366576
33	0x31300174	2.5612197e-09
34	0x2cde4e1f	6.3182927e-12
35	0xb0972e98	-1.0999939e-09
36	0x3a51f3a0	0.000800902
37	0x3112a5ed	2.1340114e-09
38	0x319eb1f7	4.6186375e-09
39	0x2e805232	5.835367e-11
40	0xa6c7391f	-1.3823882e-15
41	0x27d2ed04	5.854368e-15
42	0x3a818573	0.000988169
43	0xb00f9434	-5.2233706e-10
44	0xb01db93d	-5.7379507e-10
45	0x3dc0610d	0.09393511
46	0x3bb29d1e	0.0054508587
47	0xafe52039	-4.1677753e-10
48	0x3aa0aba4	0.0012258184
49	0xb466aab3	-2.1482519e-07
50	0x35ef4e5e	1.7829695e-06
51	0xb455352e	-1.9856517e-07
52	0xbc86823e	-0.016419526
53	0x39ceb5cc	0.0003942683
54	0xb6d09293	-6.2159465e-06
55	0xb4a66f2d	-3.10008e-07
56	0x345c9b3f	2.0545575e-07
57	0xb45a4b84	-2.0330305e-07
58	0xac5163d0	-2.9756093e-12
59	0x2e230b4a	3.7071936e-11
60	0x3659091d	3.2340824e-06
61	0xbeb70e3c	-0.35753047
62	0x31505282	3.0314884e-09
63	0xae203910	-3.643047e-11

fc.bias f4 [2]
0	0x3f4a87aa	0.79113257
1	0xbf4b010a	-0.7929846
