pose_gcn_model.pth (torch, 2888 bytes, 4 tensors)

conv1.bias f4 [32]
0.0 0.0 0.0 0.0 0.0 0.0 0.0 0.0
0.0 0.0 0.0 0.0 0.0 0.0 0.0 0.0
0.0 0.0 0.0 0.0 0.0 0.0 0.0 0.0
0.0 0.0 0.0 0.0 0.0 0.0 0.0 0.0
00000000: 0000 0000 0000 0000 0000 0000 0000 0000
00000010: 0000 0000 0000 0000 0000 0000 0000 0000
00000020: 0000 0000 0000 0000 0000 0000 0000 0000
00000030: 0000 0000 0000 0000 0000 0000 0000 0000
00000040: 0000 0000 0000 0000 0000 0000 0000 0000
00000050: 0000 0000 0000 0000 0000 0000 0000 0000
00000060: 0000 0000 0000 0000 0000 0000 0000 0000
00000070: 0000 0000 0000 0000 0000 0000 0000 0000

conv1.lin.weight f4 [32, 2]
-0.35335672 -0.109869 0.16584 0.07431814 -0.19114286 0.15048727 -0.0069380403 0.39813522
-0.28203243 0.21338531 0.016845196 0.31858322 0.26222822 -0.066559404 0.17898598 -0.088582635
-0.38406038 -0.23531854 -0.24183384 0.33408794 -0.34437358 0.12994114 0.24798468 0.2960151
-0.3171465 0.050756633 -0.31821984 0.17689094 -0.0620223 0.38197777 -0.14814365 -0.16939658
-0.28081763 -0.16289124 0.33268753 0.38643065 -0.24613267 -0.4186101 -0.22309387 -0.27807853
0.015280485 0.3363774 0.08380076 0.20118746 0.059186935 -0.33750075 0.33163288 0.36532703
0.16529116 -0.08508152 -0.025940418 -0.1885709 -0.24761428 0.036676615 0.21384451 -0.2094237
0.007088691 -0.35402408 0.3537744 0.037225932 -0.27206093 0.23334333 -0.15538141 0.33073506
00000000: 2ceb b4be 0003 e1bd f6d1 293e 1c34 983d
00000010: f4ba 43be 5619 1a3e 8058 e3bb 61d8 cb3e
00000020: 8e66 90be ae81 5a3e f0fe 893c 571d a33e
00000030: c742 863e 4c50 88bd 1a48 373e d06a b5bd
00000040: 90a3 c4be 58f7 70be 4aa3 77be 930d ab3e
00000050: bc51 b0be 4a0f 053e b2ef 7d3e 4b8f 973e
00000060: 0761 a2be 30e6 4f3d b6ed a2be e622 353e
00000070: 180b 7ebd 9792 c33e f8b2 17be 4c76 2dbe
00000080: 54c7 8fbe f6cc 26be 0556 aa3e 3dda c53e
00000090: 340a 7cbe 1054 d6be b872 64be 4f60 8ebe
000000a0: 005b 7a3c a939 ac3e bc9f ab3d 1604 4e3e
000000b0: 006e 723d e6cc acbe c9cb a93e 250c bb3e
000000c0: 1642 293e 383f aebd 0081 d4bc bb18 41be
000000d0: 998e 7dbe 383a 163d 0efa 5a3e 2b73 56be
000000e0: 4048 e83b a542 b5be eb21 b53e 387a 183d
000000f0: 924b 8bbe 8ef1 6e3e 4e1c 1fbe 1b56 a93e

conv2.bias f4 [2]
0.0 0.0
00000000: 0000 0000 0000 0000

conv2.lin.weight f4 [2, 32]
0.2097539 -0.059835047 0.24313828 0.15065804 0.048764676 0.20739219 0.12941507 -0.39480406
0.20350978 0.32027563 0.21478239 -0.16625288 -0.060141474 -0.40598524 -0.15640733 -0.24822137
0.10139999 0.2654266 0.14844707 0.37347755 -0.10528776 0.38402644 -0.38720283 0.36927184
-0.10045391 -0.2011003 -0.31659913 0.113576025 -0.23807298 -0.07610601 -0.32798794 -0.3074473
-0.3153612 -0.05946794 -0.117129445 -0.24661377 0.20557871 0.11716017 -0.2434524 0.33152524
0.13714346 0.09844294 0.41819355 0.35501847 0.29634205 0.0921258 -0.25191545 -0.1479792
-0.25439492 0.2610589 0.012068123 0.27694884 0.3866991 -0.10761514 0.3208855 -0.16882893
0.14005366 -0.13336948 -0.34045237 0.39620295 -0.3611918 -0.30773008 0.20123914 -0.39929372
00000000: bac9 563e 9815 75bd 3ef9 783e 1a46 1a3e
00000010: 78bd 473d 9e5e 543e 6285 043e c223 cabe
00000020: de64 503e 2bfb a33e eaef 5b3e 323e 2abe
00000030: e856 76bd 4cdd cfbe 3e29 20be be2d 7ebe
00000040: ccaa cf3d ffe5 873e 8202 183e 7338 bf3e
00000050: 1ca1 d7bd 1d9f c43e 733f c6be 3311 bd3e
00000060: c8ba cdbd 3ded 4dbe 4819 a2be 8c9a e83d
00000070: 67c9 73be 78dd 9bbd 09ee a7be bc69 9dbe
00000080: 0677 a1be a894 73bd 90e1 efbd 5288 7cbe
00000090: 3a83 523e acf1 ef3d 964b 79be adbd a93e
000000a0: 566f 0c3e 749c c93d 771d d63e fbc4 b53e
000000b0: 25ba 973e 74ac bc3d 10fb 80be dc87 17be
000000c0: 0d40 82be 83a9 853e 60b9 453c 3dcc 8d3e
000000d0: 6dfd c53e 5465 dcbd 1b4b a43e 7ee1 2cbe
000000e0: 3a6a 0f3e 0292 08be c64f aebe 1ddb ca3e
000000f0: 22ee b8be cc8e 9dbe a211 4e3e 3a70 ccbe
