pose_gcn_architecture_model.pt (torch, 38192 bytes, 8 tensors)

conv1.bias f4 [64]
-4.707533e-13 -1.783e-41 -7.267e-41 -7.2299e-41 3.7298866e-09 7.027473e-11 2.5593204e-12 -4.1354568e-08
-5.7944908e-12 4.2630079e-13 -2.7554935e-12 9.835136e-12 5.8415616e-12 5.8883196e-14 -1.45018e-40 -6.062435e-12
3.971251e-11 3.4722913e-14 5.901536e-12 -7.8916e-41 -3.3017733e-10 -3.0706464e-09 -5.1038487e-13 -2.0326973e-13
3.9541683e-14 -4.0772e-41 -5.6803e-41 -9.3132e-41 -2.221549e-19 -6.1957726e-18 -2.473717e-20 1.742437e-11
-2.145801e-10 -3.7419e-41 -9.5612e-41 -7.3546455e-12 -8.34e-41 3.3298145e-12 3.5570707e-10 -2.2598494e-12
-9.881e-41 -5.6460045e-11 2.9886718e-12 -2.6727667e-08 -4.6008554e-05 -1.6300086e-12 1.062746e-11 -2.3301571e-07
-1.06180514e-20 -6.2870466e-05 -2.2895432e-11 -1.3435e-40 2.534877e-11 -2.1824193e-11 -1.16564e-40 -1.38375e-40
-6.1292374e-11 -9.200819e-05 -5.252033e-13 -4.2159446e-11 -8.4735e-41 5.559811e-10 -2.4797e-41 -4.9962e-41
00000000: 5a81 04ab b431 0080 93ca 0080 8ac9 0080
00000010: 6e28 8031 2889 9a2e 9e18 342c d49d 31b3
00000020: 22e0 cbac 6bfc ef2a 8fe6 41ac 8405 2d2d
00000030: 1c88 cd2c da97 8429 4094 0180 8f4d d5ac
00000040: 50a8 2e2e cb60 1c29 50a4 cf2c fcdb 0080
00000050: 5484 b5af 6203 53b1 1ba9 0fab 83dc 64aa
00000060: 7514 3229 a871 0080 589e 0080 9d03 0180
00000070: 1923 83a0 6b95 e4a2 cfa2 e99e 3144 992d
00000080: eeee 6baf 4f68 0080 870a 0180 6162 01ad
00000090: 7ce8 0080 9b50 6a2c 528d c32f d405 1fac
000000a0: 7113 0180 5c50 78ae 204f 522c c396 e5b2
000000b0: 4ff9 40b8 4067 e5ab d3f5 3a2d df32 7ab4
000000c0: bf91 489e 53d9 83b8 ee63 c9ad 8376 0180
000000d0: 5bf8 de2d b7f7 bfad ef44 0180 bc81 0180
000000e0: 8ac8 86ae 85f4 c0b8 e3d4 13ab 516b 39ae
000000f0: 35ec 0080 b1d3 1830 2045 0080 468b 0080

conv1.lin.weight f4 [64, 2]
7.954116e-13 -1.1801271e-12 -8.0516e-41 -9.5747e-41 -9.4263e-41 -4.4152e-41 -1.0722e-40 -8.491e-41
3.6321801e-09 1.5262623e-09 5.510287e-10 2.8099817e-10 3.9275952e-12 -1.2219729e-12 -7.0901176e-12 -7.804e-16
-1.223289e-11 -1.7264022e-11 2.5046744e-12 -2.7345832e-12 -3.0842325e-12 -3.053739e-12 2.229372e-11 -1.1159837e-11
-5.4790057e-12 -7.749535e-12 -3.5204675e-14 -2.786146e-14 9.0457e-41 -1.0702e-40 2.3923697e-12 4.8582167e-12
3.2849858e-11 -6.918195e-11 -1.3959552e-13 -1.9230643e-13 6.9420632e-12 1.9539013e-11 -6.706e-41 -8.86e-42
5.4809407e-11 1.1725576e-09 1.3572155e-09 3.1595824e-09 1.347384e-14 -2.578448e-13 1.3574368e-12 7.165024e-13
-1.9179204e-15 -3.5585485e-16 -4.0764e-41 -1.02508e-40 -3.14e-42 3.8368e-41 -7.0452e-41 -8.5982e-41
1.4240495e-30 1.0431635e-36 -6.2479407e-19 -7.715163e-18 1.17202e-40 -6.592e-41 1.1626751e-11 -9.482665e-12
6.8686484e-10 1.9177285e-11 -2.1083e-41 1.6345e-41 -7.1753e-41 -8.462e-42 1.5540168e-11 1.5860051e-11
-1.30413e-40 -1.0057e-41 -1.0487786e-12 -1.7257077e-12 -1.2336228e-09 3.9460213e-10 -4.29134e-12 -3.2912611e-12
-4.9099e-41 2.2184e-41 -3.9472182e-11 1.4906054e-11 1.9710386e-12 1.9941744e-12 -2.2373733e-08 -1.6977998e-08
-5.304224e-07 -7.3625053e-09 1.4058795e-12 -2.7938762e-12 -1.0250788e-11 -1.9937677e-11 -1.1702343e-10 -4.9954632e-14
1.38611e-40 -5.0804e-41 -8.3434486e-07 -1.3852573e-08 -2.3776495e-11 -2.2987291e-11 -1.37203e-40 -7.4801e-41
3.896751e-12 -1.5688182e-12 1.5524502e-11 -5.01218e-11 -6.7028e-41 -6.646e-41 -1.11782e-40 -1.16711e-40
-4.094888e-11 -3.7367137e-11 -1.4391413e-06 -2.8162038e-08 -1.1309199e-12 -1.5511099e-13 2.2402316e-11 2.5786068e-11
-3.5069e-41 3.395e-41 6.104976e-10 3.8197145e-10 -6.5794e-41 -2.8756e-41 -7.2343e-41 -5.3196e-41
00000000: 72e3 5f2b 8f16 a6ab 72e0 0080 e70a 0180
00000010: c406 0180 147b 0080 e32a 0180 b2ec 0080
00000020: fd99 7931 95c4 d130 3377 1730 fa7a 9a2f
00000030: a230 8a2c 37fa abab 1a76 f9ac 5bef 60a6
00000040: 0a34 57ad 1fdb 97ad 3440 302c df6d 40ac
00000050: 9808 59ac 45e3 56ac ff18 c42d 7053 44ad
00000060: 7fc6 c0ac ce54 08ad 3a8c 1ea9 27f4 faa8
00000070: 28fc 0000 542a 0180 1a59 282c edee aa2c
00000080: a779 102e fa21 98ae ab2b 1daa 8e84 58aa
00000090: 8c40 f42c f2dd ab2d f0ba 0080 b318 0080
000000a0: e80d 712e b427 a130 c688 ba30 f61f 5931
000000b0: 1fb9 7228 5a27 91aa d10a bf2b 70ad 492b
000000c0: 6333 0aa7 e822 cda5 a271 0080 c01d 0180
000000d0: c108 0080 f46a 0000 64c4 0080 afef 0080
000000e0: b410 e70d 2e7c b103 1b68 38a1 d451 0ea3
000000f0: b646 0100 c2b7 0080 3b8a 4c2d 20d2 26ad
00000100: d1cd 3c30 68af a82d c53a 0080 902d 0000
00000110: 05c8 0080 9717 0080 59b1 882d a981 8b2d
00000120: 8a6b 0180 091c 0080 3b9a 93ab 2cdf f2ab
00000130: 3e8c a9b0 50ef d82f f4fc 96ac 179a 67ac
00000140: de88 0080 d73d 0000 ba99 2dae 731d 832d
00000150: 13b3 0a2c da53 0c2c 5c30 c0b2 03d7 91b2
00000160: 5a62 0eb5 48f9 fcb1 26dc c52b 009a 44ac
00000170: 7255 34ad a85f afad 2bab 00af c5f9 60a9
00000180: 6482 0100 9f8d 0080 bef7 5fb5 43fc 6db2
00000190: e823 d1ad c732 caad 777e 0180 84d0 0080
000001a0: d01a 892c a2ca dcab 128e 882d 2170 5cae
000001b0: d9ba 0080 43b9 0080 9a37 0180 5845 0180
000001c0: 5718 34ae a857 24ae 8528 c1b5 fae8 f1b2
000001d0: af29 9fab b3a3 2eaa 880d c52d 10d1 e22d
000001e0: c261 0080 a45e 0000 f3cf 2730 b4fd d12f
000001f0: 68b7 0080 2950 0080 aac9 0080 4a94 0080

conv2.bias f4 [64]
-3.942292e-08 -1.2850209e-11 -5.8840165e-08 -1.5280019e-10 -8.435191e-07 -8.6945573e-10 -1.9116476e-08 -5.9396807e-09
1.5458851e-12 -2.2791972e-12 3.624942e-10 -1.7806194e-11 -2.7530125e-06 -8.642068e-06 -2.844592e-10 -4.062411e-09
-3.4526777e-09 -1.5099148e-11 -2.1589874e-09 -1.1380653e-06 -1.3747427e-09 -0.0009238417 1.4215858e-06 -2.8655379e-08
-6.7519215e-07 -6.76123e-12 -1.2357408e-09 -1.801471e-10 1.6461718e-07 -1.06926676e-10 -1.2861769e-09 -6.120901e-12
-2.8418405e-09 3.2066622e-10 -3.100785e-12 2.1613934e-08 1.3828819e-10 -1.7081942e-07 1.3574474e-06 -4.117296e-11
3.93968e-08 -7.908784e-10 -1.1159579e-12 -5.6517125e-16 2.1639089e-10 1.56044e-09 1.1255724e-09 -2.6336447e-06
-3.7280855e-12 -3.993021e-08 -2.6624322e-10 -9.710012e-10 -3.61098e-10 7.742184e-09 -2.2671298e-09 -1.613798e-06
6.0429436e-08 -5.047877e-11 -8.391855e-13 -4.3158295e-09 3.411708e-08 -3.2918695e-06 -1.8943305e-07 -1.5440135e-11
00000000: f551 29b3 3210 62ad 72b7 7cb3 6e01 28af
00000010: 316e 62b5 82fe 6eb0 9335 a4b2 fc15 ccb1
00000020: 6190 d92b 5e62 20ac 8648 c72f fc9f 9cad
00000030: 65c0 38b6 66fd 10b7 1362 9caf 5895 8bb1
00000040: 2644 6db1 42d0 84ad 4f5d 14b1 a0bf 98b5
00000050: 75f1 bcb0 f82d 72ba 51cd be35 d825 f6b2
00000060: da3e 35b5 bfe3 edac c4d6 a9b0 e712 46af
00000070: a0c1 3034 5e22 ebae 54c5 b0b0 2d5c d7ac
00000080: 304a 43b1 c249 b02f c732 5aac 8ba9 b932
00000090: aa0c 182f 7c6a 37b4 8a31 b635 a214 35ae
000000a0: 3d35 2933 1f65 59b0 9f0e 9dab 47e6 22a6
000000b0: 9fec 6d2f 1a77 d630 8fb2 9a30 acbd 30b6
000000c0: 9c2b 83ac bb7f 2bb3 675e 92af 1174 85b0
000000d0: 0784 c6af 7c02 0532 c5cb 1bb1 ad99 d8b5
000000e0: 6fc5 8133 0b02 5eae b035 6cab 704a 94b1
000000f0: 2088 1233 e3e9 5cb6 f666 4bb4 18d0 87ad

conv2.lin.weight f4 [64, 64]
3.3234095e-09 1.44618e-40 -3.6993e-41 1.07606e-40 -5.1724633e-17 3.3456832e-17 9.141156e-10 3.922e-42
-7.167559e-18 -2.1009064e-18 -2.1215115e-16 -1.1979542e-18 2.661186e-18 -3.0383875e-21 -1.52737e-40 -1.3852446e-18
-3.2875598e-19 -1.5528979e-21 1.9313282e-18 -1.1471193e-11 -3.266615e-20 -1.1234775e-21 2.40917e-18 -1.611878e-20
5.753505e-21 1.46241e-40 -7.162e-42 -1.08773e-40 -2.3337e-41 9.699618e-33 -5.075116e-10 5.0138304e-18
-2.6621798e-16 -3.9795e-41 -0.00026486692 1.06624886e-19 1.2166e-40 1.9555067e-20 9.9846695e-17 -3.0102195e-20
-9.9075e-41 1.243284e-17 6.644219e-19 -6.2863185e-17 -2.6221e-41 3.988152e-18 2.4350155e-10 -6.9053e-41
1.3872254e-14 7.8781e-41 -4.1250094e-19 1.38793e-40 1.3590455e-09 -5.2867952e-17 -1.1358009e-08 3.7956747e-06
3.161428e-18 4.19e-41 -1.0295342e-18 1.3273178e-17 9.997675e-12 -1.3434557e-09 3.575e-42 1.37324e-40
1.262486e-39 -8.7103e-41 -1.22664e-40 -1.41675e-40 -8.0641584e-08 -0.0010686992 1.354765e-38 -9.94692e-40
3.9245142e-35 1.2944789e-11 -2.7384518e-13 -0.0027727159 -0.00020316488 2.9483846e-09 8.751262e-12 1.1092199e-05
5.6595982e-12 0.0007940661 -1.5389717e-13 -1.4357711e-06 8.3104e-41 7.086492e-11 1.4072142e-10 -5.392407e-39
-4.040001e-10 -3.9602e-41 1.02945e-40 -1.06769e-40 1.08546e-40 1.02061e-40 -8.696e-42 -2.541364e-38
4.975592e-39 3.4804e-41 1.5600072e-11 3.401546e-30 -1.2172e-40 1.359323e-37 -1.0134961e-07 1.3872414e-09
-4.6623827e-10 7.897466e-11 -9.8084e-41 3.7868264e-15 4.1517676e-28 -3.464542e-39 -2.5145942e-38 -1.37502e-40
1.40102e-40 -3.3451014e-29 -4.857282e-12 8.1623e-41 2.728075e-15 1.1009362e-05 -4.2831027e-13 -1.3649194e-05
-6.7524383e-18 -4.35091e-32 -1.4779e-40 3.937375e-09 -4.2108678e-12 5.4553425e-08 2.5306063e-11 9.875e-42
1.6824967e-22 -1.4435721e-08 8.2500465e-12 8.4892e-41 0.00015124271 -6.184867e-10 0.0009021132 7.1287e-41
1.0288397e-07 1.1765972e-11 -8.878878e-13 -1.0344672e-07 1.8264308e-06 -8.026299e-23 -1.50244e-40 2.2263538e-07
3.7315524e-17 9.635419e-21 0.00053654285 -5.345e-41 5.6842678e-06 7.590082e-09 -0.0001535627 7.89663e-20
7.7213225e-13 1.4880353e-10 1.01384e-40 -1.4566e-40 6.8706e-41 -2.7196e-41 -3.3064e-41 6.331401e-09
1.9843484e-18 -1.1276228e-11 1.4670393e-05 -1.6074792e-23 1.952927e-10 -9.185436e-21 -0.00011667519 3.096087e-08
-9.4157e-41 -5.0815623e-05 2.5090266e-18 -0.00021440079 7.1891e-41 -5.6620203e-19 1.3198947e-13 3.3812e-41
1.04489e-40 7.379e-42 -9.805899e-07 -1.741322e-10 -3.3261765e-11 -2.3667068e-09 4.4566555e-09 -0.0013125914
1.6858912e-07 -6.6583e-41 -5.0665927e-21 2.6158827e-15 3.9951e-41 -0.0018925483 -1.22409e-40 1.14636e-40
-1.30767e-26 -1.13776e-40 1.3525e-41 -1.668e-41 -6.6313953e-19 -0.0017445607 1.2881124e-29 1.07978e-40
-1.40864195e-05 2.3085627e-09 -4.2123625e-07 -3.7010008e-09 1.2769813e-08 2.2201755e-06 1.50672e-40 -6.2089223e-09
-1.557913e-39 -1.01146254e-23 6.8231793e-07 3.421592e-05 -1.30874366e-17 3.332959e-12 8.069213e-16 -1.1664754e-20
4.1978306e-14 -9.0734e-41 1.06972e-40 -1.4576e-41 -6.9055e-41 -1.04076e-40 -2.3667e-41 -4.1037933e-05
-9.6915244e-08 1.41575e-40 8.7423e-41 -0.0023539513 7.2384e-41 -4.89886e-10 -1.0494109e-27 3.5948644e-05
1.41642e-40 0.00040868472 6.535093e-36 7.912124e-09 3.9271092e-38 -3.9378554e-29 8.648672e-11 -1.06724e-40
6.4412e-41 2.62584e-39 2.046301e-30 -8.795e-41 6.835549e-28 1.1517608e-12 8.8886e-41 1.41834e-40
-3.014478e-11 8.916e-41 -1.0434031e-21 1.6124721e-24 1.40617e-40 5.548613e-12 -1.7972294e-11 -6.9137e-41
00000000: 0a62 6431 2393 0100 1f67 0080 f62b 0100
00000010: ab89 6ea4 db4a 1a24 2b45 7b30 ef0a 0000
00000020: d737 04a3 0005 1ba2 f897 74a5 6ec9 b0a1
00000030: 625c 4422 f692 659d c5a9 0180 106d cca1
00000040: 3310 c2a0 d4aa ea9c c281 0e22 a9cd 49ad
00000050: f442 1a9f 6ec6 a99c efc3 3122 d23c 989e
00000060: 7c5c d91d a997 0100 f713 0080 372f 0180
00000070: 0e41 0080 0474 490a f480 0bb0 4afa b822
00000080: d776 99a5 ef6e 0080 d6dd 8ab9 cac2 fb1f
00000090: 2353 0100 40b1 b81e 163b e624 5227 0e9f
000000a0: 2e14 0180 6d58 6523 4d1a 4421 e0f3 90a4
000000b0: 1849 0080 0823 9322 ccdd 852f 7ec0 0080
000000c0: 7be6 7928 9cdb 0000 617f f3a0 e682 0100
000000d0: 2ac9 ba30 76cf 73a4 0d21 43b2 32b9 7e36
000000e0: b045 6922 cd74 0000 b4ee 97a1 d0d8 7423
000000f0: 87e1 2f2d a5a4 b8b0 f709 0000 ce7e 0100
00000100: 4cbf 0d00 cff2 0080 f055 0180 ef8a 0180
00000110: 2e2d adb3 9813 8cba 5685 9300 ccd4 0a80
00000120: b8a9 5006 26ba 632d 4029 9aaa 74b6 35bb
00000130: a808 55b9 889c 4a31 2ef4 192d a218 3a37
00000140: 2121 c72c e028 503a d745 2daa b8b4 c0b5
00000150: a9e7 0000 67d5 9b2e 8fb9 1a2f d6b7 3a80
00000160: f619 deaf 656e 0080 f81e 0100 a129 0180
00000170: 952e 0100 811c 0100 3e18 0080 725d 0a81
00000180: ed2d 3600 0561 0000 3d38 892d acfb 890e
00000190: 4e53 0180 7e05 3902 8aa5 d9b3 38a9 be30
000001a0: 9a28 00b0 c8aa ad2e 6b11 0180 4f6f 8827
000001b0: 2493 0312 bcb9 2580 54e8 0881 4d7f 0180
000001c0: 8c86 0100 e69d 2990 82e6 aaac 88e3 0000
000001d0: 1a94 4427 dab4 3837 041e f1aa d8fe 64b7
000001e0: fa1e f9a2 84e9 618b fa9b 0180 8449 8731
000001f0: 2028 94ac 204e 6a33 3098 de2d 871b 0000
00000200: c066 4b1b f900 78b2 e822 112d a5ec 0000
00000210: e896 1e39 2202 2ab0 cb7b 6c3a b8c6 0000
00000220: 10f1 dc33 3afd 4e2d 0feb 79ab 7026 deb3
00000230: af23 f535 6210 c29a d2a2 0180 8c0d 6f34
00000240: 6516 2c24 0702 361e c8a6 0c3a ff94 0080
00000250: 7dbb be36 8965 0232 ac05 21b9 3374 ba1f
00000260: fe55 592b 789c 232f 9e1a 0100 0a96 0180
00000270: 86bf 0000 d04b 0080 2b5c 0080 988b d931
00000280: 486b 1222 9e5f 46ad dc20 7637 4277 9b99
00000290: 02ba 562f 0b82 2d9e 84af f4b8 d6f9 0433
000002a0: 7906 0180 dc22 55b8 2c22 3922 c6d0 60b9
000002b0: 67c8 0000 041d 27a1 609b 142a 415e 0000
000002c0: 4623 0100 9214 0000 d09c 83b5 db75 3faf
000002d0: 6b49 12ae 8ca3 22b1 2821 9931 420b acba
000002e0: 6d05 3534 9bb9 0080 1469 bf9d 857e 3c27
000002f0: 5e6f 0000 620f f8ba 3a55 0180 8f3f 0100
00000300: 6081 8194 293d 0180 b425 0000 7f2e 0080
00000310: 68b9 43a1 bea9 e4ba 4fa1 820f 002d 0100
00000320: b654 6cb7 aaa4 1e31 4526 e2b4 b254 7eb1
00000330: 3b62 5b32 53fe 1436 03a4 0100 4256 d5b1
00000340: d4f6 1080 33a5 4399 8828 3735 1083 0f38
00000350: ac6b 71a3 4089 6a2c 4894 6826 4a57 5c9e
00000360: b10d 3d29 eefc 0080 322a 0100 a228 0080
00000370: 7fc0 0080 1f22 0180 f941 0080 2520 2cb8
00000380: b81f d0b3 a78a 0100 b3f3 0000 c044 1abb
00000390: c7c9 0000 aaa8 06b0 2a49 a692 90c7 1638
000003a0: d78a 0100 bc44 d639 6efc 0a05 e4ed 0732
000003b0: eacf 5501 49ac 4790 b22f be2e 8129 0180
000003c0: 8eb3 0000 c697 1c00 0204 260e 2bf5 0080
000003d0: 90a0 5812 8e18 a22b c7f7 0000 608b 0100
000003e0: 0194 04ae 8bf8 0000 b4ac 9d9c 9a84 f917
000003f0: fc87 0100 7639 c32c 0216 9ead bac0 0080

conv3.bias f4 [64]
-1.6879838e-10 -3.0406675e-08 -6.0421934e-07 -0.0017614489 -1.6626313e-08 -9.873646e-09 -7.887957e-07 -7.3003423e-07
-1.0686384e-05 -9.137676e-09 -1.2536595e-09 -0.065629214 -2.8959528e-05 -8.923684e-10 -2.0084108e-06 -0.00021243443
-1.3405606e-10 -1.0167197e-10 -2.2704766e-08 -1.0684543e-05 -1.3755836e-06 -0.00015537946 -4.9298086e-07 -0.00012894739
-2.0060251e-09 -2.067638e-06 -3.6718212e-10 -1.8446731e-09 2.1214697e-11 -1.4801785e-11 -8.61812e-06 -7.68806e-08
-6.975087e-07 -1.583426e-08 -1.2496379e-05 -0.041928474 -4.4908656e-08 -0.0007735667 -5.62251e-07 -2.1147033e-10
-6.864402e-05 -0.17142983 -0.0007935664 -0.017727768 -0.016301498 -2.857469e-08 -1.780547e-05 -5.96607e-09
-6.1630256e-11 -1.1994819e-06 -2.0654102e-11 -2.8634926e-08 -0.0012363545 -1.2866512e-07 -1.0243368e-10 -8.333862e-10
-3.1278178e-05 -1.8281962e-07 -6.308275e-07 -1.7968367e-05 -3.1074634e-08 -2.2396037e-08 -1.08939755e-08 -1.1019237e-08
00000000: 8598 39af 7e98 02b3 a331 22b5 6be0 e6ba
00000010: a6d1 8eb2 c1a0 29b2 a1bd 53b5 92f7 43b5
00000020: ab49 33b7 edfb 1cb2 394d acb0 9c68 86bd
00000030: 1dee f2b7 d84a 75b0 3cc8 06b6 efc0 5eb9
00000040: 6d65 13af 3b94 dfae 4f08 c3b2 c341 33b7
00000050: b1a0 b8b5 5bed 22b9 6355 04b5 0d36 07b9
00000060: 5eda 09b1 c0c1 0ab6 4adc c9af aa87 fdb0
00000070: 409b ba2d a832 82ad 8b96 10b7 8f19 a5b3
00000080: 6f3c 3bb5 e803 88b2 8aa7 51b7 31bd 2bbd
00000090: 97e1 40b3 2fc9 4aba 98ed 16b5 9b83 68af
000000a0: faf4 8fb8 4d8b 2fbe 5707 50ba d339 91bc
000000b0: b88a 85bc 6874 f5b2 f55c 95b7 1bfe ccb1
000000c0: c086 87ae e2fd a0b5 e7ac b5ad def8 f5b2
000000d0: 2c0d a2ba 3327 0ab4 0941 e1ae 5714 65b0
000000e0: b030 03b8 134d 44b4 2356 29b5 c6ba 96b7
000000f0: ec76 05b3 6861 c0b2 3628 3bb2 1e4f 3db2

conv3.lin.weight f4 [64, 64]
-3.7234923e-08 1.52447e-40 -6.5638833e-21 -2.65476e-40 -2.3350277e-09 0.00087105704 1.2826237e-11 6.340748e-11
5.48747e-40 -1.72637e-40 -4.342205e-20 4.316504e-20 1.392776e-39 9.606396e-25 -4.8572e-41 -5.6324e-41
1.7100032e-22 -2.1805518e-17 -1.1823565e-12 -2.31374e-40 -2.9160568e-28 -1.8191427e-38 5.976312e-19 -3.6125898e-09
3.556799e-21 -4.9946575e-06 5.3686674e-19 0.00029651582 -1.9887639e-17 4.9085e-41 2.8347316e-12 -4.748e-41
1.62235e-40 -1.4110731e-26 -6.545418e-18 6.360092e-08 -1.7707843e-23 3.234266e-21 -1.6966165e-14 2.91233e-40
5.798669e-16 -3.12652e-40 1.3499e-40 5.937939e-31 7.912734e-17 6.951448e-17 6.028715e-23 4.15988e-40
8.425468e-07 -2.2512831e-05 0.00026207714 -2.2755756e-10 1.39297e-40 1.9877455e-17 1.489276e-39 4.4269847e-15
-5.4900413e-09 -4.849559e-25 -8.897498e-21 9.3022e-41 -3.5579255e-23 -3.3634768e-12 -9.238671e-26 3.7277e-41
-2.785584e-07 -1.3879005e-38 0.00013141902 8.267796e-05 -0.00019165679 1.32923e-16 -0.0004010758 -0.00026281504
3.385323e-10 0.00024761254 8.6621026e-07 -0.00038274028 3.6155443e-06 -1.104477e-17 4.858478e-25 8.653756e-11
1.1718762e-14 -8.608158e-09 -0.00011362734 9.679279e-06 7.8621905e-16 1.23527e-40 1.0973854e-11 -4.4065977e-11
-4.3007177e-16 3.4137727e-15 -1.9548783e-11 -7.4910574e-33 -1.6268918e-12 -2.3043976e-05 -5.475402e-10 1.5436813e-10
1.092717e-39 -1.0330304e-15 1.925989e-11 -5.5327103e-09 0.00039563846 9.901288e-12 -5.617241e-07 3.2859654e-05
7.689083e-06 -5.4691e-41 1.5545633e-10 -8.374153e-27 -5.987917e-10 -3.8202825e-15 4.1125578e-16 -1.1959337e-05
-1.6153553e-10 -1.4798551e-10 1.2357055e-17 -9.86101e-09 2.659585e-11 -1.06452855e-08 -1.4604233e-09 1.8345513e-13
3.4147372e-11 8.6100946e-11 -6.2528523e-16 -5.388328e-39 -7.68296e-06 6.334445e-10 -8.951891e-24 0.0007226905
1.9574986e-06 -9.8561e-40 -8.5364014e-38 8.8181407e-10 -5.4972025e-12 9.4353515e-34 7.3649614e-11 -1.06541e-40
-1.2876e-40 1.6667666e-11 -1.0540558e-11 1.6545716e-11 -2.84605e-39 -1.693053e-39 -2.6096e-41 -5.134788e-06
-2.6390693e-29 -1.00677906e-16 0.00026078828 5.278456e-39 1.00124e-40 -1.45787e-40 1.358047e-39 5.403408e-39
-1.153668e-39 3.6456307e-15 -6.7089346e-25 -5.713404e-09 4.7478747e-30 4.3998e-41 5.2979974e-23 -1.0863025e-38
-0.00032249617 1.8807953e-08 0.0005462299 4.0239485e-08 -6.4762254e-16 6.1961e-41 -1.3779387e-22 -4.688092e-10
2.3132581e-11 -1.034053e-39 -6.482454e-39 1.5229486e-25 9.927209e-05 -2.0310935e-08 3.739664e-24 1.008607e-39
-2.760187e-39 -1.2818684e-22 -4.6038562e-11 5.167046e-17 -1.27161e-40 0.00088512513 2.58968e-40 -1.1351981e-12
-5.751273e-07 5.777203e-08 -2.1473484e-15 -4.319225e-39 6.10428e-40 -1.8543161e-09 -2.1933973e-22 1.15708e-40
2.119989e-11 -7.746e-41 -2.658955e-39 -2.620236e-39 1.335188e-39 -5.5515e-41 2.8220338e-05 1.36806e-40
1.003e-42 1.3115e-40 1.0232e-41 7.1107e-40 9.898715e-05 -3.333336e-39 -0.00041181754 -7.4506e-41
-2.3171937e-11 -6.01894e-40 -4.407451e-39 3.595371e-23 -1.63292e-06 -5.556839e-10 9.130533e-39 4.2102e-41
1.214683e-39 2.210771e-39 -3.2126698e-07 -0.00017746736 6.8754e-40 -3.5063e-40 1.43769e-40 1.04279e-40
-1.12702e-40 1.48392e-40 -1.0055086e-07 -1.0873558e-09 8.76909e-39 2.333267e-39 -9.158523e-12 1.4524e-41
-8.9222e-41 1.26264e-40 -1.2189e-39 2.766334e-39 -5.263891e-39 -3.4191433e-07 6.6071e-41 8.0468e-40
-8.4740074e-17 1.77147e-40 -2.9439755e-18 6.8469e-41 9.207e-42 -3.890781e-39 -1.090809e-39 3.236481e-39
-9.965045e-07 7.5614e-41 9.661486e-06 1.27548e-40 0.0014186488 -6.9724e-41 -5.440094e-39 4.6763e-41
00000000: 3bec 1fb3 f6a8 0100 fcf9 f79d 0ae4 0280
00000010: 3e76 20b1 a657 643a 3ca4 612d 3d6f 8b2e
00000020: aff9 0500 3ee1 0180 0a0e 4d9f 55d7 4b1f
00000030: 7e2a 0f00 dba6 9417 6687 0080 029d 0080
00000040: 09ba 4e1b d31e c9a3 e266 a6ab fa84 0280
00000050: bad3 b891 4c16 c680 bd63 3021 5a41 78b1
00000060: 405f 861d c897 a7b6 8174 1e21 ae75 9b39
00000070: 5c6e b7a3 d488 0000 fc79 472c 5b84 0080
00000080: 3fc4 0100 f4be 8b94 ba7b f1a2 fa94 8833
00000090: 7f42 ab99 ce5f 741d 50d1 98a8 d72b 0300
000000a0: a022 2726 8c67 0380 4c78 0100 78b2 400d
000000b0: 8a74 b624 1b4a a024 f0c3 911a 9b87 0400
000000c0: 602b 6235 f0d9 bcb7 6667 8939 c233 7aaf
000000d0: 4e84 0100 5056 b723 7f37 1000 ba7f 9f27
000000e0: eaa2 bcb1 2a16 1697 a911 289e 4f03 0100
000000f0: fc0c 2c9a 03af 6cac 09bd e495 ea67 0000
00000100: c68c 95b4 0521 9780 86cd 0939 6463 ad38
00000110: 7af7 48b9 f23f 1925 7c47 d2b9 70ca 89b9
00000120: 301c ba2f fed1 8139 8485 6835 88aa c8b9
00000130: 94a2 7236 74bd 4ba3 d45c 1617 514c be2e
00000140: 401b 5328 14e3 13b2 374b eeb8 3064 2237
00000150: ba9c 6226 5858 0100 d80d 412d e1cd 41ae
00000160: 64eb f7a5 fefc 7527 f2f3 abad 4b95 1b8a
00000170: f4f6 e4ab 904e c1b7 b781 16b0 c4ba 292f
00000180: 0de6 0b00 18e0 94a6 6b69 a92d 3c1a beb1
00000190: b26d cf39 702f 2e2d 63c9 16b5 c9d2 0938
000001a0: 5c00 0137 7598 0080 11ed 2a2f 00de 2594
000001b0: 3898 24b0 e3a3 89a7 a412 ed25 f6a4 48b7
000001c0: 369c 31af 38b6 22af 8bf2 6323 2e69 29b2
000001d0: 88f0 e92d 76e2 36b2 14b8 c8b0 578d 4e2a
000001e0: 862e 162e 8656 bd2e e839 34a6 77ac 3a80
000001f0: 10e6 00b7 b21e 2e30 9e27 2d99 f072 3d3a
00000200: 925d 0336 7bbb 0a80 0962 e881 2664 7230
00000210: 666a c1ac 8cc5 9c08 0cf5 a12e fe28 0180
00000220: ee66 0180 3f9c 922d 746e 39ad a489 912d
00000230: a1fd 1e80 8b6f 1280 bf48 0080 7e4b acb6
00000240: 14d1 0590 bf25 e8a4 69ba 8839 307a 3900
00000250: 1b17 0100 6596 0180 afc9 0e00 81d6 3a00
00000260: f58f 0c80 0259 8327 a8a1 4f97 a24f c4b1
00000270: c098 c00e a67a 0000 0419 801a b249 7680
00000280: b414 a9b9 208f a132 de30 0f3a c8d3 2c33
00000290: 1caa 3aa6 b9ac 0000 2395 269b 84dd 00b0
000002a0: f179 cb2d 8542 0b80 7296 4680 2b88 3c16
000002b0: 4c30 d038 3878 aeb2 d7ab 9018 96fb 0a00
000002c0: 470e 1e80 e8f7 1a9b d07a 4aae b649 6e24
000002d0: 7962 0180 be07 683a e6d1 0200 d2c3 9fab
000002e0: 7262 1ab5 0521 7833 96bb 1aa7 3e08 2f80
000002f0: a0a5 0600 f3da feb0 2e95 849b 8c42 0100
00000300: e979 ba2d edd7 0080 16f4 1c80 2788 1c80
00000310: f689 0e00 c19a 0080 b7ba ec37 5c7d 0100
00000320: cc02 0000 986d 0100 861c 0000 2dbe 0700
00000330: 5297 cf38 fc4b 2480 37e9 d7b9 b1cf 0080
00000340: 90d2 cbad d68d 0680 2efe 2f80 8adc 2d1a
00000350: b42a dbb5 c7be 18b0 366c 6300 5d75 0000
00000360: 0b3a 0d00 bb12 1800 997a acb4 8816 3ab9
00000370: 957c 0700 6ad1 0380 c590 0100 b022 0100
00000380: 2b3a 0180 a89d 0100 6bee d7b3 ee71 95b0
00000390: a87c 5f00 3368 1900 521e 21ad 7d28 0000
000003a0: b7f8 0080 f95f 0100 cc45 0d80 6a1f 1e00
000003b0: 9651 3980 5990 b7b4 2eb8 0000 1fc3 0800
000003c0: b665 c3a4 d0ed 0100 203a 59a2 ddbe 0000
000003d0: aa19 0000 ea5d 2a80 bbe0 0b80 fe3d 2300
000003e0: a2bf 85b5 c8d2 0000 c417 2237 8d63 0100
000003f0: f4f1 b93a 5dc2 0080 c53c 3b80 5b82 0000

fc.weight f4 [2, 64]
-8.76731e-11 1.14423155e-08 2.4982683e-11 -0.00044885592 9.2820756e-09 -2.5225142e-09 2.5369444e-15 -1.7254188e-05
-7.26624e-06 9.256268e-05 4.2400344e-16 0.06379181 7.648265e-06 8.298452e-12 -0.01240528 -1.8684382e-08
1.2056604e-10 2.6043344e-13 -2.4619062e-09 -1.2312036e-11 -1.2474888e-09 1.6722287e-10 1.1124333e-12 0.00075950124
-1.090545e-10 -3.853435e-05 2.5338901e-11 6.1123046e-10 4.1762205e-10 -6.3302135e-15 1.9228823e-05 -7.261952e-09
2.7812289e-06 5.5566834e-10 4.2610604e-06 -0.020867513 3.2994026e-13 -2.4155312e-05 -0.0063021993 1.532779e-14
8.5321135e-06 -0.087681845 -0.00019676257 0.0013071256 -0.0007311911 3.7352756e-09 -4.579874e-06 4.3134534e-11
-1.3967005e-13 1.7190075e-07 1.1869858e-12 -5.807888e-14 3.6760244e-05 6.2633666e-07 4.020336e-11 2.9070792e-09
-0.009184846 -1.2243625e-07 -3.5045473e-06 2.2789256e-06 -5.128798e-07 4.32638e-15 4.189461e-09 2.7857711e-14
8.76731e-11 -1.1442302e-08 -2.4982386e-11 0.00044885091 -9.2820756e-09 2.5225144e-09 -2.5370625e-15 1.7254144e-05
7.266249e-06 -9.256277e-05 -4.2400566e-16 -0.06379178 -7.648261e-06 -8.298452e-12 0.01240528 1.8684341e-08
-1.2056604e-10 -2.6042967e-13 2.4619022e-09 1.2311991e-11 1.2474919e-09 -1.6722208e-10 -1.1124216e-12 -0.0007595
1.0905476e-10 3.8534294e-05 -2.5338835e-11 -6.112292e-10 -4.176236e-10 6.3301965e-15 -1.9228813e-05 7.261958e-09
-2.7812293e-06 -5.5566846e-10 -4.2610486e-06 0.020867495 -3.2994302e-13 2.4155297e-05 0.006302197 -1.532775e-14
-8.528368e-06 0.0876818 0.00019676241 -0.0013071268 0.00073119195 -3.735273e-09 4.579872e-06 -4.313451e-11
1.396702e-13 -1.7190075e-07 -1.1869844e-12 5.807888e-14 -3.6760317e-05 -6.263374e-07 -4.0204645e-11 -2.9070806e-09
0.009184844 1.2243667e-07 3.504546e-06 -2.2789222e-06 5.1288015e-07 -4.3263915e-15 -4.1894785e-09 -2.7857711e-14
00000000: 91cb c0ae d693 4432 00c0 db2d 6c54 ebb9
00000010: 0077 1f32 8a58 2db1 5dce 3627 16bd 90b7
00000020: 87d0 f3b6 361e c238 dd6b f425 48a5 823d
00000030: 0c51 0037 e8fc 112d 843f 4bbc 647f a0b2
00000040: 5390 042f 6a9c 922a 502e 29b1 7b98 58ad
00000050: 1c74 abb0 0edd 372f a28f 9c2b 4419 473a
00000060: 3ad0 efae f19f 21b8 22e2 de2d 8503 2830
00000070: 1497 e52f ea11 e4a7 954d a137 ce84 f9b1
00000080: 26a5 3a36 afbd 1830 3bfa 8e36 59f2 aabc
00000090: 67bd b92a 23a1 cab7 ae82 cebb 7a0f 8a28
000000a0: 2625 0f37 8a92 b3bd 0d52 4eb9 db53 ab3a
000000b0: 67ad 3fba d557 8031 d1ac 99b6 2bb5 3d2e
000000c0: 2741 1daa b893 3834 ac0d a72b 32c8 82a9
000000d0: 032f 1a38 8721 2835 f6d0 302e e1c5 4731
000000e0: 097c 16bc 0577 03b4 aa2f 6bb6 a5ef 1836
000000f0: d5ac 09b5 d0df 9b27 e3f2 8f31 82eb fa28
00000100: 91cb c02e c793 44b2 55bf dbad c053 eb39
00000110: 0077 1fb2 8b58 2d31 8bd0 36a7 febc 9037
00000120: 9bd0 f336 421e c2b8 316c f4a5 44a5 82bd
00000130: 0851 00b7 e8fc 11ad 843f 4b3c 4d7f a032
00000140: 5390 04af df9b 92aa 3e2e 2931 4798 582d
00000150: 3874 ab30 d5dc 37af 368f 9cab 2f19 47ba
00000160: 5fd0 ef2e e29f 2138 fce1 dead 6e03 28b0
00000170: 4c97 e5af c211 e427 904d a1b7 dc84 f931
00000180: 28a5 3ab6 b1bd 18b0 21fa 8eb6 4ff2 aa3c
00000190: cdbd b9aa 1ba1 ca37 a982 ce3b 630f 8aa8
000001a0: 1015 0fb7 8492 b33d 0252 4e39 e653 abba
000001b0: 76ad 3f3a cf57 80b1 cdac 9936 24b5 3dae
000001c0: 3241 1d2a b893 38b4 9f0d a7ab 32c8 8229
000001d0: 172f 1ab8 9421 28b5 68d2 30ae e7c5 47b1
000001e0: 077c 163c 2377 0334 a42f 6b36 96ef 18b6
000001f0: dbac 0935 ebdf 9ba7 0bf3 8fb1 82eb faa8

fc.bias f4 [2]
0.92064786 -0.92096967
00000000: 94af 6b3f abc4 6bbf
