pose_gcn_best_model.pt (torch, 45461 bytes, 20 tensors)

conv1.bias f4 [64]
4.6363726e-05 1.15219e-06 -6.007871e-05 2.8953598e-06 -1.7212926e-05 7.4565796e-06 3.2258424e-05 4.7334743e-06
0.00025551915 -1.8337068e-05 4.2872187e-05 3.854737e-06 6.306444e-05 1.2126102e-05 8.294104e-06 0.00020349724
3.0994786e-05 -6.124119e-06 2.0931693e-06 2.6263602e-05 1.8905685e-06 6.594688e-05 -3.860679e-05 -1.6231541e-05
-2.0296491e-05 -1.0656746e-05 3.4612363e-05 0.00031387503 7.066196e-05 1.1388074e-05 -1.942023e-05 0.00021775739
-4.819525e-05 -6.385363e-05 -6.77349e-05 -1.8858887e-05 1.725397e-05 -2.0224832e-05 3.955324e-05 -1.5060833e-05
-1.7041768e-05 -2.35335e-05 -3.2330731e-06 -6.116487e-05 1.794547e-06 -2.5894047e-05 -7.4033895e-05 -1.7262246e-05
0.00028321895 1.6957594e-05 6.3177016e-05 -0.00010349605 -0.00011544049 -5.0878403e-05 -2.8062937e-06 -3.3577817e-05
0.000113200455 4.653184e-07 -2.5931447e-05 5.2938605e-05 9.9548255e-05 0.0001089809 1.832492e-05 3.0845877e-05
00000000: ac76 4238 f2a4 9a35 06fd 7bb8 e74d 4236
00000010: 7a64 90b7 8833 fa36 384d 0738 3cd4 9e36
00000020: 33f7 8539 8ed2 99b7 a9d1 3338 f057 8136
00000030: 7741 8438 3671 4b37 e826 0b37 e061 5539
00000040: 6600 0238 c87d cdb6 6078 0c36 a850 dc37
00000050: 70bf fd35 f64c 8a38 baed 21b8 f828 88b7
00000060: 6242 aab7 60ca 32b7 be2c 1138 988f a439
00000070: 5a30 9438 680f 3f37 a0e8 a2b7 ce55 6439
00000080: 4125 4ab8 28e9 85b8 e60c 8eb8 2733 9eb7
00000090: 9ebc 9037 7fa8 a9b7 f8e5 2538 c9ad 7cb7
000000a0: ebf4 8eb7 ce69 c5b7 c6f7 58b6 a445 80b8
000000b0: 2adc f035 0b37 d9b7 a542 9bb8 64ce 90b7
000000c0: 017d 9439 2840 8e37 e77d 8438 050c d9b8
000000d0: a418 f2b8 4566 55b8 c253 3cb6 e8d5 0cb8
000000e0: 0866 ed38 e0d0 f934 5c87 d9b7 650a 5e38
000000f0: 90c4 d038 ad8c e438 77b8 9937 8260 0138

conv1.lin.weight f4 [64, 2]
0.11352569 -0.1662197 0.0936526 0.069801114 -0.3012016 0.04418212 -0.05217305 -0.020598779
-0.042635057 -0.30631223 0.11269359 -0.106099285 0.037545916 -0.19064635 0.082408674 -0.2666665
-0.046311144 0.20369844 -0.08226545 0.22243002 0.23379089 -0.2375214 0.027511299 -0.22382759
-0.1365008 -0.09262138 0.15912923 -0.18535496 0.07897387 0.15911756 0.20679359 -0.09762916
-0.008098869 0.17411844 -0.078910194 -0.13108337 -0.09179895 -0.17216997 -0.15118861 0.15764716
0.07643647 -0.17645568 0.2615157 0.13374034 0.03592858 -0.17865455 0.012360239 -0.28079838
-0.1807606 -0.065291375 0.14858547 -0.22437996 -0.10019702 0.17799234 0.0885319 -0.18168901
0.17112342 -0.033634517 0.10071117 0.06805538 -0.105126746 -0.19438395 -0.325435 0.012039788
0.18826954 -0.03297373 0.09926597 -0.13633509 -0.008429808 -0.17027478 0.0867028 0.101856664
-0.111830205 -0.047692306 0.153805 0.042759746 0.044055797 -0.304039 -0.060633324 -0.06671733
-0.1492084 0.009794574 0.07382054 -0.047162198 -0.1366041 -0.08179995 -0.07142042 0.33620512
0.015454604 -0.1195706 0.12789811 -0.10939146 -0.121674545 0.21830681 -0.08246397 -0.09592077
-0.027283885 0.34702933 0.10617669 0.009292802 -0.11726404 -0.2201345 0.006990524 0.32287958
0.1951196 0.033152755 -0.052341357 0.19877867 0.044218242 -0.12279667 -0.15246487 -0.2590333
0.1483818 -0.1879175 -0.06551044 -0.024396036 0.039649494 -0.29494256 0.05635952 0.19668773
-0.18025506 0.12292561 0.0021420643 -0.26900655 -0.06368286 -0.011866318 0.12139671 -0.11215782
00000000: 2880 e83d 7f35 2abe efcc bf3d e3f3 8e3d
00000010: 1937 9abe 50f8 343d 68b3 55bd c5be a8bc
00000020: 19a2 2ebd f5d4 9cbe e6cb e63d 954a d9bd
00000030: bfc9 193d cc38 43be e1c5 a83d 8388 88be
00000040: c1b0 3dbd 5396 503e ca7a a8bd b2c4 633e
00000050: e166 6f3e cf38 73be 605f e13c 0f33 65be
00000060: dec6 0bbe 47b0 bdbd c6f2 223e b1cd 3dbe
00000070: 0dbd a13d b7ef 223e b3c1 533e ccf1 c7bd
00000080: 1eb1 04bc 1b4c 323e ab9b a1bd b83a 06be
00000090: 1701 bcbd 534d 30be 30d1 1abe 426e 213e
000000a0: b98a 9c3d ccb0 34be 63e5 853e 3af3 083e
000000b0: d929 133d 38f1 36be 9a82 4a3c cec4 8fbe
000000c0: 4f19 39be 7cb7 85bd ca26 183e dcc3 65be
000000d0: 1834 cdbd a043 363e 3650 b53d af0c 3abe
000000e0: fa3a 2f3e 59c4 09bd a841 ce3d 9e60 8b3d
000000f0: b14c d7bd 960c 47be 6b9f a6be 8842 453c
00000100: bbc9 403e 760f 07bd f54b cb3d 6d9b 0bbe
00000110: 2d1d 0abc 835c 2ebe 3d91 b13d 3a9a d03d
00000120: 3c07 e5bd 0259 43bd 0f7f 1d3e d824 2f3d
00000130: da73 343d 00ab 9bbe a65a 78bd 18a3 88bd
00000140: 16ca 18be 6c79 203c 392f 973d 262d 41bd
00000150: f2e1 0bbe bb86 a7bd df44 92bd 1423 ac3e
00000160: 4f35 7d3c 6ee1 f4bd b9f7 023e a108 e0bd
00000170: 8130 f9bd d28b 5f3e dfe2 a8bd 1c72 c4bd
00000180: 7482 dfbc d4ad b13e 2a73 d93d d640 183c
00000190: 2128 f0bd f06a 61be c410 e53b 7950 a53e
000001a0: 6fcd 473e 2fcb 073d e463 56bd a38c 4b3e
000001b0: 301e 353d d27c fbbd c01f 1cbe 03a0 84be
000001c0: 66f1 173e 726d 40be 562a 86bd 32da c7bc
000001d0: 8267 223d b602 97be 3dd9 663d 8268 493e
000001e0: c894 38be 6cc0 fb3d e061 0c3b 3abb 89be
000001f0: 296c 82bd f26a 42bc d79e f83d 00b3 e5bd

bn1.module.weight f4 [64]
0.33767045 0.14469485 0.48653436 0.14984435 0.51035273 0.1678172 0.32912946 0.38433665
0.6035856 0.25612852 0.61527085 0.31696078 0.3486231 0.30536467 0.19881473 0.7566712
0.276537 0.26784492 0.468348 0.5058028 0.29422203 0.29682505 0.30548415 0.575426
0.3430601 0.38366702 0.38288048 0.49123117 0.4139993 0.26598966 0.24050094 0.73760754
0.39680654 0.47704166 0.574103 0.19470312 0.17651896 0.26528516 0.6028584 0.16737112
0.31738642 0.21661703 0.15089189 0.54517025 0.16169621 0.35345447 0.5233082 0.20172481
0.75595635 0.17340824 0.36390927 0.6600897 0.35831916 0.34764838 0.091244005 0.4589466
0.6109956 0.07919161 0.40292487 0.30452225 0.7013097 0.63969326 0.1259209 0.35854924
00000000: 24e3 ac3e e32a 143e 081b f93e cc70 193e
00000010: 7aa6 023f 46d8 2b3e a883 a83e c6c7 c43e
00000020: 9684 1a3f 4723 833e 6482 1d3f af48 a23e
00000030: ba7e b23e c258 9c3e 1796 4b3e 34b5 413f
00000040: 4296 8d3e f822 893e 4fcb ef3e 4b7c 013f
00000050: 45a4 963e 74f9 973e 6b68 9c3e 1e4f 133f
00000060: 93a5 af3e 0170 c43e e908 c43e a782 fb3e
00000070: b7f7 d33e cc2f 883e e145 763e d9d3 3c3f
00000080: 3a2a cb3e ce3e f43e 6af8 123f 4160 473e
00000090: 63c1 343e 75d3 873e ee54 1a3f 5663 2b3e
000000a0: 7980 a23e dbd0 5d3e 6783 1a3e 4790 0b3f
000000b0: b193 253e fcf7 b43e 87f7 053f f390 4e3e
000000c0: 5b86 413f ee91 313e 5152 ba3e a3fb 283f
000000d0: 9c75 b73e f8fe b13e 23de ba3d 0cfb ea3e
000000e0: 356a 1c3f 362f a23d 2b4c ce3e 57ea 9b3e
000000f0: 0889 333f f0c2 233f 69f1 003e c493 b73e

bn1.module.bias f4 [64]
-0.026327558 -0.13497527 -0.22082157 -0.07985188 0.053914804 0.047862865 -0.0064263544 -0.10386651
0.29258692 0.00069026044 -0.13343473 0.108057655 0.07615977 -0.10188554 -0.018905265 0.100043
0.08893004 -0.0043549775 -0.064452484 -0.0811325 0.09961365 -0.040880717 0.08333147 0.20023507
0.07583322 -0.011989428 -0.0312215 -0.07237633 0.12584385 -0.021833476 0.07250311 0.22532403
-0.049702477 -0.07571072 0.21517524 -0.0772303 -0.064558946 -0.044732016 0.09009162 -0.06385272
-0.18344374 -0.1475675 0.00849438 0.03246624 -0.113373436 -0.036833275 0.06545632 0.06324138
0.080145866 -0.021488227 0.060555432 0.024679715 -0.11673716 0.061799034 -0.036083896 0.21028514
0.2601123 -0.081406094 0.27165455 -0.12980919 -0.053939946 0.13854463 0.06706481 -0.08073922
00000000: e4ac d7bc f536 0abe 0d1f 62be 6289 a3bd
00000010: c5d5 5c3d da0b 443d 2b94 d2bb f7b7 d4bd
00000020: f4cd 953e 98f2 343a 1da3 08be 554d dd3d
00000030: a7f9 9b3d 5ea9 d0bd 37df 9abc 58e3 cc3d
00000040: f420 b63d 33b4 8ebb aaff 83bd cc28 a6bd
00000050: 3e02 cc3d 8a72 27bd b1a9 aa3d 6c0a 4d3e
00000060: 724e 9b3d 4e6f 44bc 3bc4 ffbc 0b3a 94bd
00000070: 36dd 003e 1edc b2bc 837c 943d 58bb 663e
00000080: d394 4bbd 390e 9bbd e656 5c3e eb2a 9ebd
00000090: 7b37 84bd eb38 37bd f581 b83d 37c5 82bd
000000a0: add8 3bbe ef1b 17be 032c 0b3c 52fb 043d
000000b0: 5530 e8bd 7dde 16bd f70d 863d b284 813d
000000c0: 8423 a43d 1408 b0bc f908 783d 1d2d ca3c
000000d0: e413 efbd fc20 7d3d b5cc 13bd fd54 573e
000000e0: 702d 853e 3db8 a6bd 4e16 8b3e b3ec 04be
000000f0: 22f0 5cbd a5de 0d3e 4659 893d 9b5a a5bd

bn1.module.running_mean f4 [64]
-0.02539607 0.07822721 -0.13808136 -0.034664296 -0.14758897 0.017666839 -0.06551539 -0.06770629
0.069701724 0.04379707 0.029047549 -0.08144106 -0.1065662 -0.0030338876 0.10459106 0.06282201
0.07816724 -0.092437595 -0.1202105 -0.0095596695 -0.04927744 0.116988696 -0.048059225 -0.10402594
-0.12680005 -0.003996898 0.020818414 -0.033817843 0.08666392 0.07778843 -0.1293912 -0.1551077
0.101448886 -0.008631994 -0.06463384 0.085857175 -0.08022079 0.09649953 -0.09416298 -0.060347456
-0.075223036 0.025230434 -0.107037246 0.09622778 -0.03836067 0.02295395 0.033944856 -0.08073521
0.12368984 0.06473524 -0.14846304 0.13581176 0.118834496 0.041782647 -0.026949847 -0.17725445
0.016643506 -0.04551812 -0.09719866 0.10454564 -0.032775633 -0.112412475 -0.039128464 0.017486619
00000000: 6b0b d0bc 9635 a03d 3365 0dbe 26fc 0dbd
00000010: 9021 17be 0cba 903c ef2c 86bd 98a9 8abd
00000020: c7bf 8e3d 8e64 333d 20f5 ed3c 92ca a6bd
00000030: 613f dabd 30d4 46bb d633 d63d d3a8 803d
00000040: 2516 a03d ec4f bdbd ec30 f6bd 29a0 1cbc
00000050: 24d7 49bd c597 ef3d c0d9 44bd 8d0b d5bd
00000060: dfd7 01be 69f8 82bb 618b aa3c 9484 0abd
00000070: da7c b13d 8a4f 9f3d 207f 04be 8ed4 1ebe
00000080: 6fc4 cf3d 356d 0dbc bf5e 84bd e3d5 af3d
00000090: cc4a a4bd 8ca1 c53d 85d8 c0bd e52e 77bd
000000a0: 890e 9abd 0eb0 ce3c 5836 dbbd 1213 c53d
000000b0: 1420 1dbd ec09 bc3c c309 0b3d 8058 a5bd
000000c0: 1951 fd3d e993 843d b206 18be 3d12 0b3e
000000d0: 805f f33d 4824 2b3d edc5 dcbc 3182 35be
000000e0: f657 883c 3571 3abd 1710 c7bd 061c d63d
000000f0: be3f 06bd 8338 e6bd 2b45 20bd 1940 8f3c

bn1.module.running_var f4 [64]
0.001552898 0.002050558 0.008740916 0.00042617045 0.008301523 0.0010143152 0.002304671 0.0036820523
0.002628445 0.0024120188 0.004468746 0.0032583952 0.0038338026 0.0022878712 0.0037144558 0.0031225067
0.0023022688 0.002918556 0.004848384 0.0018532767 0.0018252948 0.00667018 0.0016412135 0.0051474147
0.005807362 0.0026099747 0.0015327933 0.0016742642 0.00322752 0.0020307505 0.0057138265 0.01021183
0.0039454023 0.0010679595 0.0019073595 0.002443624 0.0022727463 0.003447517 0.005171956 0.001207661
0.0023695081 0.00052108994 0.0038815637 0.0060947584 0.00082187867 0.0012408554 0.0025404913 0.002173952
0.0075158356 0.0014856759 0.0074474923 0.00775375 0.005133479 0.0017971141 0.0007737327 0.010669669
0.0021692768 0.00072215934 0.00518027 0.0040007364 0.0021015592 0.005196634 0.00054697745 0.0011207913
00000000: 9c8a cb3a a862 063b 0f36 0f3c a16f df39
00000010: 1c03 083c c5f2 843a f709 173b 964e 713b
00000020: fd41 2c3b f612 1e3b 8f6e 923b cd8a 553b
00000030: 8940 7b3b 1cf0 153b 3a6e 733b f8a2 4c3b
00000040: a9e1 163b 3f45 3f3b 31df 9e3b a6e9 f23a
00000050: bb3e ef3a 8691 da3b fd1d d73a a5ab a83b
00000060: af4b be3b 1c0c 2b3b 02e8 c83a fc72 db3a
00000070: cd84 533b 5716 053b 0d3b bb3b 854f 273c
00000080: 6f48 813b c6fa 8b3a 5d00 fa3a 3525 203b
00000090: 5bf2 143b bdef 613b 8379 a93b 614a 9e3a
000000a0: c049 1b3b c199 083a d561 7e3b 8ab6 c73b
000000b0: 5873 573a 33a4 a23a 5f7e 263b dd78 0e3b
000000c0: 6647 f63b 03bb c23a 180a f43b 2b13 fe3b
000000d0: be36 a83b 258d eb3a 53d4 4a3a d6cf 2e3c
000000e0: 6d2a 0e3b 4b4f 3d3a 41bf a93b 9c18 833b
000000f0: 50ba 093b 8748 aa3b 0963 0f3a 84e7 923a

conv2.bias f4 [64]
2.668375e-08 -1.0203721e-06 1.17583355e-07 1.3564527e-06 1.1434597e-06 1.0003856e-05 -5.2345194e-06 -3.5518624e-06
-3.7366578e-07 -2.6448715e-06 -1.0946005e-06 -2.6785306e-06 -1.3144252e-05 -4.7655112e-07 -1.4020554e-06 -4.3662527e-07
-1.8353857e-06 -9.5074535e-07 -1.5747737e-06 -3.1044938e-06 -1.7612479e-07 1.0063244e-06 5.149712e-06 3.719217e-06
2.3520806e-07 9.477478e-06 -9.3703613e-07 4.768479e-06 -1.7557477e-07 -5.2206306e-06 1.7953565e-06 -3.023601e-08
-5.7704474e-06 2.3974562e-06 3.0294974e-05 -1.3412168e-06 -9.778678e-06 -3.4855775e-06 3.080847e-06 -1.0945541e-06
1.2888809e-06 1.0040724e-06 -4.641533e-06 2.1608776e-06 1.5919142e-08 3.0668143e-06 9.45073e-07 4.869252e-06
-9.534947e-06 -3.081528e-06 1.1630747e-05 -6.4815714e-07 2.9018304e-06 -2.2246502e-06 1.2438618e-06 3.8273847e-06
2.0501962e-05 -2.7901406e-06 -2.2106083e-06 2.1999995e-06 -5.8101227e-06 1.8256887e-06 -3.5880447e-08 1.8106471e-06
00000000: 3036 e532 b8f3 88b5 2282 fc33 5c0f b635
00000010: fa78 9935 3cd6 2737 2ea4 afb6 885c 6eb6
00000020: 3c9c c8b4 8c7e 31b6 30ea 92b5 cec0 33b6
00000030: 2286 5cb7 b0d8 ffb4 422e bcb5 5269 eab4
00000040: 5f57 f6b5 b936 7fb5 d05c d3b5 cc56 50b6
00000050: d01c 3db4 0b11 8735 b0cb ac36 a997 7936
00000060: 808d 7c34 7501 1f37 a288 7bb5 ec00 a036
00000070: a085 3cb4 e02c afb6 fbf7 f035 d8dc 01b3
00000080: c49f c1b6 fce3 2036 f621 fe37 dc03 b4b5
00000090: 1a0f 24b7 c4e9 69b6 8cc0 4e36 98e8 92b5
000000a0: 9cfd ac35 aac3 8635 77be 9bb6 9803 1136
000000b0: 90be 8832 78cf 4d36 ecb0 7d35 8e62 a336
000000c0: 49f8 1fb7 3fcc 4eb6 ae21 4337 05fd 2db5
000000d0: 11bd 4236 334b 15b6 c4f2 a635 fc6c 8036
000000e0: a1fb ab37 403e 3bb6 f659 14b6 b4a3 1336
000000f0: 93f4 c2b6 300a f535 f81a 1ab3 5c05 f335

conv2.lin.weight f4 [64, 64]
0.018160973 0.01969471 -0.022365112 -0.0036628735 -0.020148158 0.0479026 0.006391916 0.022959648
-0.012685595 -0.0071882093 0.029974319 0.009619658 -0.012472403 0.011379663 0.015360942 0.07730764
0.020426977 -0.004934616 0.039711975 -0.008703084 0.016976926 -0.010903668 0.021756649 0.030827865
-0.014999846 0.02399325 0.006982485 0.043478332 0.018430654 0.028341174 0.0054341955 -0.02021723
0.026579525 0.019213047 -0.0057437327 -0.020015074 -0.009803572 0.014248503 -0.0019186581 -0.0061513865
0.020708947 0.022426998 -0.011543294 -0.016452786 0.0005843649 0.019260606 -0.05425613 0.0017416308
-0.060533598 -0.012790731 -0.008924773 0.04276088 -0.026737899 0.0061670113 0.0066060163 -0.007695776
0.03534719 -0.00015233616 0.003957594 -0.0076869577 -0.010530931 0.0064463923 -0.009027543 -0.008724831
-0.15235516 -0.041419473 -0.12587668 -0.023418201 0.043140247 -0.019364499 -0.07396505 -0.07873558
-0.27507144 -0.06057578 -0.061639953 -0.17485696 -0.072212234 -0.1299236 -0.081170544 -0.26653597
-0.014305346 -0.019667093 -0.121111915 -0.2092446 -0.10542067 -0.070490085 -0.027109131 -0.026423609
-0.05786978 -0.17699432 -0.10309487 -0.0242498 -0.03405849 -0.032101016 -0.08283429 -0.06949859
-0.09428367 -0.2104323 -0.3249116 -0.0028284686 -0.005014325 -0.06767462 0.03381613 -0.08437898
-0.004804964 -0.017680693 -0.08699548 -0.16734491 0.0046159974 -0.16356775 -0.2526163 -0.010184636
-0.15031455 0.012562899 0.012287564 -0.16290018 -0.07189734 -0.04878948 -0.022222754 -0.08409191
0.03599646 0.022560367 -0.10409587 -0.061950747 -0.32614088 -0.24957138 0.042631425 -0.0090434905
0.0002685968 -0.027044538 -0.0020796806 -0.0028146312 -0.06175699 0.011790048 0.0048283827 -0.057367433
-0.080517426 0.017906189 0.10511197 -0.0076928437 -0.011145633 -0.014756828 0.019748567 0.015689434
0.012408533 0.03816706 0.019806687 0.017291164 -0.039063424 -0.020102812 0.021782016 -0.060674332
-0.016846241 -0.035933353 -0.047479805 0.028251918 0.087755635 0.07734638 0.02724979 -0.082423955
-0.032767434 -0.014273207 -0.053275634 -0.03041326 -0.026963823 -0.007393987 0.086386286 -0.0015327721
-0.024093583 -0.005015702 -0.014728022 -0.10393025 0.0038467052 0.0014608077 -0.037024323 -0.0135915885
-0.04912932 0.008303313 -0.047281742 0.034035992 0.030683814 0.01807173 0.0054691704 -0.015298312
-0.007473126 -0.0039992845 -0.018557437 0.046209913 -0.013865351 0.025904935 -0.017880172 -0.08192905
0.02079255 -0.0015324767 0.08767332 0.006912531 0.0639658 -0.008718059 -0.028593462 -0.019432789
-0.055421513 0.07931281 0.017399514 -0.037111357 0.07038326 -0.016010307 -0.06418296 -0.059465546
-0.07814334 -0.032091435 -0.047205225 -0.07888282 0.04429061 0.03101585 0.0063673095 0.05864382
0.13716887 -0.022326278 -0.068883106 -0.028869066 -0.042572897 0.0014251762 0.022852104 0.12964804
-0.024255786 -0.0370047 0.005208749 -0.035742395 0.02244071 0.0023405065 -0.013540074 0.0050880183
0.08845312 -0.010889618 0.03022173 -0.07911716 0.01120787 0.0008678035 0.017946688 -0.0034456984
-0.106794864 -0.036325578 0.035087947 -0.009021379 -0.013527644 -0.049598683 0.0016332761 0.08542106
-0.056114916 0.0026640685 -0.017062 -0.03616924 0.015825357 0.05176988 -0.025395505 -0.028521188
00000000: 52c6 943c cd56 a13c 0a37 b7bc d20c 70bb
00000010: c00d a5bc 8435 443d 4773 d13b df15 bc3c
00000020: 3ed7 4fbc 128b ebbb b48c f53c c59b 1d3c
00000030: 0d59 4cbc c471 3a3c 76ac 7b3c 7853 9e3d
00000040: 7a56 a73c 8fb2 a1bb 06a9 223d 6197 0ebc
00000050: 3213 8b3c 4ca5 32bc 003b b23c b88a fc3c
00000060: eac1 75bc 7e8d c43c 54cd e43b 5616 323d
00000070: e2fb 963c c02b e83c 5611 b23b 9b9e a5bc
00000080: 4ebd d93c ae64 9d3c ec35 bcbb a7f6 a3bc
00000090: 299f 20bc 8e72 693c 7c7b fbba 9291 c9bb
000000a0: cfa5 a93c d3b8 b73c 1620 3dbc fec7 86bc
000000b0: 1130 193a 6bc8 9d3c ad3b 5ebd 6f47 e43a
000000c0: 14f2 77bd 3790 51bc 3639 12bc 0826 2f3d
000000d0: 7009 dbbc a414 ca3b 4877 d83b d92c fcbb
000000e0: 37c8 103d 6dbc 1fb9 b4ae 813b e0e2 fbbb
000000f0: ed89 2cbc 423c d33b 42e8 13bc 98f2 0ebc
00000100: fe02 1cbe 77a7 29bd d1e5 00be 87d7 bfbc
00000110: d4b3 303d 4ca2 9ebc fd7a 97bd 1f40 a1bd
00000120: 2ad6 8cbe 4f1e 78bd 2d7a 7cbd b40d 33be
00000130: 02e4 93bd b10a 05be be3c a6bd 6777 88be
00000140: f860 6abc e21c a1bc 8609 f8bd 3744 56be
00000150: cbe6 d7bd 1b5d 90bd f813 debc 5376 d8bc
00000160: dd08 6dbd 003e 35be 6723 d3bd 84a7 c6bc
00000170: ea80 0bbd 5b7c 03bd 06a5 a9bd 4755 8ebd
00000180: cc17 c1bd 917b 57be d05a a6be d45d 39bb
00000190: 354f a4bb fe98 8abd c882 0a3d e3ce acbd
000001a0: f672 9dbb 1ad7 90bc b02a b2bd 775c 2bbe
000001b0: cb41 973b 4e7e 27be ec56 81be 76dd 26bc
000001c0: 0fec 19be 9ed4 4d3c c751 493c 4ecf 26be
000001d0: ea3e 93bd 7ad7 47bd 7e0c b6bc 6138 acbd
000001e0: 0671 133d 85d0 b83c 3730 d5bd 11c0 7dbd
000001f0: f0fb a6be a48f 7fbe 4a9e 2e3d 262b 14bc
00000200: 74d2 8c39 828c ddbc 404b 08bb ad75 38bb
00000210: e6f4 7cbd 0c2b 413c 6937 9e3b 1dfa 6abd
00000220: 52e6 a4bd 00b0 923c f244 d73d 4014 fcbb
00000230: 2c9c 36bc 9fc6 71bc bfc7 a13c 2187 803c
00000240: 294d 4b3c 1055 1c3d a241 a23c 33a6 8d3c
00000250: f800 20bd a7ae a4bc 3370 b23c a685 78bd
00000260: 2101 8abc da2e 13bd 2f7a 42bd 9170 e73c
00000270: 3ab9 b33d c767 9e3d f43a df3c e4cd a8bd
00000280: 2537 06bd 2bda 69bc 8d37 5abd 3b25 f9bc
00000290: 3ce3 dcbc 4249 f2bb 4beb b03d 4ce7 c8ba
000002a0: e85f c5bc c25a a4bb cd4d 71bc 62d9 d4bd
000002b0: 0119 7c3b 9378 bf3a d1a6 17bd 41af 5ebc
000002c0: d33b 49bd 9e0a 083c 80aa 41bd 5369 0b3d
000002d0: 9f5c fb3c 2a0b 943c ba36 b33b c5a5 7abc
000002e0: 20e1 f4bb 6e0c 83bb c405 98bc 9b46 3d3d
000002f0: 7f2b 63bc 9636 d43c 7079 92bc 6bca a7bd
00000300: 2355 aa3c 63dd c8ba 128e b33d 8382 e23b
00000310: 8000 833d 31d6 0ebc d63c eabc 8331 9fbc
00000320: ab01 63bd c16e a23d 6d89 8e3c 1402 18bd
00000330: 1925 903d 0c28 83bc 5b72 83bd 2592 73bd
00000340: 9e09 a0bd 4f72 03bd 445a 41bd 518d a1bd
00000350: 126a 353d f414 fe3c dda4 d03b 8134 703d
00000360: ff75 0c3e 99e5 b6bc 9612 8dbd d27e ecbc
00000370: eb60 2ebd facc ba3a 5634 bb3c 75c2 043e
00000380: 12b4 c6bc 3e92 17bd 27ae aa3b 9e66 12bd
00000390: 94d5 b73c 2f63 193b 30d7 5dbc 64b9 a63b
000003a0: e926 b53d 5e6a 32bc 9093 f73c 2d08 a2bd
000003b0: 37a1 373c 4f7d 633a ef04 933c 3ad1 61bb
000003c0: 44b7 dabd 21ca 14bd 61b8 0f3d 68ce 13bc
000003d0: 0da3 5dbc fd27 4bbd a713 d63a 3df1 ae3d
000003e0: c1d8 65bd a797 2e3b 9cc5 8bbc 3226 14bd
000003f0: 2ea4 813c a70c 543d 3c0a d0bc 44a5 e9bc

bn2.module.weight f4 [64]
0.052555952 0.6401375 0.10825369 0.23145466 0.22762027 0.38253883 0.5379196 0.478227
0.33259204 0.33954588 0.45263496 0.27750027 0.56313694 0.20029065 0.37337148 0.16998
0.39035285 0.16955015 0.24648698 0.7998097 0.5577945 0.327217 0.48246917 0.39714757
0.3519412 0.2697679 0.16642241 0.23024274 0.18934187 0.79502 0.3203865 0.16217002
0.46970838 0.33848783 0.5215928 0.3094332 0.533411 0.553201 0.2973836 0.33513683
0.46042138 0.24518499 0.35172564 0.4179046 0.18612285 0.19766414 0.43720573 0.5098853
0.37565738 0.32508382 0.5170659 0.3391096 0.29445833 0.23661451 0.37553036 0.466602
0.38994092 0.39605257 0.29129565 0.52247113 0.297734 0.4940219 0.14036873 0.63944656
00000000: e944 573d 0de0 233f 1cb4 dd3d 7302 6d3e
00000010: 4a15 693e 21dc c33e 19b5 093f 2bda f43e
00000020: 8149 aa3e f5d8 ad3e c5bf e73e 8414 8e3e
00000030: be29 103f fe18 4d3e 8c2a bf3e 3d0f 2e3e
00000040: 54dc c73e 8e9e 2d3e 1567 7c3e 54c0 4c3f
00000050: 9fcb 0e3f fd88 a73e 3306 f73e ed56 cb3e
00000060: a331 b43e 051f 8a3e a36a 2a3e c1c4 6b3e
00000070: d6e2 413e 6e86 4b3f b309 a43e e60f 263e
00000080: 9e7d f03e 474e ad3e 1b87 053f 076e 9e3e
00000090: a08d 083f 959e 0d3f aa42 983e 0e97 ab3e
000000a0: 5abc eb3e c611 7b3e 6215 b43e 97f7 d53e
000000b0: fd96 3e3e 7868 4a3e 6ed9 df3e d887 023f
000000c0: 2a56 c03e 6371 a63e 6e5e 043f c69f ad3e
000000d0: 3ec3 963e 134b 723e 8445 c03e 75e6 ee3e
000000e0: 56a6 c73e 67c7 ca3e b424 953e abc0 053f
000000f0: 9770 983e 70f0 fc3e d2bc 0f3e c5b2 233f

bn2.module.bias f4 [64]
-0.13683297 0.13942963 -0.059277866 -0.09505483 0.0016559885 0.11960952 -0.049402695 0.13078222
0.026316695 -0.15032105 0.103993274 -0.0039029666 0.23335381 -0.08763906 0.07052321 -0.14699635
0.07347222 -0.0716302 -0.019146644 0.4578643 0.17490709 0.275308 -0.023126766 -0.0091055995
0.10683586 0.25148067 -0.033626515 0.11638004 0.004924858 0.24345039 -0.1157216 -0.17374435
0.069083065 0.17296208 0.15890095 0.047534745 0.052418098 -0.055598684 0.17463945 -0.015700899
-0.024358697 -0.061411582 0.025365837 0.1276209 -0.06936309 0.14371715 0.10420476 0.2727412
0.09176778 0.023863453 -0.015215948 0.064384416 0.07883022 -0.10071944 -0.02347285 0.062375624
0.17988014 0.17635664 -0.060855653 0.18889879 0.021003932 0.22104777 -0.15859243 0.22083427
00000000: f11d 0cbe a4c6 0e3e 59cd 72bd 1bac c2bd
00000010: c10d d93a d6f5 f43d 7b5a 4abd c6eb 053e
00000020: 1c96 d73c c3ed 19be 6dfa d43d eac8 7fbb
00000030: 4df4 6e3e 1c7c b3bd 796e 903d 3686 16be
00000040: 9a78 963d dbb2 92bd 6cd9 9cbc 316d ea3e
00000050: d81a 333e 2cf5 8c3e 5874 bdbc a72f 15bc
00000060: c2cc da3d 13c2 803e f5bb 09bd a958 ee3d
00000070: b460 a13b 0f4b 793e 72ff ecbd 0aea 31be
00000080: 6c7b 8d3d f91c 313e eeb6 223e cbb3 423d
00000090: 5cb4 563d 72bb 63bd afd4 323e 2c9f 80bc
000000a0: e48b c7bc b68a 7bbd 04cc cf3c 0eaf 023e
000000b0: 3c0e 8ebd 972a 133e 4e69 d53d bca4 8b3e
000000c0: bff0 bb3d 4a7d c33c 504c 79bc fadb 833d
000000d0: bd71 a13d fe45 cebd 224a c0bc 957d 7f3d
000000e0: 8032 383e d696 343e c743 79bd af6e 413e
000000f0: 7010 ac3c 595a 623e 0e66 22be 6122 623e

bn2.module.running_mean f4 [64]
0.05414172 -1.1488689 -0.11752848 -0.06300685 0.121916555 -0.05124257 -0.010760094 0.17410901
0.1704822 0.265922 0.43479523 0.05619588 0.18005377 -0.0049385624 -0.5600321 0.25216752
0.19215836 0.43736544 0.03285169 0.2417696 0.04224808 -0.20862955 0.35592934 0.21846172
-0.5676158 -0.02644467 -0.23167095 -0.39602676 -0.07618521 -0.6688917 0.21993099 0.09486437
0.2553847 -0.0051517836 -0.39459294 -0.06281907 0.4433216 0.15807062 -0.1523727 -0.12533917
0.39888138 0.07607387 -0.12485271 -0.5742892 0.08238189 0.11098959 -0.14980502 -0.06475737
-0.37517405 -0.18112218 -0.54568547 -0.32767528 -0.06444204 0.24078079 0.009420888 0.22500834
-0.22937226 -0.53159493 -0.63718224 0.08147426 -0.5865204 -0.0537149 0.10342061 0.0468904
00000000: b5c3 5d3d 230e 93bf c6b2 f0bd bc09 81bd
00000010: 63af f93d bbe3 51bd 1b4b 30bc a249 323e
00000020: e392 2e3e ee26 883e 7b9d de3e a72d 663d
00000030: 0460 383e aad3 a1bb 445e 0fbf 1a1c 813e
00000040: 29c5 443e 5dee df3e 7e8f 063d 7392 773e
00000050: 530c 2d3d fca2 55be 5f3c b63e 6eb4 5f3e
00000060: 454f 11bf 7ea2 d8bc 263b 6dbe 05c4 cabe
00000070: fe06 9cbd 7d3c 2bbf 9735 613e 4048 c23d
00000080: c9c1 823e 4bd0 a8bb 1608 cabe 49a7 80bd
00000090: 0cfb e23e 44dd 213e 9707 1cbe e958 00be
000000a0: 2e3a cc3e 9ecc 9b3d c7b2 ffbd 9e04 13bf
000000b0: d6b7 a83d 834e e33d 7d66 19be 839f 84bd
000000c0: d016 c0be 1878 39be 0bb2 0bbf 0ec5 a7be
000000d0: 30fa 83bd 3d8f 763e 115a 1a3c 9668 663e
000000e0: 90e0 6abe 9b16 08bf 601e 23bf fadb a63d
000000f0: 3326 16bf 2804 5cbd 2fce d33d 2610 403d

bn2.module.running_var f4 [64]
0.020381255 0.3095474 0.022830723 0.10333824 0.090481676 0.17894234 0.18807553 0.2854877
0.20802641 0.09314078 0.14435993 0.088173725 0.35679656 0.024227789 0.21988204 0.11571157
0.100649215 0.07521285 0.14817439 1.1523803 0.3569255 0.1604804 0.170658 0.12362442
0.09864521 0.18023208 0.04319312 0.12702243 0.08058778 0.28375566 0.09916655 0.04834533
0.1680666 0.20451267 0.12319777 0.14491312 0.14976777 0.28241482 0.3625324 0.04496428
0.17807047 0.08271396 0.54808104 0.1005986 0.16192393 0.09882062 0.28396958 0.50826055
0.13808547 0.17252024 0.16961952 0.09298462 0.16139808 0.046050686 0.08262824 0.32958308
0.12273169 0.093429886 0.105524406 0.44613528 0.16261241 0.39533338 0.040488455 0.2073802
00000000: 97f6 a63c ff7c 9e3e 7f07 bb3c 00a3 d33d
00000010: 754e b93d a93c 373e df96 403e 722b 923e
00000020: e004 553e 98c0 be3d 17d3 133e 6d94 b43d
00000030: 0aae b63e 5b79 c63c c228 613e 30fa ec3d
00000040: 2d21 ce3d 3209 9a3d 07bb 173e 3381 933f
00000050: f0be b63e f954 243e f9c0 2e3e cd2e fd3d
00000060: 8006 ca3d c28e 383e 45eb 303d 2b12 023e
00000070: 350b a53d 6c48 913e d517 cb3d c105 463d
00000080: a719 2c3e c56b 513e 1d4f fc3d 1b64 143e
00000090: b95c 193e ad98 903e d99d b93e 772c 383d
000000a0: 1b58 363e f065 a93d 0a4f 0c3f a406 ce3d
000000b0: 63cf 253e 7762 ca3d 7664 913e 5d1d 023f
000000c0: 4766 0d3e 25a9 303e bdb0 2d3e b86e be3d
000000d0: 8a45 253e a59f 3c3d ff38 a93d 1dbf a83e
000000e0: c15a fb3d 2b58 bf3d 2e1d d83d d86b e43e
000000f0: de83 263e 2369 ca3e 39d7 253d 7a5b 543e

conv3.bias f4 [64]
2.9171924e-06 -1.1925877e-07 -1.02161245e-07 7.5429652e-06 6.208333e-06 -1.5314935e-08 7.3851493e-06 5.6315514e-07
-1.0503201e-05 -6.642279e-06 -7.4613613e-06 -1.1412712e-07 5.7919294e-08 -3.446059e-06 6.0316445e-09 6.1556534e-07
1.1895336e-06 -4.981888e-08 -1.6077891e-08 4.707611e-08 3.0874442e-06 1.624424e-08 -4.8374113e-07 -2.1985936e-06
1.2709808e-05 5.154522e-07 8.52639e-07 1.69511e-06 -4.9926584e-08 6.741425e-06 2.03524e-06 -1.2511816e-07
-5.1433035e-06 9.730323e-07 1.6992479e-07 3.100763e-05 -9.1490574e-07 -1.2169465e-08 3.4917093e-08 1.8470223e-06
1.5852565e-06 1.4929306e-06 -5.330785e-06 3.3986686e-07 2.2303423e-06 3.8214603e-05 -1.516254e-05 3.747397e-06
-1.1365182e-06 -1.2210263e-05 -3.1073305e-05 -1.1549192e-05 -8.5817555e-07 6.381679e-07 1.7876124e-07 1.3974345e-08
-2.7367559e-08 1.6222128e-06 1.484365e-08 2.5992604e-06 -2.0783576e-08 -2.3271527e-05 -4.6863665e-06 -1.037981e-05
00000000: fcc4 4336 9a0d 00b4 bd63 dbb3 9419 fd36
00000010: 2d51 d036 e68d 83b2 f3cd f736 ba2b 1735
00000020: e836 30b7 bee0 deb6 9b5c fab6 0c16 f5b3
00000030: f0c2 7833 d842 67b6 e83e cf31 543d 2535
00000040: 10a8 9f35 70f8 55b3 a81b 8ab2 bb30 4a33
00000050: e331 4f36 7689 8b32 70da 01b5 8d8b 13b6
00000060: 363c 5537 9b5d 0a35 e8e0 6435 8983 e335
00000070: dc6e 56b3 6634 e236 2895 0836 3858 06b4
00000080: a494 acb6 2399 8235 9274 3634 300e 0238
00000090: d897 75b5 e011 51b2 c0f7 1533 34e7 f735
000000a0: 00c5 d435 b460 c835 18df b2b6 f276 b634
000000b0: fdac 1536 9e48 2038 9d62 7eb7 ca7b 7b36
000000c0: 788a 98b5 aeda 4cb7 b554 02b8 67c3 41b7
000000d0: 605d 66b5 904e 2b35 84f1 3f34 d213 7032
000000e0: e615 ebb2 cfba d935 1003 7f32 f46e 2e36
000000f0: 9187 b2b2 3937 c3b7 953f 9db6 f224 2eb7

conv3.lin.weight f4 [64, 64]
0.019696157 -0.02742524 0.019944036 0.020054147 -0.041142207 -0.07751641 -0.024021355 0.018753229
-0.088160686 0.015466217 0.0423432 -0.031210328 0.14624906 0.011950249 0.037497547 0.034994766
-0.005575621 0.036878582 -0.07230787 -0.12425124 -0.09413133 0.009448206 -0.024527766 0.0192938
0.07562221 0.010727978 -0.019677209 -0.025435245 -0.02477959 -0.10111293 -0.0055823196 0.028112317
0.03853952 -0.05001975 -0.011126615 0.005589639 -0.07180995 0.060336873 -0.08124546 0.04913444
0.022916017 0.0090279505 0.013347902 0.0255148 0.03551657 -0.028004156 -0.03498542 -0.104414836
-0.00530609 -0.008464821 -0.0763959 0.024575751 -0.023051033 -0.009553901 -0.024350388 0.023178153
0.026990201 0.017109118 -0.018987225 -0.037115674 -0.004872448 -0.11694528 -0.025822178 0.0092380475
0.003823284 0.0012615158 -0.00060355954 -0.003245583 -0.0039987024 -0.015057863 -0.007993457 -0.0116933575
-0.012265869 -0.010297574 -0.00025984913 -0.0062681586 0.00031244243 -0.00040011562 -0.008518373 -0.002020808
-0.010640343 -0.00020912071 -0.0030482993 -0.012345404 -0.018287247 0.0008518488 -0.006121495 -0.0042282864
0.011158543 -0.0047189537 -0.0022932368 0.0007034556 -0.0034197287 -0.009402169 -0.004743289 0.0010879828
-0.0009374224 -0.0037406827 -0.0028152955 0.0076113567 -0.010619228 0.023263806 -0.0145171685 0.0018416699
0.006416733 -0.0063318177 -0.010677001 0.0020234585 -0.0019589073 -0.0037861858 -0.009734774 -0.0042532044
0.005292536 0.0072524543 0.0068222606 0.009329383 -0.013141551 -0.0016465744 -0.009038903 -0.0036111162
0.002701519 -0.0054317787 0.0026889557 -0.012861397 -0.004121303 -0.023022471 -0.0055897124 0.008509391
0.0012800845 -0.00028338557 0.0014796501 -0.0019552768 -0.004190438 -0.016535504 -0.0034812633 -0.008702681
-0.011045218 0.001042097 0.019301886 -0.007684085 -0.0040588016 0.0041202703 0.017595384 -0.011385022
-0.008088538 -0.0038378213 -0.005283444 0.0016158554 -0.013287719 -0.0056649856 0.0015894894 0.009945572
-0.0019039742 -0.00048218627 0.0010494767 -0.0069984226 0.010603414 -0.0061236233 -0.0055607604 0.00041542412
-0.0076617613 -0.003334275 0.014647578 -0.0035518953 -0.02639262 0.008721359 -0.0030550286 0.0049139946
0.029061532 -0.006484222 -0.011039352 0.010569675 0.004184043 -0.0025183586 -0.009705889 -0.005729967
0.0021362978 0.0067010447 0.0016965078 0.00039604655 -0.008677537 -0.006535964 -0.014800359 -0.0062273936
-0.0039077285 0.0077440836 -0.0011649815 -0.008172033 -0.0015580968 -0.013087391 -0.004670971 -0.01298362
0.014878379 -0.071321 0.0073394217 -0.08099258 0.07435133 -0.050951924 -0.002283212 0.062580995
0.063127555 0.050664917 0.06232864 -0.04864595 0.21091978 -0.0023415708 -0.11492591 0.016492447
0.06579355 -0.013971695 -0.0030302801 0.19386086 0.16749571 0.106493644 -0.013282293 -0.03167697
-0.09486146 0.11346752 -0.03331216 -0.10758072 0.048749268 -0.13080263 0.10759723 -0.030123578
0.14401232 0.057462666 -0.05979031 -0.011605027 -0.03606368 0.033216685 -0.04473112 0.05197138
-0.039580636 0.00973318 0.077231325 -0.05491093 0.032924604 -0.012839643 0.13184819 0.20517689
-0.10299498 -0.052881 -0.095081 -0.08078157 0.008940108 0.06545043 -0.07725904 -0.039620228
0.058821905 -0.04456076 -0.05166322 0.046963103 -0.03169302 -0.00080846547 0.015704608 0.14920746
00000000: d659 a13c e6aa e0bc ad61 a33c 9848 a43c
00000010: bb84 28bd ecc0 9ebd 6fc8 c4bc 5fa0 993c
00000020: 978d b4bd 0466 7d3c 1070 2d3d cdac ffbc
00000030: 50c2 153e faca 433c 0797 193d ac56 0f3d
00000040: b3b3 b6bb ff0d 173d 2616 94bd 6f77 febd
00000050: edc7 c0bd a6cc 1a3c 74ee c8bc 080e 9e3c
00000060: d1df 9a3d 67c4 2f3c 1932 a1bc 935d d0bc
00000070: 91fe cabc 4c14 cfbd e4eb b6bb cd4b e63c
00000080: 9edb 1d3d 82e1 4cbd 684c 36bc 4a29 b73b
00000090: 1811 93bd cc23 773d 0564 a6bd 3241 493d
000000a0: 5fba bb3c f8e9 133c 29b1 5a3c 6a04 d13c
000000b0: d379 113d f968 e5bc df4c 0fbd 72d7 d5bd
000000c0: b6de adbb 08b0 0abc 7475 9cbd 1653 c93c
000000d0: 85d5 bcbc f787 1cbc 777a c7bc 1ce0 bd3c
000000e0: 8e1a dd3c 6c28 8c3c 198b 9bbc 9b06 18bd
000000f0: 0ea9 9fbb 0281 efbd 0889 d3bc 2e5b 173c
00000100: 1090 7a3b 7259 a53a 3238 1eba d9b3 54bb
00000110: 8c07 83bb 41b5 76bc fdf6 02bc 7f95 3fbc
00000120: c9f6 48bc 28b7 28bc 5c3c 88b9 2065 cdbb
00000130: 50cf a339 9cc6 d1b9 a590 0bbc 886f 04bb
00000140: d554 2ebc 6a47 5bb9 fac5 47bb 6144 4abc
00000150: 23cf 95bc 9b4e 5f3a d296 c8bb 708d 8abb
00000160: 52d2 363c 74a1 9abb 214a 16bb 1b68 383a
00000170: 871d 60bb 8e0b 1abc 986d 9bbb a59a 8e3a
00000180: 5abd 75ba 3e26 75bb d280 38bb b068 f93b
00000190: 45fc 2dbc bd93 be3c 6bd9 6dbc 3064 f13a
000001a0: 7543 d23b 237b cfbb 97ee 2ebc 009c 043b
000001b0: 0361 00bb a821 78bb 9a7e 1fbc 775e 8bbb
000001c0: 036d ad3b ffa5 ed3b 458d df3b 45da 183c
000001d0: a94f 57bc ded1 d7ba e817 14bc 7aa8 6cbb
000001e0: f80b 313b 10fd b1bb 3139 303b 9cb8 52bc
000001f0: ff0b 87bb 9f99 bcbc e829 b7bb f96a 0b3c
00000200: 82c8 a73a 5e93 94b9 d2f0 c13a 1a24 00bb
00000210: f14f 89bb 7775 87bc e825 64bb b195 0ebc
00000220: 01f7 34bc f996 883a fd1e 9e3c c7ca fbbb
00000230: b2ff 84bb 5503 873b 3224 903c 3e88 3abc
00000240: ca85 04bc f583 7bbb be20 adbb 1ccb d33a
00000250: bcb4 59bc 58a1 b9bb 6a56 d03a c1f2 223c
00000260: c68e f9ba f2cd fcb9 988e 893a 0653 e5bb
00000270: f1b9 2d3c ada8 c8bb 0a37 b6bb 48cd d939
00000280: 830f fbbb da83 5abb 65fc 6f3c eac6 68bb
00000290: 5635 d8bc 08e4 0e3c e036 48bb 9305 a13b
000002a0: 7312 ee3c 9979 d4bb 66de 34bc 6e2c 2d3c
000002b0: 4c1a 893b 0c0b 25bb 7305 1fbc 72c2 bbbb
000002c0: 2101 0c3b 7094 db3b 5b5d de3a 78a4 cf39
000002d0: 3a2c 0ebc a42b d6bb 347d 72bc 2a0f ccbb
000002e0: 670c 80bb 15c2 fd3b 4bb2 98ba fee3 05bc
000002f0: 0e39 ccba 7f6c 56bc f20e 99bb 40b9 54bc
00000300: 72c4 733c bf10 92bd 887f f03b 70df a5bd
00000310: 8345 983d f7b2 50bd f1a1 15bb 772a 803d
00000320: 0549 813d 0486 4f3d 514c 7f3d fa40 47bd
00000330: 5bfb 573e 0a75 19bb 475e ebbd 2b1b 873c
00000340: c5be 863d 89e9 64bc aa97 46bb 7683 463e
00000350: ff83 2b3e 5719 da3d fa9d 59bc b6bf 01bd
00000360: ba46 c2bd a961 e83d 5572 08bd 4853 dcbd
00000370: 50ad 473d 20f1 05be f05b dc3d b9c5 f6bc
00000380: f777 133e f95d 6b3d afe6 74bd 0323 3ebc
00000390: 82b7 13bd 380e 083d fb37 37bd f1df 543d
000003a0: 4e1f 22bd ea77 1f3c 752b 9e3d 49ea 60bd
000003b0: f3db 063d 5e5d 52bc 3603 073e e419 523e
000003c0: 08ef d2bd bf99 58bd d4b9 c2bd cf70 a5bd
000003d0: 8879 123c e00a 863d fd39 9ebd d248 22bd
000003e0: 3def 703d 5885 36bd d09c 53bd 625c 403d
000003f0: 8ad0 01bd 33ef 53ba f3a6 803c d7c9 183e

bn3.module.weight f4 [64]
0.30590016 0.13240388 0.12051563 0.55859715 0.479779 0.03701959 0.64961165 0.30967283
0.5903277 0.47162518 0.38680345 0.100562826 0.16174662 0.7194733 0.14565921 0.42789143
0.46287957 0.16025716 0.052678853 0.02103965 0.2894614 0.0572045 0.7134577 0.5131889
0.59994763 0.28987247 0.31930512 0.43315247 0.06874499 0.67552996 0.60944223 0.21835849
0.61855394 0.11861813 0.09189798 0.822891 0.43300152 0.09977828 0.30998978 0.34116805
0.2621548 0.46396568 0.63322324 0.26981112 0.3167609 0.8236085 0.63815254 0.30359623
0.23999414 0.48483536 0.68732566 0.61076415 0.52409273 0.119736 0.08427786 0.06618603
0.08421762 0.3183607 0.036182612 0.62314475 0.01625923 0.790489 0.34000003 0.51823646
00000000: f29e 9c3e e294 073e e6d0 f63d 3900 0f3f
00000010: 98a5 f53e dba1 173d f34c 263f 708d 9e3e
00000020: b71f 173f db78 f13e 1a0b c63e e2f3 cd3d
00000030: e8a0 253e 672f 383f b027 153e 9614 db3e
00000040: 8dfe ec3e 741a 243e c8c5 573d 585b ac3c
00000050: 4934 943e 444f 6a3d 2aa5 363f 5960 033f
00000060: 2b96 193f 2a6a 943e f67b a33e 29c6 dd3e
00000070: 2cca 8c3d 88ef 2c3f 6804 1c3f 5e99 5f3e
00000080: 8d59 1e3f 10ee f23d 0235 bc3d fca8 523f
00000090: 60b2 dd3e 8e58 cc3d fbb6 9e3e 94ad ae3e
000000a0: 2739 863e e98c ed3e eb1a 223f af24 8a3e
000000b0: 7c2e a23e 02d8 523f f75d 233f f770 9b3e
000000c0: 06c1 753e 573c f83e 93f4 2f3f 0a5b 1c3f
000000d0: f12a 063f 2638 f53d df99 ac3d 8b8c 873d
000000e0: 4a7a ac3d 2c00 a33e 3834 143d 6a86 1f3f
000000f0: 1432 853c 7d5d 4a3f 7c14 ae3e 25ab 043f

bn3.module.bias f4 [64]
-0.08415216 -0.091215014 -0.087281674 0.0787964 -0.032702528 -0.07303894 0.024570227 -0.11546484
0.024848236 -0.03857915 -0.06856318 -0.08931572 -0.13265428 0.14427617 -0.07587961 -0.19096652
0.041651983 -0.10936617 -0.071088955 -0.025655897 -0.13892871 -0.05623941 0.103122346 -0.04140119
0.045038316 -0.20686589 -0.022559049 0.016269537 -0.06401529 0.06178558 0.036665026 -0.122221135
-0.042689774 -0.07899049 -0.11723651 0.12616399 0.0025347564 -0.09914633 -0.10815544 -0.14164096
-0.09984476 -0.08132155 -0.002629812 -0.13371126 -0.16565615 0.095968075 0.014219442 -0.096126884
-0.13613352 -0.008209685 0.015898418 -0.01374943 -0.060473576 -0.107751094 -0.07669722 -0.11201699
-0.09044784 -0.14024244 -0.03740186 0.05556023 -0.059668116 0.13585731 -0.082221195 -0.031126041
00000000: f857 acbd f0ce babd bcc0 b2bd 0260 a13d
00000010: 16f3 05bd 7195 95bd 8047 c93c d478 ecbd
00000020: 878e cb3c 2c05 1ebd da6a 8cbd 29eb b6bd
00000030: 86d6 07be 22bd 133e c566 9bbd ba8c 43be
00000040: 459b 2a3d 5ffb dfbd 1697 91bd 512c d2bc
00000050: 5443 0ebe 4c5b 66bd cf31 d33d 4b94 29bd
00000060: 197a 383d a7d4 53be c1cd b8bc b147 853c
00000070: 731a 83bd e012 7d3d 112e 163d 134f fabd
00000080: 79db 2ebd c4c5 a1bd b219 f0bd 2231 013e
00000090: 281e 263b 3b0d cbbd 9980 ddbd 540a 11be
000000a0: 697b ccbd ea8b a6bd ed58 2cbb 9beb 08be
000000b0: c4a1 29be e98a c43d aaf8 683c 2cde c4bd
000000c0: 9666 0bbe ea81 06bc 663d 823c 4a45 61bc
000000d0: 24b3 77bd 9bac dcbd 6f13 9dbd 2a69 e5bd
000000e0: b83c b9bd b79b 0fbe b132 19bd 2093 633d
000000f0: 8e66 74bd 2e1e 0b3e 9663 a8bd 0afc febc

bn3.module.running_mean f4 [64]
-0.20899853 -0.054458603 -0.021685785 0.18653959 -0.21343492 -0.018319037 -0.081857145 -0.11564147
-0.06512851 -0.10010317 0.14434181 -0.06296023 0.17562827 -0.34080553 0.039970625 0.170092
-0.16200367 0.053316027 -0.037317142 0.007368255 0.03445673 -0.011826485 0.16891025 -0.12812673
-0.31717032 0.15989545 0.09279904 -0.27262607 -0.043786164 0.27649665 -0.0134035945 -0.020277016
-0.44109827 -0.015474037 0.005356337 -0.15894528 -0.3449719 0.025994638 -0.01988411 -0.09723013
0.2673436 -0.23967095 0.21868354 -0.029801525 0.13677484 -0.54948115 0.12333505 0.13910735
-0.10718291 -0.14527695 -0.5836737 0.16450052 -0.08208026 -0.034677777 -0.03557754 -0.04681068
-0.0024279966 -0.08157081 0.01143278 0.12119881 -0.03612741 -0.7116499 -0.002948567 -0.27971435
00000000: b603 56be fc0f 5fbd 63a6 b1bc 3c04 3f3e
00000010: af8e 5abe ce11 96bc b8a4 a7bd 6fd5 ecbd
00000020: 1962 85bd e402 cdbd 57ce 133e 4bf1 80bd
00000030: e6d7 333e 107e aebe 3db8 233d 992c 2e3e
00000040: 4ae4 25be e861 5a3d dcd9 18bd 6771 f13b
00000050: 8022 0d3d e0c3 41bc cff6 2c3e a733 03be
00000060: 2664 a2be a2bb 233e 6c0d be3d a595 8bbe
00000070: 1f59 33bd f890 8d3e c09a 5bbc fc1b a6bc
00000080: a2d7 e1be d186 7dbc 3684 af3b 8dc2 22be
00000090: 28a0 b0be b5f2 d43c 00e4 a2bc 9720 c7bd
000000a0: 43e1 883e 4d6c 75be 94ee 5f3e 5422 f4bc
000000b0: b40e 0c3e ccaa 0cbf 1697 fc3d 2872 0e3e
000000c0: b782 dbbd 7bc3 14be a46b 15bf d372 283e
000000d0: b219 a8bd 490a 0ebd c1b9 11bd 8ebc 3fbd
000000e0: 061f 1fbb 990e a7bd 8e50 3b3c 1537 f83d
000000f0: 56fa 13bd b02e 36bf bf3c 41bb b836 8fbe

bn3.module.running_var f4 [64]
0.073422536 0.0032102736 0.0018988404 0.5221238 0.2545019 0.0007198371 0.4372112 0.0530547
0.67698836 0.15772812 0.08850415 0.0042757834 0.059649542 0.39613277 0.012215973 0.065190315
0.20967527 0.010162849 0.0045235544 7.3138595e-05 0.034709368 0.000738382 1.059044 0.1025022
0.28484055 0.02736327 0.16561556 0.28715196 0.001270926 0.6010616 0.41499165 0.030203821
0.3172423 0.0041117277 0.0021477607 0.8949279 0.22122611 0.011365797 0.044160057 0.06618598
0.095868684 0.12977752 0.3113771 0.02579835 0.046057235 0.7152697 0.4318578 0.12667693
0.024546104 0.16785072 0.44218406 0.3193311 0.3805685 0.0059951637 0.00055411895 0.0029113982
0.0019177443 0.027666423 0.0011609187 0.42249855 0.0075094304 0.6069384 0.08164712 0.1274952
00000000: 8e5e 963d 7463 523b 83e2 f83a e8a9 053f
00000010: 134e 823e 73b3 3c3a 25da df3e e34f 593d
00000020: 1c4f 2d3f 7b83 213e aa41 b53d df1b 8c3b
00000030: 1453 743d ead1 ca3e 8125 483c 8082 853d
00000040: 1db5 563e 1482 263c 533a 943b fc61 9938
00000050: 692b 0e3d fa8f 413a c18e 873f acec d13d
00000060: 9fd6 913e f028 e03c 2097 293e 9505 933e
00000070: 3395 a63a 2cdf 193f c979 d43e 016e f73c
00000080: 956d a23e acbb 863b 72c1 0c3b ff19 653f
00000090: 1989 623e 9c37 3a3c 2de1 343d 848c 873d
000000a0: cd56 c43d 66e4 043e d26c 9f3e 1057 d33c
000000b0: 83a6 3c3d ea1b 373f 771c dd3e 99b7 013e
000000c0: e914 c93c 0fe1 2b3e f365 e23e 5e7f a33e
000000d0: e0d9 c23e 1473 c43b 4b42 113a 28cd 3e3b
000000e0: d25c fb3a b2a4 e23c f829 983a bb51 d83e
000000f0: ab11 f63b 5160 1b3f 9b36 a73d 1a8e 023e

fc.weight f4 [2, 64]
-0.008452585 -0.039956465 -0.041091274 0.04755447 0.09966206 -0.06104124 0.12477851 -0.052617453
0.06809312 0.09404416 0.06899513 -0.045848027 -0.06020655 0.108998574 -0.008295086 0.010182659
-0.01525816 0.034608684 0.09877851 0.0030599025 0.055408638 0.00079773786 0.102093935 0.043638054
0.08515624 -0.033741906 0.049447525 0.120806165 -0.0348856 0.2085973 0.054294746 0.08277032
0.07790244 0.052525826 0.05567165 0.17147179 -0.026780766 0.060210694 0.11248723 0.0142982025
0.03611453 0.09115778 0.11271552 0.09342885 -0.006723692 0.15488037 0.09998009 -0.025367148
0.074210875 -0.033267353 0.06772472 0.030935902 0.039816983 -0.07943197 -0.022349069 -0.076282464
0.068238705 0.009304498 0.029825678 0.12685029 0.021559129 0.11003522 0.006781289 0.034926374
-0.05099261 -0.041552708 -0.04399063 -0.15586318 -0.03783545 -0.05240503 -0.08442721 -0.11085994
-0.11146524 -0.0038430435 -0.02786673 -0.041460507 -0.059740897 -0.24673101 -0.041424494 -0.025912356
-0.14916375 0.013640751 0.09460119 0.0030002645 0.014611995 -0.0026830449 -0.18649241 -0.03459809
-0.09206244 -0.049837083 -0.04335813 0.013845041 -0.035564728 -0.02978085 -0.1491529 0.091869734
-0.034775816 0.040811107 0.049061198 -0.18605067 -0.101188 0.054626286 0.08647845 -0.049106464
-0.052514628 0.016147265 -0.042913064 0.07709053 -0.06333135 -0.19094095 -0.07446129 -0.112441815
0.049464438 -0.14442803 -0.106365845 -0.12453005 -0.0431133 -0.07826779 -0.022075042 -0.049807798
0.06552982 0.0001022573 0.020151557 -0.12704566 0.021310674 -0.24635069 -0.038315892 -0.05018635
00000000: b67c 0abc 64a9 23bd 534f 28bd 7ac8 423d
00000010: 9f1b cc3d 6106 7abd e08b ff3d 6685 57bd
00000020: 6874 8b3d 399a c03d 524d 8d3d 24cb 3bbd
00000030: 259b 76bd a53a df3d 1de8 07bc 2bd5 263c
00000040: 5dfd 79bc d6c1 0d3d 634c ca3d a588 483b
00000050: 2bf4 623d 481f 513a a016 d13d d1bd 323d
00000060: 6566 ae3d f434 0abd 7d89 4a3d 3969 f73d
00000070: 34e4 0ebd 889a 553e 2b64 5e3d 7c83 a93d
00000080: 518b 9f3d 5225 573d f507 643d 4d96 2f3e
00000090: 5663 dbbc 7d9f 763d b45f e63d 0243 6a3c
000000a0: d4ec 133d eeb0 ba3d 65d7 e63d a057 bf3d
000000b0: 6b52 dcbb f698 1e3e 5dc2 cc3d c4ce cfbc
000000c0: dffb 973d 5943 08bd 42b3 8a3d 4a6d fd3c
000000d0: 2217 233d 3bad a2bd 6515 b7bc fb39 9cbd
000000e0: bcc0 8b3d e571 183c fb54 f43c 0be5 013e
000000f0: c59c b03c 255a e13d 9335 de3b f50e 0f3d
00000100: a1dd 50bd 2c33 2abd 852f 34bd 999a 1fbe
00000110: 58f9 1abd a8a6 56bd 2ce8 acbd 890a e3bd
00000120: e347 e4bd 92db 7bbb c548 e4bc 7ed2 29bd
00000130: dfb2 74bd 0ea7 7cbe bbac 29bd 2646 d4bc
00000140: 62be 18be 757d 5f3c 45be c13d 16a0 443b
00000150: 2667 6f3c 06d6 2fbb def7 3ebe bab6 0dbd
00000160: 3c8b bcbd f821 4cbd 4b98 31bd 50d6 623c
00000170: 52ac 11bd f8f6 f3bc 8abb 18be 3326 bc3d
00000180: 1671 0ebd 8c29 273d 65f4 483d 1184 3ebe
00000190: a73b cfbd d0bf 5f3d 9d1b b13d dc23 49bd
000001a0: 9419 57bd 4547 843c 9cc5 2fbd a4e1 9d3d
000001b0: deb3 81bd 0686 43be 297f 98bd e547 e6bd
000001c0: 399b 4a3d f1e4 13be 56d6 d9bd 9c09 ffbd
000001d0: 9297 30bd dd4a a0bd b8d6 b4bc 4303 4cbd
000001e0: 8034 863d f872 d638 e114 a53c 4218 02be
000001f0: b993 ae3c 5b43 7cbe 20f1 1cbd 3490 4dbd

fc.bias f4 [2]
0.23576474 -0.23542836
00000000: 506c 713e 2214 71be
