pose_gcn_combined_model.pt (torch, 138240 bytes, 8 tensors)

conv1.bias f4 [128]
0	0x8c88f020	-2.1098638e-31
1	0x8000bb73	-6.7244e-41
2	0x80019b26	-1.47492e-40
3	0x80009588	-5.3642e-41
4	0x8000c82e	-7.1811e-41
5	0x8006ff07	-6.425e-40
6	0x800306e3	-2.77977e-40
7	0x80026c70	-2.22571e-40
8	0x8007cbd7	-7.15972e-40
9	0x1f1541bd	3.1606355e-20
10	0x8001fb36	-1.81953e-40
11	0x80011fbe	-1.03222e-40
12	0x80000204	-7.23e-43
13	0x8002119d	-1.8999e-40
14	0x800081cc	-4.6562e-41
15	0x8001533f	-1.21699e-40
16	0x800109cb	-9.5349e-41
17	0x80022a28	-1.98794e-40
18	0x80171a0f	-2.121564e-39
19	0x8001a8de	-1.52414e-40
20	0x800093ea	-5.3062e-41
21	0x8000b46e	-6.4726e-41
22	0x80023006	-2.00899e-40
23	0x80013c9c	-1.13578e-40
24	0x800e745e	-1.327442e-39
25	0x80048a37	-4.16924e-40
26	0xb098db8e	-1.1121857e-09
27	0x80026be7	-2.22379e-40
28	0x80034c48	-3.02871e-40
29	0x800dabd3	-1.2555e-39
30	0x80052022	-4.70705e-40
31	0x8000b88c	-6.6203e-41
32	0x8000c1c0	-6.9504e-41
33	0x8004614c	-4.02246e-40
34	0x8005d9cd	-5.3731e-40
35	0x800465f6	-4.03919e-40
36	0x80010bad	-9.6024e-41
37	0x80002a7f	-1.5245e-41
38	0x800b363b	-1.029645e-39
39	0x80010222	-9.26e-41
40	0x800244c1	-2.08335e-40
41	0x9b3ae322	-1.545895e-22
42	0x80126837	-1.690424e-39
43	0x800b88a4	-1.059208e-39
44	0x80023c94	-2.05402e-40
45	0x80014a19	-1.18417e-40
46	0x800ac632	-9.89454e-40
47	0x8000673f	-3.7038e-41
48	0x8001e6aa	-1.74582e-40
49	0x8010f59d	-1.557477e-39
50	0x80093924	-8.47018e-40
51	0x8001e053	-1.72308e-40
52	0x8014c3a2	-1.90689e-39
53	0x80174427	-2.136665e-39
54	0x80051cac	-4.69463e-40
55	0x80030953	-2.78851e-40
56	0x800b28d4	-1.024837e-39
57	0x80054be0	-4.86396e-40
58	0x80082e0c	-7.51202e-40
59	0x80088f6c	-7.86134e-40
60	0x80014828	-1.1772e-40
61	0x80003e78	-2.241e-41
62	0x8002871f	-2.32143e-40
63	0x8002eca8	-2.68567e-40
64	0x8000f88c	-8.9162e-41
65	0x80019d6d	-1.48309e-40
66	0x8002e326	-2.65156e-40
67	0x80005f8b	-3.4274e-41
68	0x8001226c	-1.04184e-40
69	0xa0a2beba	-2.757008e-19
70	0x80068c6a	-6.01384e-40
71	0x8003cd41	-3.49138e-40
72	0x80076220	-6.78049e-40
73	0x80146ffe	-1.876885e-39
74	0x8002805f	-2.29722e-40
75	0x8000fd22	-9.0807e-41
76	0x800a0a3f	-9.2203e-40
77	0x80032166	-2.87488e-40
78	0x8007cc5b	-7.16157e-40
79	0x8001a8ae	-1.52346e-40
80	0x800e6b43	-1.324175e-39
81	0x8000eabb	-8.4205e-41
82	0x80012de6	-1.08301e-40
83	0x181a4458	1.9938538e-24
84	0x8002f911	-2.73019e-40
85	0x35ad9c5a	1.2935009e-06
86	0x8004a4bd	-4.26439e-40
87	0x800297b8	-2.38097e-40
88	0x800286a4	-2.31971e-40
89	0x8000a131	-5.7825e-41
90	0x8002b525	-2.48653e-40
91	0x8002a430	-2.4257e-40
92	0x8000f06d	-8.6249e-41
93	0x8006ccdb	-6.24501e-40
94	0x8000ffc7	-9.1756e-41
95	0x8000fbb8	-9.03e-41
96	0x800ff71c	-1.466179e-39
97	0x80019b1a	-1.47475e-40
98	0x80015fa8	-1.2615e-40
99	0x80011b83	-1.01705e-40
100	0x80104f35	-1.497782e-39
101	0x801080d4	-1.515583e-39
102	0x800104b3	-9.3521e-41
103	0x8005366c	-4.787e-40
104	0x202f9459	1.4872161e-19
105	0x80021514	-1.91232e-40
106	0x80004f6d	-2.8493e-41
107	0x80041e90	-3.78306e-40
108	0x8000f8f5	-8.9309e-41
109	0x8005a23a	-5.17373e-40
110	0x8001598f	-1.23963e-40
111	0x80002d7d	-1.6318e-41
112	0x80047a8b	-4.11302e-40
113	0x800864eb	-7.70887e-40
114	0x8002a42b	-2.42563e-40
115	0xaad3685f	-3.755355e-13
116	0x80006979	-3.7836e-41
117	0x8001bad1	-1.58853e-40
118	0x800a30e9	-9.359e-40
119	0x8001d711	-1.68987e-40
120	0x800a81dd	-9.64941e-40
121	0x8006890a	-6.00173e-40
122	0x80009ef0	-5.7016e-41
123	0x80061722	-5.59311e-40
124	0x80027b24	-2.27846e-40
125	0x80019c2f	-1.47864e-40
126	0x801536a1	-1.948143e-39
127	0x8001b33e	-1.56135e-40

conv1.lin.weight f4 [128, 2]
0	0x8b84f3b0	-5.121121e-32
1	0x8d0f960f	-4.4245904e-31
2	0x80002f46	-1.6959e-41
3	0x8000da4a	-7.8307e-41
4	0x8001caed	-1.64632e-40
5	0x00003cc6	2.1801e-41
6	0x80032e49	-2.9211e-40
7	0x8002fa38	-2.73433e-40
8	0x80016a61	-1.29997e-40
9	0x80012ea3	-1.08566e-40
10	0x8001bbe9	-1.59245e-40
11	0x8006cae9	-6.23803e-40
12	0x80086c65	-7.73569e-40
13	0x80058291	-5.06016e-40
14	0x800bb847	-1.076297e-39
15	0x8015e836	-2.011847e-39
16	0x00033042	2.92818e-40
17	0x800436e5	-3.87034e-40
18	0x1ec7db83	2.1160732e-20
19	0x1e6c3196	1.250399e-20
20	0x00001b4e	9.795e-42
21	0x80061086	-5.5694e-40
22	0x8001bc9d	-1.59497e-40
23	0x0000649c	3.6092e-41
24	0x8008fedb	-8.26109e-40
25	0x8004e3d3	-4.4907e-40
26	0x0002181b	1.92318e-40
27	0x80021f94	-1.94999e-40
28	0x00006021	3.4485e-41
29	0x8000b3ac	-6.4454e-41
30	0x8000f138	-8.6533e-41
31	0x8000a24d	-5.8223e-41
32	0x8000aa20	-6.103e-41
33	0x8000ee0f	-8.54e-41
34	0x80015040	-1.20624e-40
35	0x80011208	-9.8304e-41
36	0x00070787	6.45549e-40
37	0x0000196d	9.121e-42
38	0x8000783e	-4.3135e-41
39	0x8000d008	-7.4628e-41
40	0x800053c1	-3.0045e-41
41	0x8001a6a2	-1.51612e-40
42	0x80000630	-2.22e-42
43	0x80019001	-1.43494e-40
44	0x8005d0a3	-5.34022e-40
45	0x80025b44	-2.16411e-40
46	0x8001879a	-1.4048e-40
47	0x8000878c	-4.8625e-41
48	0x0002409d	2.0685e-40
49	0x0000fb82	9.0224e-41
50	0x000087fd	4.8783e-41
51	0x0001a181	1.49772e-40
52	0xad5e1cc0	-1.2625623e-11
53	0xafe6820c	-4.192916e-10
54	0x8000eacc	-8.4229e-41
55	0x800104ae	-9.3514e-41
56	0x000046e2	2.5428e-41
57	0x80079a6e	-6.98247e-40
58	0x80110386	-1.562467e-39
59	0x801598e5	-1.983394e-39
60	0x8008a882	-7.95133e-40
61	0x0004abc2	4.28957e-40
62	0x80015dd2	-1.25492e-40
63	0x0000bec2	6.8431e-41
64	0x00008aa4	4.9735e-41
65	0x80021e3f	-1.94521e-40
66	0x80037ac4	-3.19546e-40
67	0x800004b1	-1.683e-42
68	0x000285d0	2.31674e-40
69	0x8004036e	-3.68572e-40
70	0x0003ab47	3.36949e-40
71	0x80048cf7	-4.1791e-40
72	0x8000d2b2	-7.5583e-41
73	0x80014ba4	-1.1897e-40
74	0x80026cc1	-2.22685e-40
75	0x80014484	-1.16414e-40
76	0x800922d8	-8.39019e-40
77	0x000411df	3.73753e-40
78	0x80011be9	-1.01848e-40
79	0x8000f80d	-8.8984e-41
80	0x80027e30	-2.28939e-40
81	0x80016b26	-1.30273e-40
82	0x9b8a8111	-2.2913592e-22
83	0x9bc34001	-3.2301405e-22
84	0x80097f20	-8.72123e-40
85	0x800319f4	-2.84817e-40
86	0x801503f7	-1.929968e-39
87	0x80040826	-3.70265e-40
88	0x80003d41	-2.1974e-41
89	0x000002ef	1.052e-42
90	0x80001d78	-1.0571e-41
91	0x000088fc	4.9141e-41
92	0x8014cb3a	-1.909614e-39
93	0x00022aa6	1.9897e-40
94	0x80008736	-4.8505e-41
95	0x80011157	-9.8056e-41
96	0x80006f97	-4.0031e-41
97	0x80019e20	-1.4856e-40
98	0x8003cf80	-3.49943e-40
99	0x80082d12	-7.50852e-40
100	0x0003afbe	3.38551e-40
101	0x8010869c	-1.517657e-39
102	0x800125e5	-1.0543e-40
103	0x8002263e	-1.9739e-40
104	0x801387d3	-1.793599e-39
105	0x80060192	-5.51576e-40
106	0x80030330	-2.7665e-40
107	0x000a34e1	9.37324e-40
108	0x80043d0b	-3.8924e-40
109	0x800372e1	-3.16717e-40
110	0x8001ef41	-1.77664e-40
111	0x00001e33	1.0833e-41
112	0x8002dc21	-2.62638e-40
113	0x00086519	7.70951e-40
114	0x8001b2c1	-1.5596e-40
115	0x80063740	-5.70833e-40
116	0x80115b4c	-1.593955e-39
117	0x800fcc13	-1.45074e-39
118	0x8009b7f4	-8.9251e-40
119	0x800fa0ae	-1.435173e-39
120	0x80062c26	-5.6685e-40
121	0x8010240a	-1.482296e-39
122	0x80001226	-6.51e-42
123	0x800147af	-1.17551e-40
124	0x0001f4ac	1.79607e-40
125	0x80004f59	-2.8465e-41
126	0x0001a166	1.49734e-40
127	0x80007d7b	-4.5014e-41
128	0x8000bffe	-6.8874e-41
129	0x000042f9	2.4025e-41
130	0x000192da	1.44516e-40
131	0x80020f83	-1.89236e-40
132	0x0002103e	1.89498e-40
133	0x80061d45	-5.61513e-40
134	0x00002696	1.3842e-41
135	0x8000618b	-3.4992e-41
136	0x80037b83	-3.19814e-40
137	0x000112a5	9.8524e-41
138	0xa1534df9	-7.1592777e-19
139	0xa133262d	-6.0698084e-19
140	0x0001ab2a	1.53238e-40
141	0x000215d5	1.91503e-40
142	0x80051873	-4.67948e-40
143	0x8001f3c7	-1.79286e-40
144	0x8014fcd3	-1.927406e-39
145	0x8001c8fa	-1.63932e-40
146	0x801283d6	-1.700333e-39
147	0x0007035d	6.44055e-40
148	0x000023d4	1.2853e-41
149	0x80028421	-2.3107e-40
150	0x0000276e	1.4145e-41
151	0x8000a053	-5.7513e-41
152	0x8008ce34	-8.08656e-40
153	0x8001c5ef	-1.6284e-40
154	0x00024c46	2.11033e-40
155	0x8000be0b	-6.8175e-41
156	0x8001b7e0	-1.57797e-40
157	0x800cf7ba	-1.190893e-39
158	0x8000ee28	-8.5434e-41
159	0x80012311	-1.04415e-40
160	0x0006d279	6.26516e-40
161	0x000391db	3.2783e-40
162	0x00003667	1.9516e-41
163	0x800045fe	-2.5108e-41
164	0x80000e94	-5.23e-42
165	0x800029bb	-1.497e-41
166	0x98888967	-3.5293917e-24
167	0x9728f8ee	-5.459792e-25
168	0x80022188	-1.957e-40
169	0x80029846	-2.38296e-40
170	0xb20ab680	-8.074153e-09
171	0xb499795b	-2.8586769e-07
172	0x0002a924	2.44347e-40
173	0x8001f9a3	-1.81388e-40
174	0x800207bd	-1.86447e-40
175	0x80006a4c	-3.8132e-41
176	0x800189cb	-1.41266e-40
177	0x0002884a	2.32562e-40
178	0x800019cb	-9.253e-42
179	0x800042ed	-2.4008e-41
180	0x8001a82a	-1.52161e-40
181	0x80004628	-2.5167e-41
182	0x0000830d	4.7012e-41
183	0x8002df7e	-2.63845e-40
184	0x80080fd2	-7.40359e-40
185	0x80002d37	-1.622e-41
186	0x8012f91f	-1.742407e-39
187	0x80146c3f	-1.875541e-39
188	0x8001f7fb	-1.80794e-40
189	0x0000838d	4.7192e-41
190	0x8000c4a6	-7.0544e-41
191	0x8000813f	-4.6365e-41
192	0x800a6bf5	-9.57083e-40
193	0x000391c8	3.27803e-40
194	0x800173d2	-1.33384e-40
195	0x8001597f	-1.2394e-40
196	0x800150c2	-1.20806e-40
197	0x8000e08d	-8.0554e-41
198	0x8001c014	-1.6074e-40
199	0x8000c8de	-7.2058e-41
200	0x801452bd	-1.866391e-39
201	0x80070e28	-6.47927e-40
202	0x800d7392	-1.23532e-39
203	0x000b4222	1.033914e-39
204	0x8001bf18	-1.60387e-40
205	0x80018252	-1.38586e-40
206	0x80024ff2	-2.1235e-40
207	0x8001336a	-1.1028e-40
208	0x1c230a00	5.39451e-22
209	0x9fb01146	-7.4567476e-20
210	0x80019b43	-1.47533e-40
211	0x80016fbe	-1.31921e-40
212	0x80000c68	-4.45e-42
213	0x8000371c	-1.977e-41
214	0x800185ec	-1.39878e-40
215	0x800056e5	-3.1172e-41
216	0x80035f82	-3.09768e-40
217	0x8004d0ff	-4.42316e-40
218	0x80052ef8	-4.76027e-40
219	0x8000146f	-7.33e-42
220	0x8001436b	-1.1602e-40
221	0x8000bcde	-6.7753e-41
222	0x8000e7f8	-8.3215e-41
223	0x80029eff	-2.40708e-40
224	0x00015c02	1.24842e-40
225	0x8005eb1e	-5.43522e-40
226	0x80080ada	-7.38577e-40
227	0x0005841e	5.06572e-40
228	0x8002f1eb	-2.70455e-40
229	0x80003efd	-2.2596e-41
230	0xab8f86df	-1.0198195e-12
231	0xaacdf44c	-3.658483e-13
232	0x8000711c	-4.0576e-41
233	0x8000120b	-6.473e-42
234	0x8000cad0	-7.2755e-41
235	0x80002a51	-1.518e-41
236	0x80008576	-4.7877e-41
237	0x80112ca7	-1.577222e-39
238	0x8000a648	-5.965e-41
239	0x000063df	3.5827e-41
240	0x000382f2	3.22481e-40
241	0x00007f07	4.5569e-41
242	0x800595eb	-5.12958e-40
243	0x800044c3	-2.4667e-41
244	0x00000ea6	5.255e-42
245	0x80000f68	-5.527e-42
246	0x80039669	-3.29463e-40
247	0x00016e72	1.31456e-40
248	0x80002b10	-1.5448e-41
249	0x800024e6	-1.3237e-41
250	0x0000b203	6.3859e-41
251	0x80009294	-5.2582e-41
252	0x80121d92	-1.663647e-39
253	0x00146abc	1.874999e-39
254	0x8000ac73	-6.1863e-41
255	0x8000e641	-8.26e-41

conv2.bias f4 [128]
0	0x8009a685	-8.86255e-40
1	0x80056102	-4.93977e-40
2	0xb71b5e90	-9.260737e-06
3	0xa49a2caa	-6.686252e-17
4	0xa98bf860	-6.215926e-14
5	0x80083898	-7.54986e-40
6	0x3cee4dff	0.029089926
7	0x8a96e2a3	-1.4529726e-32
8	0x8003af84	-3.3847e-40
9	0xb27fce48	-1.48898565e-08
10	0xb62aaf87	-2.5434144e-06
11	0x956ae57f	-4.7436964e-26
12	0x9b43e326	-1.6203418e-22
13	0xaea58497	-7.526884e-11
14	0x0be28af8	8.726113e-32
15	0x8003044b	-2.77047e-40
16	0x9c62f399	-7.509197e-22
17	0xb807e283	-3.2397464e-05
18	0x3b052a7f	0.002031952
19	0x39c84ce3	0.00038204258
20	0x8016b944	-2.086842e-39
21	0x946cc35b	-1.1953482e-26
22	0xb2a1eea0	-1.8851381e-08
23	0xbc0634a3	-0.0081912605
24	0xb1b41c0b	-5.2418776e-09
25	0xad2af13e	-9.716948e-12
26	0xb7bd52e5	-2.2569156e-05
27	0xb88d8af7	-6.749288e-05
28	0x977e3be1	-8.2147404e-25
29	0xb9ce43f4	-0.0003934201
30	0x80058305	-5.06178e-40
31	0x8d25a6e1	-5.1045424e-31
32	0x9f28fb2f	-3.5783158e-20
33	0x3841a428	4.616767e-05
34	0x9c6b4e0b	-7.7855846e-22
35	0x80031546	-2.83138e-40
36	0x9c50d654	-6.909844e-22
37	0x800fc832	-1.449349e-39
38	0xb7295b2b	-1.0094412e-05
39	0x8007b555	-7.07898e-40
40	0x9ea6468a	-1.7605108e-20
41	0x80118d92	-1.611989e-39
42	0x8ded11ed	-1.4610568e-30
43	0xb9fcbb04	-0.00048204523
44	0x80139806	-1.79941e-39
45	0xa741d056	-2.689707e-15
46	0x80128094	-1.699164e-39
47	0x80096df2	-8.6596e-40
48	0x801303e1	-1.746266e-39
49	0xb987bfb9	-0.0002589205
50	0x128e10b2	8.965576e-28
51	0x3338a679	4.2992244e-08
52	0x8006579a	-5.82438e-40
53	0x8d778828	-7.6276644e-31
54	0x8000e33e	-8.1519e-41
55	0xb8f8fef0	-0.00011873047
56	0x9185f777	-2.1136212e-28
57	0x0e36b4f7	2.2520363e-30
58	0x8009c9c4	-8.989e-40
59	0xabaac553	-1.2133995e-12
60	0x286b99a0	1.3078433e-14
61	0xb8e28bf6	-0.000108025895
62	0x923ae91f	-5.8978595e-28
63	0xb40e5826	-1.3256849e-07
64	0x3a78d91f	0.0009492803
65	0xa30c4dbb	-7.605875e-18
66	0x91b43edb	-2.843773e-28
67	0xafa95746	-3.0802932e-10
68	0x800fef68	-1.463415e-39
69	0xa3901f2b	-1.5625711e-17
70	0x9660b84e	-1.8152732e-25
71	0xb895ad08	-7.137103e-05
72	0x33de7782	1.0359419e-07
73	0xaa8080ec	-2.2826825e-13
74	0xab832361	-9.317929e-13
75	0xb1ead166	-6.834102e-09
76	0x8fb4e3f7	-1.7837179e-29
77	0x8441aaaf	-2.2765415e-36
78	0xb59a8ad8	-1.1514303e-06
79	0x3b1edf55	0.0024242003
80	0x80049089	-4.19191e-40
81	0xbae4bbfe	-0.0017451046
82	0xbb1dca54	-0.0024076896
83	0x9910b1bc	-7.480519e-24
84	0xa2347d65	-2.4460932e-18
85	0x8d26761b	-5.1294864e-31
86	0xb45c2f6b	-2.0506347e-07
87	0x94667cbc	-1.1636632e-26
88	0xa570be35	-2.0881126e-16
89	0x3b8a7e87	0.004226509
90	0xae253720	-3.7565617e-11
91	0x9a009779	-2.6592138e-23
92	0x8007b713	-7.08523e-40
93	0x80004021	-2.3005e-41
94	0xb7c61d1f	-2.3617e-05
95	0xac587892	-3.0762376e-12
96	0x91181b94	-1.1999184e-28
97	0xb35ee0a8	-5.1892727e-08
98	0xb73afec3	-1.114578e-05
99	0xbbd89c10	-0.006610401
100	0x8012acc5	-1.715017e-39
101	0x9818ba50	-1.9739603e-24
102	0xb978e0ee	-0.00023734916
103	0xac95af65	-4.2543074e-12
104	0x8012d0db	-1.727962e-39
105	0x9f22f8d5	-3.4510663e-20
106	0x3030ba0b	6.429281e-10
107	0x80015c5a	-1.24965e-40
108	0xb4b9da66	-3.461784e-07
109	0xb28d45f5	-1.6446373e-08
110	0xb38fa17e	-6.688332e-08
111	0xb72bf869	-1.0250232e-05
112	0x8008aa14	-7.95697e-40
113	0xb963169c	-0.0002165683
114	0xb6cedcdb	-6.1649894e-06
115	0xb80135ff	-3.0806284e-05
116	0xb7ec4d19	-2.8169294e-05
117	0xb50503d0	-4.955191e-07
118	0x3687b9a3	4.0449245e-06
119	0x8d49e600	-6.221476e-31
120	0x8008545e	-7.64949e-40
121	0x96416f76	-1.5625587e-25
122	0x93c35f3e	-4.9318837e-27
123	0x8005773a	-5.01948e-40
124	0xa30abfc2	-7.521601e-18
125	0x80052856	-4.73647e-40
126	0x8006e7fb	-6.34232e-40
127	0xa66bee41	-8.18549e-16

conv2.lin.weight f4 [128, 128]
0	0x006350c8	9.120693e-39
1	0x0001617b	1.26805e-40
2	0x8295460d	-2.193379e-37
3	0x81b0b260	-6.4908145e-38
4	0x800073cd	-4.1541e-41
5	0x813a6f04	-3.4242454e-38
6	0x000a45be	9.43374e-40
7	0x8308b042	-4.016914e-37
8	0x01016dc8	2.3772322e-38
9	0x81579974	-3.959936e-38
10	0x82e447f0	-3.354288e-37
11	0x017cb0bc	4.641189e-38
12	0x0302db15	3.845506e-37
13	0x01550d64	3.913153e-38
14	0x000122ce	1.04321e-40
15	0x0229fdd4	1.2489004e-37
16	0x820acbd6	-1.0197137e-37
17	0x00022df0	2.0015e-40
18	0x80a8e870	-1.5511746e-38
19	0x80004ef4	-2.8323e-41
20	0x800040f6	-2.3304e-41
21	0x0000246e	1.3069e-41
22	0x03224280	4.768386e-37
23	0x02839b99	1.9338029e-37
24	0x81ae8dc0	-6.4120907e-38
25	0x82e5a12c	-3.3741034e-37
26	0x01fe99aa	9.352536e-38
27	0x821854db	-1.1191549e-37
28	0x0282600b	1.915691e-37
29	0x817168d0	-4.4339908e-38
30	0x81bc06f2	-6.907026e-38
31	0x024c52bc	1.5011297e-37
32	0x8001b9cf	-1.58491e-40
33	0x822237cb	-1.1917892e-37
34	0x00027561	2.25779e-40
35	0x00021355	1.90606e-40
36	0x000f07c8	1.380324e-39
37	0x8001e68f	-1.74544e-40
38	0x020a0930	1.0141275e-37
39	0x800080e0	-4.6232e-41
40	0x826d48f8	-1.7432951e-37
41	0x01bfa718	7.0402087e-38
42	0x815fd41c	-4.1110812e-38
43	0x034ed7cc	6.078568e-37
44	0x80004e15	-2.801e-41
45	0x8000a3fa	-5.8824e-41
46	0x81fcd9d4	-9.288275e-38
47	0x800008a9	-3.107e-42
48	0x81cbfe60	-7.4935433e-38
49	0x0135607c	3.3313674e-38
50	0x025f9b89	1.6428089e-37
51	0x8002630f	-2.19207e-40
52	0x00ea1bf8	2.149954e-38
53	0x000799ff	6.98092e-40
54	0x8003c88a	-3.47446e-40
55	0x00d6b2c8	1.9716931e-38
56	0x01e3a7ea	8.3627575e-38
57	0x01a5a9f8	6.085532e-38
58	0x01370350	3.3614168e-38
59	0x010cddf0	2.587317e-38
60	0x028b726e	2.0489894e-37
61	0x00001557	7.655e-42
62	0x0001fb4e	1.81987e-40
63	0x01f1aff0	8.8781876e-38
64	0x000d5b38	1.226585e-39
65	0x00027f1f	2.29273e-40
66	0x81e910b0	-8.561463e-38
67	0x00004834	2.5902e-41
68	0x013a10bc	3.417481e-38
69	0x019c3b8a	5.7390784e-38
70	0x028a6a02	2.0338123e-37
71	0x82a6d2cf	-2.4512506e-37
72	0x02910141	2.1306555e-37
73	0x0190923a	5.310707e-38
74	0x0208be18	1.0046256e-37
75	0x0001edf4	1.77197e-40
76	0x02f1358c	3.5442502e-37
77	0x0000c423	7.036e-41
78	0x8155a60c	-3.9241054e-38
79	0x8000674b	-3.7055e-41
80	0x0016cecc	2.094566e-39
81	0x00014c92	1.19304e-40
82	0x00027f6a	2.29379e-40
83	0x01c364f8	7.177657e-38
84	0x8181ec4a	-4.7726174e-38
85	0x0223165f	1.1981769e-37
86	0x025f47d7	1.640407e-37
87	0x8000cc2f	-7.3247e-41
88	0x8002be3d	-2.51916e-40
89	0x8000b417	-6.4604e-41
90	0x0001d04d	1.6656e-40
91	0x825e8f8e	-1.6351182e-37
92	0x02506772	1.5311114e-37
93	0x81e0675a	-8.2432907e-38
94	0x00e57320	2.1071628e-38
95	0x80003b5e	-2.1297e-41
96	0x800c9c18	-1.158022e-39
97	0x0000a8de	6.0578e-41
98	0x0000c28e	6.9793e-41
99	0x813e426c	-3.4945144e-38
100	0x810742a8	-2.4843407e-38
101	0x0166d590	4.2397552e-38
102	0x800536a8	-4.78784e-40
103	0x02210041	1.1828485e-37
104	0x02c62774	2.911613e-37
105	0x01e8fda4	8.5587297e-38
106	0x80008022	-4.5965e-41
107	0x00041c51	3.775e-40
108	0x0216c417	1.1076535e-37
109	0x813ec860	-3.504125e-38
110	0x0000a120	5.7801e-41
111	0x0002940f	2.36784e-40
112	0x02a2ee3c	2.39405e-37
113	0x80048c31	-4.17633e-40
114	0x82d13252	-3.0738672e-37
115	0x820b4753	-1.0232576e-37
116	0x8001188c	-1.00641e-40
117	0x80013d0c	-1.13735e-40
118	0x017ec880	4.6796284e-38
119	0x00009745	5.4265e-41
120	0x8295c3a4	-2.2005874e-37
121	0x02931950	2.1614237e-37
122	0x80003b4d	-2.1273e-41
123	0x02189e1c	1.1212571e-37
124	0x01d77508	7.914646e-38
125	0x80019b6f	-1.47595e-40
126	0x010f761c	2.634969e-38
127	0x80001a58	-9.45e-42
128	0x023d17d2	1.3892363e-37
129	0x00005eeb	3.405e-41
130	0x8236b2f2	-1.3422603e-37
131	0x02547dc0	1.5611389e-37
132	0x00016674	1.28589e-40
133	0x014a569c	3.716368e-38
134	0x000356c9	3.06639e-40
135	0x81c79188	-7.330988e-38
136	0x0060a0f0	8.873941e-39
137	0x81407188	-3.5346285e-38
138	0x0233fa96	1.3222758e-37
139	0x8000679f	-3.7172e-41
140	0x01dcfbe4	8.117668e-38
141	0x828aa35a	-2.0371037e-37
142	0x800140ad	-1.15037e-40
143	0x820949e3	-1.0086375e-37
144	0x81e8f93a	-8.5580963e-38
145	0x00d1a800	1.9253886e-38
146	0x02bce25e	2.7754046e-37
147	0x8001662a	-1.28485e-40
148	0x00013aea	1.1297e-40
149	0x8000d2c2	-7.5606e-41
150	0x82af3622	-2.574501e-37
151	0x000014df	7.487e-42
152	0x02a4cdfa	2.421586e-37
153	0x000605d4	5.53104e-40
154	0x000454b0	3.97722e-40
155	0x81e2f4ee	-8.3370745e-38
156	0x82a915c2	-2.4844807e-37
157	0x0243597a	1.4352016e-37
158	0x02233b94	1.1992447e-37
159	0x0003bc48	3.43049e-40
160	0x8250d2f4	-1.5341967e-37
161	0x817c516c	-4.6343507e-38
162	0x0000da4e	7.8313e-41
163	0x01c6ba4e	7.3001047e-38
164	0x000accb0	9.91783e-40
165	0x80010f6d	-9.7369e-41
166	0x01bc68e8	6.9210826e-38
167	0x81b5c442	-6.6770515e-38
168	0x81a34de4	-5.998851e-38
169	0x82149b72	-1.0917933e-37
170	0x01bd230c	6.9477925e-38
171	0x82ba89e3	-2.7409387e-37
172	0x0000e99d	8.3805e-41
173	0x0000c99a	7.2321e-41
174	0x000a4a00	9.44901e-40
175	0x8000b8a8	-6.6242e-41
176	0x822a0dd0	-1.2493591e-37
177	0x828fd2e8	-2.1133016e-37
178	0x82215e1d	-1.1855421e-37
179	0x01edf40c	8.741024e-38
180	0x831c9dc8	-4.6025404e-37
181	0x031a55d4	4.535506e-37
182	0x024894b4	1.4736355e-37
183	0x02baf1ac	2.7468957e-37
184	0x82920953	-2.1458124e-37
185	0x820a5834	-1.0163952e-37
186	0x820961fa	-1.0093288e-37
187	0x00022588	1.97135e-40
188	0x8004d8a8	-4.45064e-40
189	0x8000d560	-7.6545e-41
190	0x00003c99	2.1738e-41
191	0x0000f192	8.6659e-41
192	0x0011a1a0	1.619184e-39
193	0x80021d5d	-1.94205e-40
194	0x017db0f0	4.6595707e-38
195	0x0000ccdd	7.3491e-41
196	0x8234164f	-1.3230714e-37
197	0x0239339b	1.3606463e-37
198	0x00fde080	2.3314916e-38
199	0x0178d77c	4.5705009e-38
200	0x824b69b9	-1.4944425e-37
201	0x8137e810	-3.3778288e-38
202	0x021cfc7e	1.1533532e-37
203	0x800211d6	-1.9007e-40
204	0x8165ccd0	-4.2207603e-38
205	0x8000ad1b	-6.2099e-41
206	0x016127ec	4.1354616e-38
207	0x02911f06	2.1323642e-37
208	0x0097c100	1.3936395e-38
209	0x82d354fa	-3.1052438e-37
210	0x01c5addc	7.2615847e-38
211	0x029d903a	2.3151859e-37
212	0x80050054	-4.59295e-40
213	0x818de832	-5.2128404e-38
214	0x826a97d8	-1.7235182e-37
215	0x8280bff3	-1.8918083e-37
216	0x8139c8e0	-3.4123254e-38
217	0x80001f91	-1.1324e-41
218	0x035df22f	6.5224076e-37
219	0x81be8f3c	-7.000051e-38
220	0x80061770	-5.59421e-40
221	0x81e25d72	-8.3153376e-38
222	0x80004a9e	-2.6768e-41
223	0x00010f5b	9.7344e-41
224	0x82a42505	-2.4118882e-37
225	0x80004621	-2.5158e-41
226	0x80009134	-5.2089e-41
227	0x01925ee0	5.376807e-38
228	0x0043b628	6.218324e-39
229	0x80e7c7e8	-2.1285712e-38
230	0x8014c370	-1.90682e-39
231	0x021a67c0	1.1343908e-37
232	0x021056b9	1.0604337e-37
233	0x0001d6eb	1.68934e-40
234	0x80000e49	-5.125e-42
235	0x0002f0c5	2.70043e-40
236	0x02c1ccc7	2.8476338e-37
237	0x021a327d	1.1328623e-37
238	0x82a6af0e	-2.4491984e-37
239	0x813d3620	-3.475265e-38
240	0x0005cef3	5.33417e-40
241	0x00087a47	7.78549e-40
242	0x82901f85	-2.117699e-37
243	0x8238bf80	-1.3573143e-37
244	0x8000672b	-3.701e-41
245	0x00018bff	1.42057e-40
246	0x029d6597	2.3127386e-37
247	0x800077ea	-4.3017e-41
248	0x02460b4f	1.4549988e-37
249	0x80107720	-1.512102e-39
250	0x0000be32	6.8229e-41
251	0x02a68656	2.4468613e-37
252	0x82f88276	-3.6515206e-37
253	0x0000546c	3.0285e-41
254	0x8184fbe8	-4.885061e-38
255	0x8000991c	-5.4925e-41

conv3.bias f4 [128]
0	0xb40ee3c2	-1.3307638e-07
1	0x92d89353	-1.3667835e-27
2	0xb06a8942	-8.532376e-10
3	0x8076d14e	-1.0911673e-38
4	0x99ad6b85	-1.7931208e-23
5	0xb847fde2	-4.7681744e-05
6	0x8d985aee	-9.389614e-31
7	0x88d943b4	-1.3076129e-33
8	0xab0e401e	-5.0537515e-13
9	0xb17e367e	-3.699284e-09
10	0xaece31b0	-9.376622e-11
11	0xb39bad1c	-7.2492384e-08
12	0x89c29e64	-4.685275e-33
13	0xa0fb4b45	-4.2570863e-19
14	0xa2efc6b7	-6.4991477e-18
15	0xabaacbba	-1.2135772e-12
16	0x9fb2b0db	-7.5678515e-20
17	0x9aa084ea	-6.6389183e-23
18	0x824a8b5f	-1.4880614e-37
19	0x3d15bcf5	0.036557157
20	0xb5dbc8b7	-1.6375187e-06
21	0x932a2c18	-2.1478757e-27
22	0x95866142	-5.4275615e-26
23	0xad1dc2b8	-8.967653e-12
24	0xae62b3d1	-5.154616e-11
25	0xb3805565	-5.975998e-08
26	0x91f1e265	-3.8162622e-28
27	0x91cb7172	-3.209767e-28
28	0x93fac344	-6.330142e-27
29	0x9c046ae9	-4.3813314e-22
30	0xb489d554	-2.5673455e-07
31	0x94c1f8e9	-1.9586198e-26
32	0x95e708b8	-9.331391e-26
33	0xbac37864	-0.0014913199
34	0xa05ca97d	-1.8690804e-19
35	0x39433774	0.00018617307
36	0xb3441f48	-4.5663256e-08
37	0x3c3156be	0.010823904
38	0x9407d130	-6.857013e-27
39	0xab8f6395	-1.0188401e-12
40	0xa27f1942	-3.4572316e-18
41	0xb2f4adc3	-2.8484356e-08
42	0x047b5028	2.9541714e-36
43	0x88a53d32	-9.944963e-34
44	0x8b504d56	-4.0117524e-32
45	0x3b185aed	0.0023247555
46	0xb92a521b	-0.0001624305
47	0x9f3e3d88	-4.0284962e-20
48	0xa94785a8	-4.4302805e-14
49	0x9c61711c	-7.4592446e-22
50	0xb8d7e017	-0.00010293739
51	0xb110fe70	-2.109939e-09
52	0xb32cd037	-4.023624e-08
53	0xaed83492	-9.831881e-11
54	0xb81ba597	-3.7109097e-05
55	0xb20e1406	-8.270041e-09
56	0x9b1703c3	-1.2491643e-22
57	0x837a9201	-7.3636e-37
58	0x91f16a56	-3.808863e-28
59	0x80acb1d8	-1.5859504e-38
60	0xb48457dc	-2.4650842e-07
61	0x3cf4c58a	0.02987935
62	0xb41fea5f	-1.4893293e-07
63	0x92a5226a	-1.0421448e-27
64	0xa8b00713	-1.9542993e-14
65	0xafa79389	-3.0481953e-10
66	0x97ecee64	-1.5311321e-24
67	0x81437d8a	-3.5905913e-38
68	0x80744ddf	-1.0680852e-38
69	0xb95a5bc2	-0.00020824283
70	0xa5b9e28e	-3.2245904e-16
71	0x9c620ef4	-7.4796454e-22
72	0xb30cc109	-3.2771855e-08
73	0xb754f903	-1.2694162e-05
74	0xbcae751c	-0.021296076
75	0xa8db0f01	-2.4320391e-14
76	0x8e3c834b	-2.3236004e-30
77	0x882f2849	-5.27095e-34
78	0x82a37948	-2.402031e-37
79	0xa10737e1	-4.5813734e-19
80	0xb2778178	-1.440673e-08
81	0x8507eb79	-6.390919e-36
82	0xbc16bd6e	-0.009200437
83	0xb5d8bb4c	-1.6147765e-06
84	0x3d9b3e8c	0.07580289
85	0xa42a8927	-3.6979046e-17
86	0xb08502f3	-9.677862e-10
87	0x3d543073	0.051804017
88	0xa9adae83	-7.713016e-14
89	0xaa0f5fad	-1.2734146e-13
90	0xab988ffa	-1.0840211e-12
91	0x8331a16d	-5.2200933e-37
92	0x8908bfc8	-1.646058e-33
93	0x90e6e5a1	-9.1072803e-29
94	0xaa62b458	-2.0135402e-13
95	0x80a41fa6	-1.5072375e-38
96	0x84d0b57d	-4.9067236e-36
97	0xaf04662f	-1.2041633e-10
98	0xb9378457	-0.0001750154
99	0xba750350	-0.0009346502
100	0x969b0af3	-2.504851e-25
101	0xabd54297	-1.5153043e-12
102	0x8fda0cd4	-2.1501401e-29
103	0xaa6acfa4	-2.0855415e-13
104	0xa8dc34c7	-2.4447795e-14
105	0xadcad453	-2.3059032e-11
106	0x8112091f	-2.682251e-38
107	0xa47635dc	-5.3388368e-17
108	0xa7970a50	-4.19221e-15
109	0x922f3402	-5.528437e-28
110	0x84cec067	-4.860706e-36
111	0xb1b07cb4	-5.1364513e-09
112	0x825ffd57	-1.6456157e-37
113	0x87716065	-1.8159153e-34
114	0xba3f69bd	-0.0007301828
115	0xa7a9d092	-4.7133055e-15
116	0xadef5634	-2.7209436e-11
117	0xa0fe45ac	-4.3075379e-19
118	0x8fc2135f	-1.9137338e-29
119	0x9a4247e6	-4.017634e-23
120	0xa435e467	-3.9441583e-17
121	0xb71e9ec2	-9.454498e-06
122	0xb016c33c	-5.4847127e-10
123	0xb01fbfc6	-5.811639e-10
124	0xb60ee648	-2.129369e-06
125	0xacdfb1f8	-6.3577997e-12
126	0xb1967905	-4.379333e-09
127	0xae40989c	-4.379129e-11

conv3.lin.weight f4 [128, 128]
0	0x01ea5626	8.608164e-38
1	0x0260f23a	1.6526437e-37
2	0x01ba3b64	6.841083e-38
3	0x05589fe0	1.01856356e-35
4	0x826568d0	-1.6854343e-37
5	0x8207658a	-9.947374e-38
6	0x02843878	1.9428068e-37
7	0x02541329	1.5580799e-37
8	0x81433fc4	-3.5861593e-38
9	0x0443341e	2.294607e-36
10	0x8014e238	-1.917862e-39
11	0x02697ff5	1.7154858e-37
12	0x8189e5d8	-5.065566e-38
13	0x80a10741	-1.4788117e-38
14	0x82c76c12	-2.9302451e-37
15	0x83027d55	-3.834744e-37
16	0x00141720	1.845006e-39
17	0x026cad53	1.7388283e-37
18	0x8358cd36	-6.3712266e-37
19	0x821291ff	-1.0768285e-37
20	0x8227e4df	-1.2334905e-37
21	0x800626a0	-5.64869e-40
22	0x8299ec0c	-2.2616814e-37
23	0x0230a781	1.2978509e-37
24	0x02a9132c	2.4843322e-37
25	0x829dc274	-2.3180687e-37
26	0x02736a38	1.7883304e-37
27	0x02995454	2.2529731e-37
28	0x8221012f	-1.1828752e-37
29	0x81324ae8	-3.274718e-38
30	0x000b961c	1.06404e-39
31	0x8296ba97	-2.2147616e-37
32	0x026c14e4	1.7344537e-37
33	0x00623728	9.019665e-39
34	0x82980bd5	-2.2341184e-37
35	0x811a99e8	-2.8395755e-38
36	0x01699a47	4.290603e-38
37	0x0183d910	4.843327e-38
38	0x821b5d8b	-1.1414447e-37
39	0x00a45a20	1.5093352e-38
40	0x0235b256	1.334896e-37
41	0x822d6586	-1.2739168e-37
42	0x80ce3508	-1.8937136e-38
43	0x01cc100c	7.496079e-38
44	0x81edc3da	-8.7341084e-38
45	0x8254e9ac	-1.5642361e-37
46	0x8016f9b3	-2.109956e-39
47	0x02ad64a1	2.5477823e-37
48	0x01ac394c	6.326504e-38
49	0x001e30c8	2.772564e-39
50	0x82a24718	-2.3844566e-37
51	0x813aa584	-3.4281556e-38
52	0x0014ea98	1.920866e-39
53	0x80202a10	-2.953825e-39
54	0x01f603ae	9.037141e-38
55	0x00c4c330	1.8069777e-38
56	0x02b29617	2.6240897e-37
57	0x81fe9ecc	-9.3532726e-38
58	0x8181f0a7	-4.7732435e-38
59	0x82c13da2	-2.8394177e-37
60	0x02990373	2.248331e-37
61	0x06b6b257	6.872284e-35
62	0x8206cc90	-9.903472e-38
63	0x84bb2818	-4.400031e-36
64	0x01bf0ae0	7.0177924e-38
65	0x0290628e	2.1215466e-37
66	0x022a1410	1.2495385e-37
67	0x82bef6ba	-2.8059605e-37
68	0x81418144	-3.5541245e-38
69	0x055b6540	1.0315927e-35
70	0x8261987b	-1.6574149e-37
71	0x81aafa8a	-6.2807643e-38
72	0x82860345	-1.9691407e-37
73	0x01eddc7c	8.737643e-38
74	0x01babb00	6.859394e-38
75	0x02864ead	1.9734688e-37
76	0x003eaa70	5.754942e-39
77	0x01648a24	4.1976097e-38
78	0x819a283e	-5.662841e-38
79	0x00128b28	1.702959e-39
80	0x02c4ef5c	2.8936997e-37
81	0x82c2912c	-2.8589063e-37
82	0x01e9d254	8.589249e-38
83	0x812e8002	-3.2050594e-38
84	0x820a61e1	-1.0166729e-37
85	0x82e69e96	-3.3886486e-37
86	0x812c7474	-3.1674962e-38
87	0x81b17fe8	-6.520307e-38
88	0x82740d32	-1.7930076e-37
89	0x03de6190	1.30703865e-36
90	0x0253a44e	1.5548985e-37
91	0x00e8d388	2.1381718e-38
92	0x8154edc4	-3.910884e-38
93	0x8000e678	-8.2677e-41
94	0x001d3e30	2.685538e-39
95	0x02680cc0	1.7048327e-37
96	0x805b63a8	-8.39278e-39
97	0x032d5092	5.093262e-37
98	0x80207b78	-2.983028e-39
99	0x83024f18	-3.829436e-37
100	0x02099d1d	1.011026e-37
101	0x82730527	-1.7854299e-37
102	0x801df8c0	-2.752464e-39
103	0x04a05c3e	3.770053e-36
104	0x8313416a	-4.327451e-37
105	0x022d3b9f	1.2727143e-37
106	0x8286ec1a	-1.9825046e-37
107	0x818a3f26	-5.078381e-38
108	0x82637d8a	-1.6713354e-37
109	0x0215f01f	1.1015703e-37
110	0x81b17828	-6.5191947e-38
111	0x820a8c2a	-1.0178864e-37
112	0x82563c47	-1.5739536e-37
113	0x0208f5b6	1.0062218e-37
114	0x01f86404	9.124433e-38
115	0x02a54606	2.4284762e-37
116	0x00be2460	1.7461793e-38
117	0x81ffdd70	-9.3989953e-38
118	0x82f3811f	-3.5779753e-37
119	0x825afabb	-1.6088067e-37
120	0x8145817c	-3.6276086e-38
121	0x02a6492a	2.4433502e-37
122	0x023d7a2f	1.3920592e-37
123	0x0281d890	1.9079147e-37
124	0x81a5bf20	-6.088568e-38
125	0x020d973c	1.0402446e-37
126	0x8215b7d8	-1.0999552e-37
127	0x022a59ea	1.2515432e-37
128	0x0285e14c	1.9671908e-37
129	0x82cf5318	-3.046361e-37
130	0x063ccd80	3.5509848e-35
131	0x82d29a8e	-3.0945437e-37
132	0x028fcd6e	2.1129872e-37
133	0x0003d573	3.52078e-40
134	0x1378a9b9	3.138568e-27
135	0x819cd84a	-5.761571e-38
136	0x0284f0f0	1.9533948e-37
137	0x82188119	-1.1204246e-37
138	0x8a6baa2e	-1.1346846e-32
139	0x80d439f8	-1.948992e-38
140	0x01a87734	6.18845e-38
141	0x8009cdb8	-9.00317e-40
142	0x01c79cfe	7.332633e-38
143	0x02949550	2.1832347e-37
144	0x000114b3	9.9261e-41
145	0x824f9f65	-1.5253702e-37
146	0x0d2d5e56	5.3423294e-31
147	0x921cfd28	-4.953696e-28
148	0x80167931	-2.063856e-39
149	0x01ff5240	9.379023e-38
150	0x026d80c0	1.744896e-37
151	0x8bab23e3	-6.59208e-32
152	0x007384e2	1.0608751e-38
153	0x81db545f	-8.056896e-38
154	0x801477cc	-1.879685e-39
155	0x8ffd282a	-2.4963197e-29
156	0x0219a77b	1.1288729e-37
157	0x91044393	-1.0433787e-28
158	0x81720ff0	-4.4459815e-38
159	0x81983dd6	-5.592471e-38
160	0x8250141d	-1.5287199e-37
161	0x0c9020f8	2.2206555e-31
162	0x8245cba3	-1.4531715e-37
163	0x02d88b5a	3.1818331e-37
164	0x015350d6	3.8812576e-38
165	0x02809472	1.8893113e-37
166	0x83274b6a	-4.916346e-37
167	0x000133ce	1.1042e-40
168	0x00cab8f8	1.8617125e-38
169	0x81cfb2fa	-7.629661e-38
170	0x81ccecf8	-7.52778e-38
171	0x8a361300	-8.766555e-33
172	0x01e6aa37	8.47329e-38
173	0x81e10342	-8.265662e-38
174	0x800e418f	-1.309215e-39
175	0x030505f9	3.9092043e-37
176	0x0250dc8a	1.5344718e-37
177	0x8f992026	-1.5099348e-29
178	0x803c7880	-5.553357e-39
179	0x014d23a0	3.7678113e-38
180	0x010dfb8c	2.6078086e-38
181	0x8062b100	-9.063374e-39
182	0x82a3096e	-2.395611e-37
183	0x85accd2a	-1.6250168e-35
184	0x8068ec08	-9.635564e-39
185	0x819b6f18	-5.709742e-38
186	0x02951b28	2.190917e-37
187	0x8403733e	-1.5451893e-36
188	0x82aa48a5	-2.502095e-37
189	0x0823facc	4.934584e-34
190	0x015deb50	4.0760118e-38
191	0x827c19aa	-1.8521401e-37
192	0x124ed8ac	6.5269207e-28
193	0x811fd2aa	-2.9354832e-38
194	0x0271f416	1.7775933e-37
195	0x818a4e50	-5.0805567e-38
196	0x8184152a	-4.851951e-38
197	0x812a60a4	-3.1293405e-38
198	0x02d2df64	3.0984947e-37
199	0x0683eb37	4.962234e-35
200	0x84e48dc8	-5.3732748e-36
201	0x81bae758	-6.865757e-38
202	0x8199cc90	-5.6496856e-38
203	0x87f00229	-3.6112456e-34
204	0x011f0282	2.9205487e-38
205	0x0126b8f4	3.0622082e-38
206	0x80f3bc30	-2.2383535e-38
207	0x12ac9849	1.0892267e-27
208	0x804b6fe0	-6.927795e-39
209	0x0250411e	1.5300114e-37
210	0x023731dc	1.3459026e-37
211	0x81ef9f70	-8.8023516e-38
212	0x013d0140	3.4714714e-38
213	0x01753bf4	4.5042407e-38
214	0x813fc390	-3.522147e-38
215	0x8229f1d7	-1.2485564e-37
216	0x007ad960	1.128191e-38
217	0x931c87fb	-1.9757012e-27
218	0x8031c7b2	-4.571576e-39
219	0x02161272	1.1025553e-37
220	0x822098ca	-1.1798792e-37
221	0x8169fc18	-4.297621e-38
222	0x0781b5d4	1.9516632e-34
223	0x03031975	3.8526663e-37
224	0x8157fe18	-3.9671567e-38
225	0x04c10adc	4.5384055e-36
226	0x839ba917	-9.148902e-37
227	0x8f9c1598	-1.5391105e-29
228	0x0209bcd7	1.0119365e-37
229	0x0191243c	5.331658e-38
230	0x902d4127	-3.4168426e-29
231	0x80636c40	-9.130547e-39
232	0x02374188	1.3463523e-37
233	0x82542e40	-1.5588573e-37
234	0x01f6d9f4	9.0678876e-38
235	0x81741a44	-4.4834567e-38
236	0x80dadb08	-2.0098712e-38
237	0x829c3c30	-2.2956686e-37
238	0x8a3ef10c	-9.193503e-33
239	0x8f1384a2	-7.273204e-30
240	0x80f67b58	-2.263578e-38
241	0x0c5b3208	1.6886202e-31
242	0x8ef18426	-5.953834e-30
243	0x07e9c76b	3.517515e-34
244	0x8f19a150	-7.57455e-30
245	0x8d99f130	-9.487417e-31
246	0x814cde7c	-3.7628507e-38
247	0x02122a8e	1.0738599e-37
248	0x001521e4	1.940703e-39
249	0x02c65f22	2.9148089e-37
250	0x01028aa4	2.39767e-38
251	0x01480e28	3.6744355e-38
252	0x0061206c	8.919674e-39
253	0x029ffa02	2.3506448e-37
254	0x020bf0af	1.028118e-37
255	0x00069340	6.03836e-40

fc.weight f4 [2, 128]
0	0x2e19052c	3.4792766e-11
1	0x9351eeda	-2.6497272e-27
2	0x2bec3490	1.6783398e-12
3	0x0004d38b	4.4323e-40
4	0x97fcc358	-1.633443e-24
5	0xb5d07c66	-1.5533412e-06
6	0x8002bdac	-2.51712e-40
7	0x87c92340	-3.0263837e-34
8	0x20fee824	4.3182892e-19
9	0xa6ab303a	-1.187858e-15
10	0x1d5e9507	2.94585e-21
11	0x2708b541	1.897205e-15
12	0x0a0d393d	6.7996684e-33
13	0x8004d82b	-4.44888e-40
14	0xa2081379	-1.8441746e-18
15	0xa380d76f	-1.3969027e-17
16	0x1d767372	3.2617513e-21
17	0x000a9420	9.71492e-40
18	0x827a7e16	-1.8403284e-37
19	0x3ce1cccb	0.027563473
20	0xb1ad016d	-5.0351248e-09
21	0x92a56472	-1.0437726e-27
22	0x93517c56	-2.6440811e-27
23	0x1514987e	3.0008657e-26
24	0x2be7dbae	1.6474511e-12
25	0xa222c52d	-2.2059478e-18
26	0x80083486	-7.53526e-40
27	0x8008aec5	-7.9738e-40
28	0x9376bba8	-3.1142087e-27
29	0x90370fa0	-3.6102423e-29
30	0xaffb7f3a	-4.5747034e-10
31	0x93c7877d	-5.0368264e-27
32	0x14aecb88	1.7649789e-26
33	0xb99d136c	-0.00029959844
34	0x1d67d2a1	3.0681488e-21
35	0x3817160b	3.6021735e-05
36	0x30595e33	7.9078005e-10
37	0x3c01ff5d	0.0079344185
38	0x93b71f15	-4.6226344e-27
39	0xaab219f4	-3.163716e-13
40	0x85c637bd	-1.8640306e-35
41	0x2a03e6b8	1.1715184e-13
42	0x05af6d1a	1.6496998e-35
43	0x0901da3d	1.5630425e-33
44	0x09b6ea1b	4.4035058e-33
45	0x3ac1eab0	0.0014794674
46	0x3943c5e8	0.00018670375
47	0x9b4ec92c	-1.7104923e-22
48	0xa99226f2	-6.4904584e-14
49	0x0004a9f0	4.28304e-40
50	0x378228ec	1.5516263e-05
51	0xb3235007	-3.802418e-08
52	0xaa862d04	-2.3834418e-13
53	0x9e9aa87d	-1.637507e-20
54	0x32ed69e1	2.763858e-08
55	0xb08a9953	-1.0084399e-09
56	0x8004e45b	-4.4926e-40
57	0x03c15ce6	1.1364849e-36
58	0x8fac91c2	-1.7016653e-29
59	0x00efb2a6	2.201277e-38
60	0xaa64ceca	-2.0322212e-13
61	0xbcef5171	-0.029213639
62	0xb339d149	-4.3264013e-08
63	0x91c3be7c	-3.088297e-28
64	0x2601628d	4.4889427e-16
65	0xaf43197e	-1.7744203e-10
66	0x97a106e0	-1.0406117e-24
67	0x00ec3e08	2.169543e-38
68	0x800a81ad	-9.64874e-40
69	0xb731b6c0	-1.0592572e-05
70	0x94531309	-1.0656532e-26
71	0x1dcd1270	5.4282112e-21
72	0x331ab114	3.601697e-08
73	0x3237a222	1.0688867e-08
74	0xbc9c9a7c	-0.019116633
75	0x18b06dda	4.5605855e-24
76	0x8bb025b1	-6.7849446e-32
77	0x081258c6	4.403963e-34
78	0x8101ccf0	-2.3840593e-38
79	0x1f08a181	2.8932713e-20
80	0x239e927c	1.7192433e-17
81	0x82f925e8	-3.6609019e-37
82	0xbb6edd63	-0.0036447875
83	0xb531e7a2	-6.627471e-07
84	0x3d70b3d0	0.058765233
85	0x00004c6b	2.7414e-41
86	0xa3902dbe	-1.5631884e-17
87	0x3d2bfafe	0.04198741
88	0x2870e208	1.3371689e-14
89	0x95416b52	-3.90607e-26
90	0xa9220f53	-3.5984518e-14
91	0x818974cb	-5.049344e-38
92	0x8885b64e	-8.047506e-34
93	0x90575245	-4.2464652e-29
94	0x244147d0	4.191103e-17
95	0x00112074	1.572845e-39
96	0x853ddba0	-8.927076e-36
97	0xa00d7360	-1.1981339e-19
98	0x37722423	1.4432738e-05
99	0x389e903d	7.5608936e-05
100	0x1540d918	3.8945348e-26
101	0x9a61370b	-4.6573373e-23
102	0x0f296bab	8.3530794e-30
103	0x25dda35a	3.844808e-16
104	0x91e4e3ad	-3.6112373e-28
105	0x10ae0ab9	6.864742e-29
106	0x80059e68	-5.16003e-40
107	0x239e56f9	1.7167229e-17
108	0xa87717b0	-1.3716391e-14
109	0x122632ca	5.2442966e-28
110	0x0519112e	7.197181e-36
111	0x9cbeedaf	-1.2634585e-21
112	0x01b76076	6.7362e-38
113	0x8539fd7d	-8.7452166e-36
114	0xb8037ea0	-3.1350763e-05
115	0x0c96944e	2.3200417e-31
116	0x2c5c121d	3.1273935e-12
117	0x01c21ede	7.130864e-38
118	0x000310ab	2.81486e-40
119	0x00023427	2.0238e-40
120	0x8002d0f4	-2.58629e-40
121	0xb15160cf	-3.0468532e-09
122	0x1ba395c8	2.7062882e-22
123	0xad3e922c	-1.0832706e-11
124	0xb40769f4	-1.26114e-07
125	0x243391fc	3.893809e-17
126	0x2c106d58	2.0524329e-12
127	0x2db6ea0a	2.0794939e-11
128	0xae190519	-3.47927e-11
129	0x1351eee7	2.6497297e-27
130	0xabec3430	-1.6783294e-12
131	0x80045fc7	-4.017e-40
132	0x17fcc34d	1.6334419e-24
133	0x35d07c61	1.5533407e-06
134	0x00031bac	2.85433e-40
135	0x07c9234c	3.0263864e-34
136	0xa0fed0f4	-4.3167547e-19
137	0x26ab2f5a	1.1878343e-15
138	0x9d5e94e6	-2.9458434e-21
139	0xa708b518	-1.8971963e-15
140	0x8a0d3947	-6.799676e-33
141	0x0004d82b	4.44888e-40
142	0x2208137a	1.8441748e-18
143	0x2380f151	1.397999e-17
144	0x9d76735a	-3.2617464e-21
145	0x800bf171	-1.096803e-39
146	0x027a89b6	1.840662e-37
147	0xbce1cccf	-0.02756348
148	0x31ad018e	5.0351394e-09
149	0x12a56479	1.0437732e-27
150	0x13517c58	2.6440815e-27
151	0x9514987e	-3.0008657e-26
152	0xabe776ce	-1.6446512e-12
153	0x2222c5c6	2.2059794e-18
154	0x00085699	7.6575e-40
155	0x000841c5	7.58278e-40
156	0x1376bb9b	3.1142062e-27
157	0x106ca575	4.6670257e-29
158	0x2ffb7f54	4.5747106e-10
159	0x13c7877b	5.0368257e-27
160	0x94aecb88	-1.7649789e-26
161	0x399d136e	0.0002995985
162	0x9d67d2b5	-3.0681528e-21
163	0xb81712ff	-3.6018897e-05
164	0xb0595d69	-7.9076884e-10
165	0xbc01ff4e	-0.007934405
166	0x13b71f14	4.622634e-27
167	0x2ab219f4	3.163716e-13
168	0x05c637bd	1.8640306e-35
169	0xaa03e6b4	-1.1715179e-13
170	0x85af6cea	-1.649693e-35
171	0x8901da3d	-1.5630425e-33
172	0x89b6ea1a	-4.4035054e-33
173	0xbac1ead2	-0.0014794713
174	0xb943c623	-0.00018670461
175	0x1b4ec92c	1.7104923e-22
176	0x299226f3	6.490459e-14
177	0x80045461	-3.97611e-40
178	0xb78228dc	-1.5516234e-05
179	0x33235007	3.802418e-08
180	0x2a862d2e	2.383453e-13
181	0x1e9aa7eb	1.6374833e-20
182	0xb2ed69e1	-2.763858e-08
183	0x308a8bb3	1.0080526e-09
184	0x00051e19	4.69974e-40
185	0x83c164dc	-1.1366677e-36
186	0x0fac91d8	1.7016686e-29
187	0x80f4cace	-2.2480614e-38
188	0x2a64ceca	2.0322212e-13
189	0x3cef516f	0.029213635
190	0x333a59b8	4.33881e-08
191	0x11c3be7c	3.088297e-28
192	0xa6016296	-4.4889475e-16
193	0x2f43197e	1.7744203e-10
194	0x17a106da	1.0406111e-24
195	0x80ebff18	-2.1672852e-38
196	0x000aebae	1.002901e-39
197	0x3731b6e4	1.0592605e-05
198	0x14531309	1.0656532e-26
199	0x9dcd1263	-5.428206e-21
200	0xb31ab114	-3.601697e-08
201	0xb237a216	-1.0688856e-08
202	0x3c9c9a7e	0.019116636
203	0x98b06dea	-4.560592e-24
204	0x0bb025b3	6.784946e-32
205	0x881258c8	-4.403964e-34
206	0x0100c7c2	2.3653206e-38
207	0x9f08a17f	-2.8932707e-20
208	0xa39e9275	-1.7192421e-17
209	0x02f9831c	3.6662515e-37
210	0x3b6edd62	0.0036447872
211	0x3531d809	6.625201e-07
212	0xbd70b3c4	-0.058765188
213	0x000019ad	9.211e-42
214	0x23902d94	1.5631814e-17
215	0xbd2bfaf6	-0.041987382
216	0xa870e210	-1.3371696e-14
217	0x15416b52	3.90607e-26
218	0x29220f3a	3.5984433e-14
219	0x0188bf9b	5.023345e-38
220	0x0885b64f	8.047507e-34
221	0x10575248	4.246466e-29
222	0xa4412a93	-4.1886266e-17
223	0x8011cf9c	-1.63568e-39
224	0x053ddba0	8.927076e-36
225	0x200d7350	1.1981318e-19
226	0xb7722423	-1.4432738e-05
227	0xb89e9040	-7.560896e-05
228	0x9540d91b	-3.8945357e-26
229	0x1a6136a6	4.6573054e-23
230	0x8f296bad	-8.353081e-30
231	0xa5dda35a	-3.844808e-16
232	0x11e4e3ad	3.6112373e-28
233	0x90ae0ab9	-6.864742e-29
234	0x0003842d	3.22922e-40
235	0xa39e56f4	-1.716722e-17
236	0x287717b3	1.3716393e-14
237	0x922632d0	-5.2442995e-28
238	0x85191046	-7.1970144e-36
239	0x1cbeedaf	1.2634585e-21
240	0x81b752f6	-6.7342626e-38
241	0x0539fd66	8.7452e-36
242	0x38037e9b	3.1350744e-05
243	0x8c969420	-2.3200309e-31
244	0xac5c121c	-3.1273933e-12
245	0x81c21ede	-7.130864e-38
246	0x8003b2eb	-3.3969e-40
247	0x80023427	-2.0238e-40
248	0x0004244c	3.80363e-40
249	0x315160e6	3.0468583e-09
250	0x9ba39601	-2.7063026e-22
251	0x2d3e9212	1.0832684e-11
252	0x340769f0	1.2611395e-07
253	0xa433998a	-3.894449e-17
254	0xac106d80	-2.0524416e-12
255	0xadb6ea11	-2.079495e-11

fc.bias f4 [2]
0	0x3f5c959e	0.861658
1	0xbf644f15	-0.8918317
