pose_gcn_enhanced_model.pt (torch, 148801 bytes, 20 tensors)

conv1.bias f4 [128]
2.5284996e-38 -1.150567e-39 -5.526616e-38 6.860106e-38 -1.0789695e-38 -3.113396e-38 -1.9728545e-38 -4.007383e-38
-6.9256576e-38 -2.1820594e-38 4.2893567e-38 3.8594517e-38 1.990559e-38 1.1729787e-38 2.682157e-38 -7.56626e-39
-5.9768855e-38 -4.412709e-38 1.3654757e-38 3.7852816e-38 3.138254e-38 1.4093049e-38 1.549529e-38 -1.0604657e-38
1.1691414e-38 -5.616206e-38 -4.318896e-38 -2.68398e-39 -2.98715e-40 -2.355215e-38 -4.4456766e-38 4.0380478e-38
-5.8558615e-38 1.54726e-38 -3.517935e-38 4.207356e-38 2.7778915e-38 -3.62519e-40 -5.008736e-38 6.3147206e-38
4.5612982e-38 -1.1620262e-38 8.2606e-40 -2.7747e-38 -4.5798055e-38 5.7320046e-38 6.62702e-40 -2.2286453e-38
4.924423e-38 -6.505511e-39 2.6192936e-38 5.329463e-39 -6.404158e-38 3.294993e-38 1.8371023e-38 4.144969e-38
-3.1903127e-38 5.3527225e-38 -2.658975e-38 -5.992181e-38 6.796952e-38 -4.51933e-38 -5.649401e-38 2.8299335e-38
2.33525e-40 6.355661e-38 1.693038e-39 -8.085515e-39 3.927044e-39 -4.439594e-39 -5.223101e-38 -2.2233394e-38
-2.4056988e-38 2.894298e-38 -5.235732e-38 5.651263e-38 6.4424574e-38 -9.613703e-39 8.72022e-40 6.7850883e-38
-7.1576274e-38 -6.5236643e-38 -3.961381e-39 -2.3837488e-38 -9.11741e-40 -6.927902e-38 1.2964253e-38 -6.454209e-38
-7.34785e-40 2.6153722e-38 -3.707645e-39 4.814229e-38 6.0646684e-38 5.561746e-38 -5.2928377e-38 -1.0387343e-38
1.029999e-39 -6.591843e-39 -3.1255884e-38 6.589662e-38 5.947929e-38 1.3171309e-38 -4.285692e-38 -4.5491327e-38
-1.0796993e-38 5.497379e-38 3.8573274e-38 1.03155e-40 6.216661e-38 -6.0134515e-38 3.4838578e-38 -3.6587174e-38
4.327499e-38 5.273927e-39 -7.001048e-38 1.4037423e-38 -4.192028e-38 -2.5308246e-38 -4.5202604e-38 -6.8962e-41
-2.8527556e-38 -6.4248537e-38 6.179893e-38 -6.2423575e-38 -4.834908e-38 3.553352e-38 6.8841825e-38 2.9797625e-38
00000000: 24aa 0901 5087 0c80 e472 9681 f6bf ba01
00000010: 487d 7580 6882 2981 28d3 d680 c42e 5a81
00000020: ca88 bc81 f09a ed80 e888 6901 e820 5201
00000030: b0c0 d800 e0b9 7f00 d007 1201 a863 5280
00000040: d0b4 a281 3040 7081 e8af 9400 2017 4e01
00000050: e0dc 2a01 b075 9900 90ba a800 7879 7380
00000060: e84e 7f00 3ee3 9881 a024 6b81 d839 1d80
00000070: b240 0380 e83a 0081 b00b 7281 2cda 5b01
00000080: 6669 9f81 507b a800 dc88 3f81 fc11 6501
00000090: 283e 1701 8ef2 0380 cc59 8881 2ee7 ab01
000000a0: 3857 7801 9088 7e80 b8fe 0800 ac11 1781
000000b0: 2c59 7981 3e0a 9c01 5837 0700 90ad f280
000000c0: 380e 8601 b8d6 4680 a09b 0e01 6008 3a00
000000d0: 7856 ae81 8065 3301 f00a c800 70ac 6101
000000e0: 78b2 2d81 08b7 9101 b4c4 1081 681f a381
000000f0: d807 b901 440e 7681 94ca 9981 8413 1a01
00000100: f98a 0200 7e04 ad01 806f 1200 200b 5880
00000110: 00c3 2a00 c857 3080 b42f 8e81 a819 f280
00000120: 8cfa 0281 a094 1d01 ba87 8e81 8ed7 9901
00000130: 6061 af01 18af 6880 d87e 0900 2ab5 b801
00000140: 62d9 c281 4e97 b181 b822 2b80 9cc8 0181
00000150: 90ed 0980 6e98 bc81 102b 8d00 46b3 af81
00000160: 4800 0880 f864 0e01 685f 2880 480e 8301
00000170: 9218 a501 b667 9701 b215 9081 b01b 7180
00000180: 3837 0b00 60c7 4780 582c 2a81 3e63 b301
00000190: 04eb a101 406c 8f00 d455 6981 a8ad 7781
000001a0: a091 7580 24a7 9501 4c03 5201 8e1f 0100
000001b0: ce3b a901 a4b3 a381 e4ad 3d01 1433 4781
000001c0: 889c 6b01 906d 3900 2f96 be81 a0da 9800
000001d0: 583c 6481 8cca 0981 3c1b 7681 3dc0 0080
000001e0: 9c51 1b81 b2e6 ae81 923b a801 e2ee a981
000001f0: 649e 8381 8076 4101 c067 bb01 d43b 2201

conv1.lin.weight f4 [128, 2]
-4.6875e-41 2.5794e-41 4.9453e-41 -4.2223e-41 -5.698e-41 7.7761e-41 -5.877e-41 -1.2896e-41
6.529e-41 7.9887e-41 5.9324e-41 -4.6883e-41 1.23003e-40 -1.26041e-40 1.66087e-40 1.11546e-40
-4.8493e-41 -3.974e-42 1.5864e-41 4.9973e-41 1.18384e-40 7.564e-42 -4.8507e-41 -2.3704e-41
2.6061e-41 -1.9778e-41 5.1785e-41 1.2135e-41 -1.25039e-40 -3.896e-42 -9.7036e-41 4.28e-42
1.17897e-40 8.756e-41 -6.959e-42 5.313e-41 -1.8524e-41 1.946e-41 -5.301e-41 7.5244e-41
-9.54e-43 -3.7113e-41 4.9476e-41 3.1629e-41 5.587e-41 2.8123e-41 -5.1132e-41 -9.0531e-41
3.592e-41 4.9589e-41 2.2875e-41 -1.39766e-40 1.28557e-40 9.012e-42 1.5043e-41 -1.0315e-40
2.5537e-41 1.51727e-40 -1.8936e-41 2.1989e-41 5.5135e-41 -6.024e-42 5.5943e-41 3.5024e-41
4.9111e-41 -2.772e-42 -2.73e-42 -8.1058e-41 -1.4299e-41 7.3979e-41 -1.27393e-40 -9.474e-42
5.8415e-41 7.8746e-41 -4.4078e-41 2.3246e-41 2.2079e-41 6.353e-41 6.5952e-41 -2.9807e-41
-3.2462e-41 1.1694e-41 -4.079e-42 3.1072e-41 7.4995e-41 -9.8148e-41 2.3823e-41 2.6948e-41
2.4876e-41 4.47e-41 6.652e-42 1.0644e-41 -5.5413e-41 3.3633e-41 2.0208e-41 -2.0306e-41
2.4573e-41 2.1544e-41 -2.4967e-41 1.29259e-40 8.3594e-41 4.2783e-41 -4.8915e-41 -4.4989e-41
1.00013e-40 -1.0116e-41 7.9402e-41 -1.9121e-41 9.736e-42 -1.4223e-41 -9.6775e-41 3.7385e-41
-4.531e-41 7.8788e-41 -2.9496e-41 -2.64e-41 -5.8835e-41 2.0449e-41 2.3197e-41 -1.26805e-40
-4.2403e-41 -5.2596e-41 -3.0038e-41 3.5324e-41 -5.3129e-41 -6.8706e-41 -3.229e-41 4.927e-41
4.987e-41 -5.8405e-41 5.4338e-41 1.918e-41 4.5843e-41 -5.5176e-41 4.4463e-41 2.1259e-41
-1.30562e-40 2.326e-42 3.7042e-41 4.3866e-41 -2.5096e-41 -3.1511e-41 1.1983e-41 7.3148e-41
4.8018e-41 6.569e-42 5.2877e-41 -3.3312e-41 2.5396e-41 -2.6273e-41 1.39886e-40 -5.3579e-41
5.79e-43 -2.9402e-41 3.0104e-41 1.3251e-40 7.5192e-41 1.5376e-41 -4.8552e-41 2.9443e-41
6.7418e-41 -7.29e-43 -2.6067e-41 2.5036e-41 -2.1182e-41 -5.3836e-41 -3.7269e-41 -2.4874e-41
-7.482e-42 -9.875e-42 -4.8251e-41 8.5387e-41 3.52e-42 -4.6162e-41 8.4446e-41 1.7834e-41
3.4403e-41 4.7346e-41 7.4657e-41 1.40929e-40 -1.48248e-40 4.5563e-41 2.4809e-41 1.2019e-41
-7.537e-41 -7.1556e-41 3.593e-41 4.7829e-41 -2.8053e-41 5.1401e-41 7.9675e-41 -1.44597e-40
-5.1624e-41 -2.834e-41 -9.8485e-41 4.42e-42 -7.7077e-41 4.4533e-41 -2.3084e-41 -2.3787e-41
1.765e-41 -3.1571e-41 -2.4785e-41 -1.0542e-40 -2.342e-41 4.71e-41 -5.6001e-41 6.0578e-41
1.213e-41 1.117e-41 -1.853e-41 4.919e-41 -4.7407e-41 4.6738e-41 1.04475e-40 1.35478e-40
5.75e-42 -1.1494e-40 -1.09802e-40 -2.7366e-41 2.6604e-41 -1.11765e-40 5.4356e-41 -1.5599e-41
6.5642e-41 -3.7266e-41 1.23132e-40 9.9917e-41 1.6136e-41 -3.9737e-41 -7.5283e-41 2.979e-41
-2.994e-41 -1.46489e-40 3.488e-41 -1.5459e-41 -3.9738e-41 -4.0981e-41 1.11094e-40 -4.5478e-41
-2.8868e-41 -1.8435e-41 -4.7462e-41 -2.5628e-41 2.4825e-41 -4.64e-43 -1.59059e-40 5.096e-41
-6.9439e-41 -5.0636e-41 -2.1227e-41 -1.25893e-40 -3.803e-42 -4.4481e-41 -5.3387e-41 7.8365e-41
00000000: ab82 0080 e747 0000 db89 0000 b375 0080
00000010: d69e 0080 c4d8 0000 d4a3 0080 f323 0080
00000020: 01b6 0000 b1de 0000 5fa5 0000 b182 0080
00000030: e256 0100 5a5f 0180 fcce 0100 f236 0100
00000040: 2e87 0080 140b 0080 392c 0000 4e8b 0000
00000050: 024a 0100 1615 0000 3887 0080 1442 0080
00000060: a648 0000 2237 0080 5b90 0000 d421 0000
00000070: 8f5c 0180 dc0a 0080 7f0e 0180 ee0b 0000
00000080: a648 0100 15f4 0000 6613 0080 1b94 0000
00000090: a333 0080 3f36 0000 c593 0080 c0d1 0000
000000a0: a902 0080 7567 0080 eb89 0000 2b58 0000
000000b0: be9b 0000 654e 0000 898e 0080 5dfc 0080
000000c0: 2164 0000 3c8a 0000 c43f 0000 9c85 0180
000000d0: 5d66 0100 1f19 0000 ef29 0000 8a1f 0180
000000e0: 3047 0000 f4a6 0100 c934 0080 4c3d 0000
000000f0: b299 0000 cb10 0080 f29b 0000 a261 0000
00000100: e788 0000 ba07 0080 9c07 0080 f5e1 0080
00000110: dc27 0080 39ce 0000 1f63 0180 691a 0080
00000120: d6a2 0000 83db 0000 df7a 0080 cd40 0000
00000130: 8c3d 0000 19b1 0000 d9b7 0000 1753 0080
00000140: 7e5a 0080 9920 0000 5f0b 0080 9e56 0000
00000150: 0ed1 0000 9911 0180 6942 0000 1f4b 0000
00000160: 5845 0000 9b7c 0000 8b12 0000 ac1d 0000
00000170: 789a 0080 c15d 0000 5538 0000 9b38 0080
00000180: 8044 0000 0e3c 0000 9945 0080 5268 0100
00000190: 07e9 0000 4377 0000 5b88 0080 697d 0080
000001a0: cc16 0100 331c 0080 57dd 0000 4d35 0080
000001b0: 241b 0000 a627 0080 c50d 0180 3768 0000
000001c0: 4e7e 0080 a1db 0000 3952 0080 9849 0080
000001d0: 02a4 0080 0139 0000 aa40 0000 7b61 0180
000001e0: 3476 0080 9e92 0080 bc53 0080 7862 0000
000001f0: 1a94 0080 86bf 0080 035a 0080 5889 0000
00000200: 048b 0000 cfa2 0080 7997 0000 7735 0000
00000210: cb7f 0000 cf99 0080 f27b 0000 433b 0000
00000220: f46b 0180 7c06 0000 4267 0000 487a 0000
00000230: f545 0080 d757 0080 6721 0000 e8cb 0000
00000240: db85 0000 5012 0000 6693 0000 dc5c 0080
00000250: cb46 0000 3d49 0080 f285 0100 5b95 0080
00000260: 9d01 0000 f651 0080 eb53 0000 6271 0100
00000270: 9bd1 0000 dd2a 0000 5887 0080 1352 0000
00000280: efbb 0000 0802 0080 aa48 0080 ca45 0000
00000290: 0c3b 0080 1396 0080 e467 0080 5745 0080
000002a0: db14 0080 871b 0080 8186 0080 06ee 0000
000002b0: d009 0000 ae80 0080 67eb 0000 b731 0000
000002c0: e75f 0000 fb83 0000 1dd0 0000 da88 0100
000002d0: 419d 0180 037f 0000 2845 0000 8121 0000
000002e0: 1ad2 0080 78c7 0080 2964 0000 5485 0000
000002f0: 334e 0080 498f 0000 1ade 0000 1493 0180
00000300: e88f 0080 004f 0080 8912 0180 520c 0000
00000310: dcd6 0080 247c 0000 5940 0080 4f42 0080
00000320: 3331 0000 0258 0080 1745 0080 de25 0180
00000330: 4941 0080 4c83 0000 1c9c 0080 dea8 0000
00000340: d021 0000 231f 0000 a733 0080 1f89 0000
00000350: 2784 0080 4982 0000 3c23 0100 a879 0100
00000360: 0710 0000 6840 0180 1532 0180 494c 0080
00000370: 294a 0000 8e37 0180 8697 0000 7c2b 0080
00000380: fcb6 0000 e267 0080 3e57 0100 8716 0100
00000390: fb2c 0000 c56e 0080 dcd1 0080 0b53 0000
000003a0: 7653 0080 5a98 0180 3b61 0000 182b 0080
000003b0: c66e 0080 3d72 0080 af35 0100 c67e 0080
000003c0: 7950 0080 6433 0080 4e84 0080 7147 0080
000003d0: 3445 0000 4b01 0080 64bb 0180 0e8e 0000
000003e0: 91c1 0080 278d 0080 2c3b 0080 f05e 0180
000003f0: 9a0a 0080 ff7b 0080 d294 0080 73da 0000

bn1.module.weight f4 [128]
-5.6987e-41 -1.08823e-40 1.3738e-41 3.1522e-41 3.4588e-41 -6.7936e-41 -4.2478e-41 -6.475e-42
-1.7223e-41 -4.1345e-41 4.4442e-41 5.4054e-41 1.01918e-40 1.0576e-40 -1.2546e-41 2.022e-41
-1.51091e-40 6.722e-41 -3.1828e-41 7.1773e-41 3.3163e-41 -8.2337e-41 2.7904e-41 6.2414e-41
5.3808e-41 4.8926e-41 1.13285e-40 -5.7187e-41 1.858e-42 -5.4117e-41 -4.2948e-41 -1.9227e-41
2.231e-41 1.19068e-40 1.921e-42 2.4985e-41 1.42037e-40 5.148e-42 -4.0251e-41 2.4942e-41
-8.3212e-41 -4.5572e-41 -6.928e-41 2.9053e-41 9.1383e-41 2.9364e-41 9.073e-41 4.6003e-41
1.20673e-40 -9.4047e-41 -5.993e-41 4.3275e-41 2.5169e-41 1.55e-42 -5.8436e-41 -1.201e-42
-9.1021e-41 -6.3528e-41 -7.5044e-41 1.28489e-40 8.6907e-41 -7.66e-42 -1.02047e-40 2.8626e-41
-5.3196e-41 4.6745e-41 -1.22647e-40 -1.0815e-41 -2.0317e-41 -5.4447e-41 -7.5112e-41 -5.9695e-41
3.604e-41 1.871e-42 1.37574e-40 3.4155e-41 7.2811e-41 3.077e-42 -6.2802e-41 9.3296e-41
5.1425e-41 -1.6123e-41 -7.3885e-41 -1.09757e-40 -2.8062e-41 8.1162e-41 -2.1371e-41 1.49517e-40
1.13742e-40 -2.1729e-41 3.3389e-41 1.041e-41 8.3674e-41 -4.4889e-41 3.2367e-41 -1.22915e-40
1.00804e-40 9.2184e-41 -5.389e-41 6.819e-42 3.52e-42 3.7649e-41 5.5613e-41 3.5575e-41
-5.1901e-41 2.6305e-41 2.273e-42 -2.1214e-41 -1.3321e-41 -3.5048e-41 -6.1553e-41 -4.97e-41
-4.5661e-41 7.156e-41 -1.515e-41 7.1594e-41 -1.725e-42 5.906e-42 1.1528e-40 -4.1445e-41
1.9704e-41 -7.279e-41 -3.9839e-41 1.04676e-40 2.4107e-41 3.4396e-41 1.3425e-40 2.1663e-41
00000000: db9e 0080 5b2f 0180 4c26 0000 df57 0000
00000010: 6b60 0000 61bd 0080 6976 0080 0d12 0080
00000020: 0330 0080 4173 0080 e37b 0000 ae96 0000
00000030: 1b1c 0100 d126 0100 f922 0080 5d38 0000
00000040: 2ea5 0180 62bb 0000 b958 0080 13c8 0000
00000050: 725c 0000 86e5 0080 c94d 0000 fcad 0000
00000060: ff95 0000 6388 0000 cb3b 0100 6a9f 0080
00000070: 2e05 0000 db96 0080 b977 0080 9935 0080
00000080: 313e 0000 ea4b 0100 5b05 0000 a645 0000
00000090: f18b 0100 5a0e 0000 3470 0080 8745 0000
000000a0: f6e7 0080 097f 0080 20c1 0080 fd50 0000
000000b0: bdfe 0000 db51 0000 ebfc 0000 3d80 0000
000000c0: 6350 0100 2a06 0180 0fa7 0080 a278 0000
000000d0: 2946 0000 5204 0000 e5a2 0080 5903 0080
000000e0: bbfd 0080 17b1 0080 31d1 0080 2d66 0100
000000f0: 43f2 0000 5a15 0080 771c 0180 cc4f 0000
00000100: 4a94 0080 4e82 0000 e455 0180 261e 0080
00000110: a338 0080 c797 0080 62d1 0080 68a6 0080
00000120: 7764 0000 3705 0000 807f 0100 365f 0000
00000130: f8ca 0000 9408 0000 11af 0080 1204 0100
00000140: 5a8f 0000 f22c 0080 f6cd 0080 f531 0180
00000150: 3a4e 0080 3fe2 0000 933b 0080 cba0 0100
00000160: 113d 0100 923c 0080 135d 0000 051d 0000
00000170: 40e9 0000 227d 0080 3a5a 0000 a356 0180
00000180: 0019 0100 f900 0100 3996 0080 0213 0000
00000190: d009 0000 f368 0000 079b 0000 2b63 0000
000001a0: ae90 0080 5449 0000 5606 0000 233b 0080
000001b0: 2225 0080 b361 0080 96ab 0080 8b8a 0080
000001c0: 497f 0080 7bc7 0000 3b2a 0080 93c7 0000
000001d0: cf04 0080 7710 0000 5b41 0100 8873 0080
000001e0: ed36 0000 e9ca 0080 0e6f 0080 cb23 0100
000001f0: 3343 0000 e25f 0000 3c76 0100 633c 0000

bn1.module.bias f4 [128]
-3.807e-41 5.593e-42 2.328e-42 -9.2382e-41 -2.8078e-41 -3.677e-42 -2.8746e-41 1.4582e-40
1.3502e-41 -5.2807e-41 -9.8294e-41 -5.2013e-41 1.536e-41 -1.18334e-40 5.1943e-41 -3.3795e-41
-1.3083e-41 -7.047e-42 -4.6164e-41 -3.7902e-41 5.771e-41 -3.0736e-41 -1.28191e-40 -2.812e-42
-1.4492e-41 1.28495e-40 5.0482e-41 -4.5904e-41 -5.005e-42 -4.2773e-41 -8.8461e-41 8.3578e-41
-9.2665e-41 1.2337e-41 -6.2064e-41 -7.3024e-41 -4.1662e-41 -1.43627e-40 2.8257e-41 -4.023e-42
-1.30441e-40 -8.4211e-41 5.916e-42 1.19349e-40 2.3622e-41 -8.1239e-41 9.957e-41 5.6559e-41
1.583e-42 -5.9907e-41 1.30538e-40 -2.761e-41 -5.1615e-41 -4.5364e-41 1.37884e-40 3.1533e-41
-3.0101e-41 -9.638e-41 -6.858e-41 1.9823e-41 4.5869e-41 -2.581e-41 -8.8593e-41 -1.5116e-41
-4.004e-42 -2.2059e-41 -4.9012e-41 -6.2085e-41 -2.7006e-41 -1.25e-41 1.17474e-40 -1.8978e-41
-6.279e-41 -7.8355e-41 -8.9599e-41 -3.6721e-41 -1.04145e-40 -6.088e-41 1.45165e-40 -7.2108e-41
-1.3014e-41 -5.1701e-41 -7e-44 6.5998e-41 -1.2784e-41 -2.692e-42 -7.7995e-41 1.6538e-41
2.2952e-41 -4.6106e-41 -5.8133e-41 2.046e-42 9.76e-41 -2.5847e-41 -1.04234e-40 7.1665e-41
6.6916e-41 -5.908e-42 2.418e-41 -5.8824e-41 -4.8774e-41 4.3e-44 -1.15054e-40 -7.5e-42
-1.487e-42 -3.2006e-41 -4.275e-42 1.24873e-40 -2.9374e-41 -6.4388e-41 7.4993e-41 -4.9421e-41
-2.1071e-41 -4.6578e-41 -1.21913e-40 2.8996e-41 -8.817e-42 7.7632e-41 -1.07459e-40 -7.7646e-41
-1.27671e-40 -2.3795e-41 1.5612e-41 3.66e-41 4.658e-42 7.02e-43 3.1067e-41 -2.0804e-41
00000000: 206a 0080 970f 0000 7d06 0000 8601 0180
00000010: 454e 0080 400a 0080 2250 0080 7d96 0100
00000020: a325 0000 3493 0080 0112 0180 fe90 0080
00000030: d12a 0000 de49 0180 cc90 0000 355e 0080
00000040: 7824 0080 a513 0080 b080 0080 a869 0080
00000050: dfa0 0000 ae55 0080 5865 0180 d707 0080
00000060: 6628 0080 3166 0100 b98c 0000 f67f 0080
00000070: f40d 0080 3c77 0080 98f6 0080 fbe8 0000
00000080: 5002 0180 6422 0000 02ad 0080 90cb 0080
00000090: 2374 0080 6090 0180 c54e 0000 370b 0080
000000a0: 9e6b 0180 bfea 0080 7e10 0000 b24c 0100
000000b0: d941 0000 76e2 0080 9015 0100 aa9d 0000
000000c0: 6a04 0000 ffa6 0080 e36b 0100 f74c 0080
000000d0: e28f 0080 757e 0080 5d80 0100 e757 0000
000000e0: e953 0080 ab0c 0180 2cbf 0080 4237 0000
000000f0: dd7f 0000 f347 0080 f6f6 0080 232a 0080
00000100: 290b 0080 7e3d 0080 a088 0080 11ad 0080
00000110: 484b 0080 d822 0080 7847 0100 e734 0080
00000120: 08af 0080 6cda 0080 c4f9 0080 5d66 0080
00000130: 5022 0180 b5a9 0080 a994 0100 02c9 0080
00000140: 4724 0080 1f90 0080 3200 0080 fab7 0000
00000150: a323 0080 8107 0080 6bd9 0080 1a2e 0000
00000160: fb3f 0000 8680 0080 0da2 0080 b405 0000
00000170: 1210 0100 0d48 0080 9022 0180 c6c7 0000
00000180: 89ba 0000 7810 0080 6743 0000 faa3 0080
00000190: f687 0080 1f00 0000 b940 0180 e814 0080
000001a0: 2504 0080 3859 0080 eb0b 0080 185c 0100
000001b0: e251 0080 7db3 0080 0dd1 0000 c489 0080
000001c0: bd3a 0080 d781 0080 d853 0180 d450 0000
000001d0: 9418 0080 68d8 0000 8d2b 0180 72d8 0080
000001e0: e563 0180 5542 0080 852b 0000 0766 0000
000001f0: fc0c 0000 f501 0000 9a56 0000 fe39 0080

bn1.module.running_mean f4 [128]
2.5271014e-38 -1.141477e-39 -5.5265653e-38 6.8566476e-38 -1.072656e-38 -3.112164e-38 -1.9713862e-38 -3.9947785e-38
-6.9282595e-38 -2.179373e-38 4.295628e-38 3.856105e-38 1.9911305e-38 1.176055e-38 2.675687e-38 -7.613716e-39
-5.967622e-38 -4.4110564e-38 1.3652728e-38 3.7854363e-38 3.1368072e-38 1.4129989e-38 1.5534138e-38 -1.0664642e-38
1.1728277e-38 -5.620317e-38 -4.3120538e-38 -2.715262e-39 -2.28598e-40 -2.355344e-38 -4.4431139e-38 4.042195e-38
-5.8534826e-38 1.5440657e-38 -3.5158688e-38 4.2005564e-38 2.783814e-38 -3.76043e-40 -5.005224e-38 6.31693e-38
4.560095e-38 -1.1610606e-38 8.26976e-40 -2.7724785e-38 -4.576861e-38 5.73274e-38 6.47362e-40 -2.2283884e-38
4.926477e-38 -6.469403e-39 2.625132e-38 5.28777e-39 -6.399481e-38 3.2982872e-38 1.8370581e-38 4.141485e-38
-3.1896325e-38 5.3502343e-38 -2.6611787e-38 -5.995788e-38 6.792824e-38 -4.519517e-38 -5.6546765e-38 2.830157e-38
2.36723e-40 6.3591305e-38 1.695417e-39 -8.055014e-39 3.861899e-39 -4.404322e-39 -5.2255563e-38 -2.2199747e-38
-2.4030223e-38 2.8957146e-38 -5.235436e-38 5.656313e-38 6.4413784e-38 -9.548516e-39 9.15844e-40 6.783741e-38
-7.1542447e-38 -6.524038e-38 -3.992392e-39 -2.3865705e-38 -9.19248e-40 -6.927123e-38 1.2948624e-38 -6.4492677e-38
-6.99538e-40 2.6244605e-38 -3.76543e-39 4.8159355e-38 6.058158e-38 5.5653633e-38 -5.2923164e-38 -1.040157e-38
9.9321e-40 -6.639977e-39 -3.127807e-38 6.587595e-38 5.947629e-38 1.3119025e-38 -4.2851e-38 -4.5496792e-38
-1.0786646e-38 5.498295e-38 3.856692e-38 2.07063e-40 6.2126175e-38 -6.0200337e-38 3.4809896e-38 -3.656556e-38
4.329412e-38 5.37386e-39 -7.0017285e-38 1.401058e-38 -4.1990643e-38 -2.5296428e-38 -4.523813e-38 -2.9932e-41
-2.8549096e-38 -6.428219e-38 6.1811286e-38 -6.2484795e-38 -4.840328e-38 3.5475314e-38 6.8823126e-38 2.9800173e-38
00000000: a796 0901 f96d 0c80 8a72 9681 dca7 ba01
00000010: 49cd 7480 3c71 2981 3aaa d680 167f 5981
00000020: ec9a bc81 0d50 ed80 51e0 6901 42f2 5101
00000030: 9ed0 d800 a10f 8000 a2ad 1101 f1e7 5280
00000040: 4174 a281 2729 7081 40aa 9400 4819 4e01
00000050: b6c8 2a01 a9dc 9900 db26 a900 af20 7480
00000060: aab5 7f00 e5ff 9881 42c5 6a81 0c91 1d80
00000070: 3d7d 0280 b43c 0081 f8e7 7181 fa13 5c01
00000080: d258 9f81 4522 a800 0f6c 3f81 36b3 6401
00000090: b490 1701 4118 0480 5241 8881 94f6 ab01
000000a0: 7346 7801 a56d 7e80 4601 0900 b6f2 1681
000000b0: 2230 7981 5e0f 9c01 950c 0700 67a6 f280
000000c0: 891c 8601 1072 4680 00ed 0e01 2794 3900
000000d0: e035 ae81 6a93 3301 b509 c800 e07b 6101
000000e0: fda8 2d81 b1a5 9101 6be3 1081 8b38 a381
000000f0: 13eb b801 e010 7681 58ef 9981 a216 1a01
00000100: e393 0200 ac1c ad01 2276 1200 1ab6 5780
00000110: 670d 2a00 75f5 2f80 d040 8e81 ddbb f180
00000120: 3ed5 0281 5fa8 1d01 aa85 8e81 c0fa 9901
00000130: db59 af01 61f9 6780 00f9 0900 c6ab b801
00000140: cfc1 c281 e999 b181 2a79 2b80 f0ef 0181
00000150: 7d02 0a80 0093 bc81 7fff 8c00 d690 af81
00000160: 079e 0780 a4e3 0e01 7d00 2980 2c1a 8301
00000170: 33eb a401 ec80 9701 1012 9081 5843 7180
00000180: aad0 0a00 8e4d 4880 444b 2a81 d654 b301
00000190: ede8 a101 81da 8e00 944d 6981 46b5 7781
000001a0: c874 7580 86ad 9501 71fa 5101 3541 0200
000001b0: a01f a901 83e1 a381 ea85 3d01 f414 4781
000001c0: 32b7 6b01 2384 3a00 ed9a be81 cc8f 9800
000001d0: 6a9e 6481 13ba 0981 c04c 7681 7053 0080
000001e0: a26f 1b81 26fe ae81 2e44 a801 8c19 aa81
000001f0: 2ac4 8381 5f25 4101 b85a bb01 613f 2201

bn1.module.running_var f4 [128]
6e-45 6e-45 6e-45 6e-45 6e-45 6e-45 6e-45 6e-45
6e-45 6e-45 6e-45 6e-45 6e-45 6e-45 6e-45 6e-45
6e-45 6e-45 6e-45 6e-45 6e-45 6e-45 6e-45 6e-45
6e-45 6e-45 6e-45 6e-45 6e-45 6e-45 6e-45 6e-45
6e-45 6e-45 6e-45 6e-45 6e-45 6e-45 6e-45 6e-45
6e-45 6e-45 6e-45 6e-45 6e-45 6e-45 6e-45 6e-45
6e-45 6e-45 6e-45 6e-45 6e-45 6e-45 6e-45 6e-45
6e-45 6e-45 6e-45 6e-45 6e-45 6e-45 6e-45 6e-45
6e-45 6e-45 6e-45 6e-45 6e-45 6e-45 6e-45 6e-45
6e-45 6e-45 6e-45 6e-45 6e-45 6e-45 6e-45 6e-45
6e-45 6e-45 6e-45 6e-45 6e-45 6e-45 6e-45 6e-45
6e-45 6e-45 6e-45 6e-45 6e-45 6e-45 6e-45 6e-45
6e-45 6e-45 6e-45 6e-45 6e-45 6e-45 6e-45 6e-45
6e-45 6e-45 6e-45 6e-45 6e-45 6e-45 6e-45 6e-45
6e-45 6e-45 6e-45 6e-45 6e-45 6e-45 6e-45 6e-45
6e-45 6e-45 6e-45 6e-45 6e-45 6e-45 6e-45 6e-45
00000000: 0400 0000 0400 0000 0400 0000 0400 0000
00000010: 0400 0000 0400 0000 0400 0000 0400 0000
00000020: 0400 0000 0400 0000 0400 0000 0400 0000
00000030: 0400 0000 0400 0000 0400 0000 0400 0000
00000040: 0400 0000 0400 0000 0400 0000 0400 0000
00000050: 0400 0000 0400 0000 0400 0000 0400 0000
00000060: 0400 0000 0400 0000 0400 0000 0400 0000
00000070: 0400 0000 0400 0000 0400 0000 0400 0000
00000080: 0400 0000 0400 0000 0400 0000 0400 0000
00000090: 0400 0000 0400 0000 0400 0000 0400 0000
000000a0: 0400 0000 0400 0000 0400 0000 0400 0000
000000b0: 0400 0000 0400 0000 0400 0000 0400 0000
000000c0: 0400 0000 0400 0000 0400 0000 0400 0000
000000d0: 0400 0000 0400 0000 0400 0000 0400 0000
000000e0: 0400 0000 0400 0000 0400 0000 0400 0000
000000f0: 0400 0000 0400 0000 0400 0000 0400 0000
00000100: 0400 0000 0400 0000 0400 0000 0400 0000
00000110: 0400 0000 0400 0000 0400 0000 0400 0000
00000120: 0400 0000 0400 0000 0400 0000 0400 0000
00000130: 0400 0000 0400 0000 0400 0000 0400 0000
00000140: 0400 0000 0400 0000 0400 0000 0400 0000
00000150: 0400 0000 0400 0000 0400 0000 0400 0000
00000160: 0400 0000 0400 0000 0400 0000 0400 0000
00000170: 0400 0000 0400 0000 0400 0000 0400 0000
00000180: 0400 0000 0400 0000 0400 0000 0400 0000
00000190: 0400 0000 0400 0000 0400 0000 0400 0000
000001a0: 0400 0000 0400 0000 0400 0000 0400 0000
000001b0: 0400 0000 0400 0000 0400 0000 0400 0000
000001c0: 0400 0000 0400 0000 0400 0000 0400 0000
000001d0: 0400 0000 0400 0000 0400 0000 0400 0000
000001e0: 0400 0000 0400 0000 0400 0000 0400 0000
000001f0: 0400 0000 0400 0000 0400 0000 0400 0000

conv2.bias f4 [128]
4.976837e-38 -3.1110507e-38 -1.237571e-39 -2.6402862e-38 -6.473177e-38 4.2784097e-38 -3.478294e-38 1.8973357e-38
-1.1908526e-38 -6.2298333e-38 -1.5528864e-38 1.312277e-39 -2.89153e-38 -5.6202326e-38 -5.1322074e-38 6.272297e-38
4.976029e-38 -1.281381e-38 -5.5715066e-38 -3.202e-40 3.7067416e-38 -9.252202e-39 -4.443596e-38 5.241474e-38
-1.278679e-39 3.1440295e-38 5.6626706e-38 -7.901216e-39 7.158011e-38 -4.1782393e-38 -6.9543573e-38 -2.9671688e-38
1.3327245e-38 2.04318e-40 4.4076868e-38 5.848355e-38 -9.040998e-39 2.5223742e-38 -3.7231738e-38 -1.7117096e-38
-6.5677637e-38 -2.6846278e-38 4.639864e-38 3.4787178e-38 2.434875e-38 -6.835665e-38 -4.05875e-38 -5.2444066e-38
4.5957377e-38 -3.0169003e-38 -3.1052292e-38 -4.711764e-38 -3.5881312e-38 4.359519e-38 -2.693057e-38 5.796906e-38
-3.3052e-38 5.307602e-38 -7.1123453e-38 -3.375493e-39 -5.137845e-38 -6.475443e-38 -1.8952764e-38 2.2025396e-38
-1.3348926e-38 1.7744015e-38 9.609477e-39 -5.8445166e-38 6.4625385e-38 6.507962e-38 5.571536e-38 5.117664e-38
-3.7816326e-38 4.9437933e-38 -1.3611967e-38 5.295018e-38 1.5096144e-38 -1.0276675e-38 6.2409876e-38 -2.1327191e-38
2.6564998e-38 2.070368e-39 5.236002e-38 2.4377044e-38 3.1572588e-38 3.4168174e-38 1.10449e-38 1.4380349e-38
1.3956854e-38 -3.71893e-40 -4.04793e-40 -1.6736986e-38 -1.4546857e-38 -5.400963e-39 -2.77883e-40 6.7999835e-38
3.7650334e-38 1.8911913e-38 -3.3349782e-38 2.9811392e-38 -1.4954904e-38 -5.0422743e-38 -1.3017962e-38 2.6604458e-38
7.156824e-39 -3.191881e-38 3.9169734e-38 -5.4578e-39 -5.5291527e-38 -3.0642765e-38 6.0752544e-38 -3.5954e-40
-4.4989988e-38 -1.3949287e-38 1.60135e-40 -5.0702386e-38 2.885148e-38 -4.822619e-38 1.2541375e-38 6.8420404e-38
7.0008597e-38 5.359185e-38 -1.6657795e-38 -6.1257034e-38 6.440685e-38 -2.5860122e-38 -2.78512e-38 -1.3400045e-38
00000000: 7e7b 8701 b861 2981 d879 0d80 38c0 0f81
00000010: 7637 b081 54f0 6801 5860 3d81 009a ce00
00000020: 20ac 8180 9a97 a981 2818 a980 184a 0e00
00000030: 0c6e 1d81 4eff 9881 44b6 8b81 88bf aa01
00000040: dc75 8701 b087 8b80 bcab 9781 967c 0380
00000050: 70d0 4901 60bf 6480 b0ee 7181 beaf 8e01
00000060: 70ec 0d80 602d 2b01 0e27 9a01 6009 5680
00000070: 0edc c201 287c 6381 cc50 bd81 4c8c 2181
00000080: f01e 9100 8e39 0200 30fa 6f01 1635 9f01
00000090: a072 6280 c454 0901 78b5 4a81 8063 ba80
000000a0: a2ca b281 402a 1281 449e 7c01 4066 3d01
000000b0: 3491 0401 a215 ba81 b8fa 5c81 2ec4 8e81
000000c0: 3c37 7a01 7441 2481 9410 2981 3444 8081
000000d0: 405b 4381 d45a 6d01 bc9f 1281 8ace 9d01
000000e0: c4f3 3381 967c 9001 d09d c181 80c1 2480
000000f0: 8edd 8b81 4047 b081 9860 ce80 d8d5 ef00
00000100: 605b 9180 1837 c100 50a3 6800 561a 9f81
00000110: 52ed af01 e029 b101 f0ab 9701 ea50 8b01
00000120: 44e4 4d81 3695 8601 a038 9480 e424 9001
00000130: e861 a400 30e7 6f80 56e5 a901 883b e880
00000140: 34a2 1001 588b 1600 9c89 8e01 a4b8 0401
00000150: c4e5 2b01 7c07 3a01 b044 7800 9096 9c00
00000160: 08fa 9700 b00c 0480 6668 0480 e83f b680
00000170: b866 9e80 b0cf 3a80 a006 0380 f81c b901
00000180: e8fc 4c01 b8ee cd00 d092 3581 044f 2201
00000190: 30d8 a280 8643 8981 c8c0 8d80 34d9 1001
000001a0: 50ee 4d00 54c8 2d81 a442 5501 206e 3b80
000001b0: 9284 9681 c8d5 2681 5862 a501 40ea 0380
000001c0: e4f2 7481 f0e4 9780 64be 0100 6806 8a81
000001d0: 1815 1d01 c048 8381 4090 8800 1042 ba01
000001e0: df94 be01 12e4 9101 2863 b580 ecc1 a681
000001f0: 0655 af01 c0cb 0c81 e8a2 1781 e0e9 9180

conv2.lin.weight f4 [128, 128]
9.7994e-41 4.1115e-41 8.4497e-41 9.669e-42 1.45057e-40 -6.7423e-41 4.5237e-41 2.4052e-41
7.3776e-41 -6.5606e-41 4.5803e-41 -1.9992e-41 7.8914e-41 -6.02e-42 1.18792e-40 2.2397e-41
-9.5517e-41 -3.2107e-41 7.397e-41 -5.2787e-41 -1.1679e-40 9.1997e-41 -5.9838e-41 7.616e-42
4.46e-43 -2.733e-41 -1.1419e-41 -2.0951e-41 -1.321e-40 5.1508e-41 3.3655e-41 -8.7306e-41
1.28344e-40 2.8942e-41 -9.0794e-41 2.409e-41 3.1142e-41 -7.7088e-41 7.9468e-41 -6.096e-42
6.6863e-41 1.32447e-40 -1.24709e-40 7.8795e-41 -1.0217e-41 8.5789e-41 -1.00148e-40 2.1698e-41
-9.9768e-41 6.1214e-41 -2.8546e-41 2.4575e-41 3.2052e-41 -7.1735e-41 -6.9112e-41 1.06642e-40
-1.02595e-40 2.3999e-41 -1.6178e-41 1.6649e-41 1.4459e-41 1.223e-41 -4.18e-42 7.1194e-41
-1.867e-42 -4.5055e-41 2.3598e-41 1.34096e-40 -5.987e-41 7.4674e-41 2.6482e-41 -2.1063e-41
-4.18e-41 -1.41869e-40 1.7324e-41 -4.8883e-41 1.09383e-40 8.1826e-41 2.4318e-41 1.29865e-40
1.19145e-40 3.9587e-41 3.807e-42 6.2e-41 9.0716e-41 -1.22862e-40 1.2006e-40 7.7495e-41
-9.19e-41 1.45331e-40 -7.8249e-41 8.4458e-41 2.4706e-41 6.9497e-41 -7.1105e-41 -7.101e-41
1.23637e-40 -1.775e-42 -3.81e-43 4.6735e-41 7.8721e-41 -1.01957e-40 2.4363e-41 3.4686e-41
2.698e-41 6.5508e-41 3.4472e-41 2.9132e-41 -2.8302e-41 7.8823e-41 8.5422e-41 5.901e-42
4.7155e-41 -5.4204e-41 4.755e-41 -3.6271e-41 4.022e-42 -7.772e-41 2.6583e-41 2.8732e-41
-9.594e-41 -6.823e-42 7.0631e-41 1.0639e-41 -2.5848e-41 1.612e-41 7.5517e-41 -5.7387e-41
-8.8935e-41 6.6639e-41 5.8255e-41 -9.436e-41 -3.6025e-41 1.0411e-40 -2.2925e-41 -1.785e-42
-7.3387e-41 5.1309e-41 1.1632e-41 -1.05514e-40 4.2154e-41 -1.27536e-40 2.5797e-41 9.9073e-41
-8.447e-42 5.9282e-41 -7.661e-42 -2.7757e-41 4.7588e-41 -1.04345e-40 1.18796e-40 3.2887e-41
1.2256e-41 1.21291e-40 -4.0621e-41 -3.632e-42 1.19437e-40 1.8092e-41 -7.1122e-41 -3.6354e-41
-1.3007e-40 -3.6938e-41 4.3983e-41 -9.656e-42 -4.6089e-41 -3.552e-41 -2.2746e-41 5.955e-41
-4.4473e-41 7.6252e-41 1.24929e-40 9.9936e-41 -2.0979e-41 5.0808e-41 -1.01136e-40 -7.8648e-41
-6.6901e-41 3.8995e-41 -3.848e-42 9.196e-41 4.4983e-41 -9.8863e-41 3.4902e-41 2.1045e-41
1.2445e-41 -6.8581e-41 -4.314e-41 -9.261e-42 4.9743e-41 1.33618e-40 7.1166e-41 -1.28074e-40
-5.3247e-41 6.024e-42 -2.0456e-41 3.3527e-41 6.3089e-41 1.6988e-41 1.28493e-40 1.843e-42
1.8196e-41 -2.367e-42 -2.0777e-41 -5.1372e-41 -4.9155e-41 1.9772e-41 -7.4628e-41 -1.8455e-41
-8.1571e-41 -9.32e-41 -7.4308e-41 -3.7304e-41 -4e-42 -5.7712e-41 -2.871e-41 3.6242e-41
-8.5838e-41 3.7668e-41 4.8408e-41 -4.4924e-41 -5.6287e-41 -2.0376e-41 -3.6245e-41 -1.831e-41
9.6998e-41 1.17778e-40 1.29167e-40 4.597e-41 -4.0793e-41 2.6801e-41 6.2021e-41 -5.7728e-41
-2.7865e-41 -4.1212e-41 -1.7598e-41 7.399e-41 -2.493e-41 2.3662e-41 1.4918e-40 -4.31e-42
6.274e-42 1.06424e-40 -5.8246e-41 -1.0162e-41 -5.32e-41 7.4332e-41 4.5146e-41 -2.287e-41
-4.5682e-41 2.0629e-41 -1.9662e-41 4.7297e-41 -2.666e-41 4.5175e-41 -1.16983e-40 -1.43237e-40
00000000: 2b11 0100 9d72 0000 8beb 0000 f41a 0000
00000010: 5c94 0100 f3bb 0080 1a7e 0000 0c43 0000
00000020: a8cd 0000 e2b6 0080 ae7f 0000 bb37 0080
00000030: fbdb 0000 c810 0080 254b 0100 6f3e 0000
00000040: 430a 0180 8059 0080 33ce 0000 2693 0080
00000050: 9045 0180 7300 0100 cea6 0080 3b15 0000
00000060: 3e01 0000 2f4c 0080 d51f 0080 673a 0080
00000070: 3e70 0180 958f 0000 d15d 0000 60f3 0080
00000080: c565 0100 ae50 0000 19fd 0080 2743 0000
00000090: d056 0000 e4d6 0080 86dd 0000 fe10 0080
000000a0: 63ba 0000 3571 0100 a35b 0180 a6db 0000
000000b0: 7b1c 0080 25ef 0000 2c17 0180 7c3c 0000
000000c0: 1d16 0180 a4aa 0000 934f 0080 8144 0000
000000d0: 5959 0000 f8c7 0080 a8c0 0080 4629 0100
000000e0: fe1d 0180 e642 0000 192d 0080 692e 0000
000000f0: 4e28 0000 1822 0000 a70b 0080 76c6 0000
00000100: 3405 0080 987d 0080 c841 0000 ce75 0100
00000110: e5a6 0080 29d0 0000 d249 0000 b73a 0080
00000120: 8574 0080 798b 0180 4b30 0000 4488 0080
00000130: ea30 0100 19e4 0000 ca43 0000 036a 0100
00000140: 214c 0100 5a6e 0000 9d0a 0000 d5ac 0000
00000150: e1fc 0000 7d56 0180 ae4e 0100 06d8 0000
00000160: 2e00 0180 2095 0100 20da 0080 6feb 0000
00000170: df44 0000 bbc1 0000 36c6 0080 f2c5 0080
00000180: a658 0100 f304 0080 1001 0080 4782 0000
00000190: 71db 0000 371c 0180 ea43 0000 b160 0000
000001a0: 364b 0000 9cb6 0000 1860 0000 3551 0000
000001b0: e54e 0080 badb 0000 1fee 0000 7310 0000
000001c0: 7383 0000 1997 0080 8d84 0000 1c65 0080
000001d0: 360b 0000 a7d8 0080 1a4a 0000 1850 0000
000001e0: 710b 0180 0513 0080 e4c4 0000 a81d 0000
000001f0: 0e48 0080 f02c 0000 83d2 0000 f99f 0080
00000200: eaf7 0080 c3b9 0000 64a2 0000 0a07 0180
00000210: 6c64 0080 3722 0100 e83f 0080 fa04 0080
00000220: 93cc 0080 078f 0000 6d20 0000 2126 0180
00000230: 8275 0000 8563 0180 e947 0000 2d14 0100
00000240: 8c17 0080 41a5 0000 5b15 0080 604d 0080
00000250: a884 0000 df22 0180 284b 0100 ad5b 0000
00000260: 2a22 0000 1c52 0100 3c71 0080 200a 0080
00000270: f14c 0100 6f32 0000 42c6 0080 5765 0080
00000280: 956a 0180 f866 0080 9b7a 0000 eb1a 0080
00000290: 7a80 0080 0463 0080 683f 0080 00a6 0000
000002a0: f97b 0080 8fd4 0000 405c 0100 9516 0100
000002b0: 7b3a 0080 a28d 0000 ed19 0180 3ddb 0080
000002c0: 7eba 0080 b46c 0000 ba0a 0080 5900 0100
000002d0: 657d 0000 9713 0180 4b61 0000 aa3a 0000
000002e0: b122 0000 2dbf 0080 4278 0080 d119 0080
000002f0: aa8a 0000 7974 0100 62c6 0000 0565 0180
00000300: 6e94 0080 cb10 0000 0639 0080 765d 0000
00000310: deaf 0000 5b2f 0000 3066 0100 2305 0000
00000320: b932 0000 9906 0080 eb39 0080 348f 0080
00000330: 0689 0080 1e37 0000 08d0 0080 7233 0080
00000340: 63e3 0080 ce03 0180 24cf 0080 fd67 0080
00000350: 260b 0080 e1a0 0080 0850 0080 0765 0000
00000360: 48ef 0080 0169 0000 f186 0000 3b7d 0080
00000370: e89c 0080 cd38 0080 0965 0080 0a33 0080
00000380: 640e 0100 5148 0100 1168 0100 2580 0000
00000390: b771 0080 b64a 0000 e4ac 0000 eca0 0080
000003a0: ad4d 0080 e272 0080 0e31 0080 41ce 0000
000003b0: 7f45 0080 f641 0000 da9f 0100 040c 0080
000003c0: 7d11 0000 ab28 0100 5ea2 0080 541c 0080
000003d0: 4d94 0080 35cf 0000 d97d 0000 c13f 0080
000003e0: 587f 0080 8139 0000 cf36 0080 d883 0000
000003f0: 514a 0080 ee7d 0000 1a46 0180 498f 0180

bn2.module.weight f4 [128]
-1.08116e-40 1.24591e-40 8.164e-42 8.762e-42 1.18825e-40 -9.972e-42 -8.595e-41 -3.836e-41
1.16271e-40 -6.6654e-41 -8.8847e-41 9.945e-41 -4.5656e-41 -2.4727e-41 -4.086e-42 9.8686e-41
1.6705e-41 1.31663e-40 -5.553e-42 1.0705e-41 -4.7842e-41 5.6891e-41 -6.711e-42 6.2391e-41
2.0937e-41 -4.2389e-41 -1.36606e-40 -6.9248e-41 1.3039e-41 1.9038e-41 -4.6383e-41 -7.6732e-41
6.2463e-41 7.8344e-41 4.2419e-41 -5.1332e-41 -4.1113e-41 -6.2068e-41 -5.296e-42 5.4984e-41
5.4016e-41 7.202e-41 -7.7817e-41 6.0322e-41 -1.4155e-41 1.34069e-40 6.346e-42 1.0717e-41
5.1177e-41 2.4603e-41 -1.9781e-41 5.7006e-41 -1.21401e-40 1.1383e-41 -8.39e-42 -1.32395e-40
4.7192e-41 4.7215e-41 -4.019e-42 1.23002e-40 -2.502e-41 -7.9995e-41 -9.0906e-41 6.1818e-41
-5.522e-41 4.32e-43 3.3048e-41 -2.2194e-41 -7.9278e-41 6.848e-42 2.978e-42 -1.2926e-40
5.745e-41 6.5717e-41 -5.1858e-41 6.3992e-41 -1.2364e-41 4.5429e-41 -3e-42 2.3002e-41
2.098e-41 7.6413e-41 3.6631e-41 1.4093e-41 1.7411e-40 4.8617e-41 -8.1742e-41 -1.2912e-41
-2.6978e-41 8.1095e-41 1.2575e-40 -5.2871e-41 6.3088e-41 4.6967e-41 2.4102e-41 3.1814e-41
9.8162e-41 1.9222e-41 -7.615e-42 1.73e-41 2.8487e-41 1.3273e-41 -7.9294e-41 4.246e-41
5.131e-41 3.7116e-41 5.4429e-41 -2.7103e-41 5.451e-41 1.303e-40 2.8802e-41 -3.3041e-41
-3.8449e-41 3.0708e-41 5.48e-42 -3.3868e-41 -6.771e-41 -1.29804e-40 5.834e-42 -3.631e-41
-8.048e-41 8.183e-41 -6.6286e-41 7.9074e-41 7.7998e-41 -3.9524e-41 3.1402e-41 4.2186e-41
00000000: 622d 0180 4f5b 0100 c216 0000 6d18 0000
00000010: 3c4b 0100 cc1b 0080 98ef 0080 ef6a 0080
00000020: 1e44 0100 ceb9 0080 abf7 0080 3a15 0100
00000030: 457f 0080 ee44 0080 640b 0080 1913 0100
00000040: 912e 0000 066f 0100 7b0f 0080 d71d 0000
00000050: 5d85 0080 979e 0000 b512 0080 ecad 0000
00000060: 5d3a 0000 2a76 0080 cd7c 0180 09c1 0080
00000070: 5924 0000 1235 0000 4c81 0080 e6d5 0080
00000080: 1fae 0000 64da 0000 3f76 0000 188f 0080
00000090: 9b72 0080 05ad 0080 c30e 0080 4699 0000
000000a0: 9396 0000 c3c8 0000 ecd8 0080 27a8 0000
000000b0: 7527 0080 bb75 0100 b111 0000 e01d 0000
000000c0: a98e 0000 9544 0000 2437 0080 e99e 0000
000000d0: 6b52 0180 bb1f 0000 6317 0080 1071 0180
000000e0: 8d83 0000 9e83 0000 340b 0080 e156 0100
000000f0: bf45 0080 fede 0080 69fd 0080 53ac 0000
00000100: ee99 0080 3401 0000 205c 0000 de3d 0080
00000110: ffdc 0080 1713 0000 4d08 0000 5368 0180
00000120: 26a0 0000 31b7 0000 8f90 0080 62b2 0000
00000130: 7722 0080 a37e 0000 5d08 0080 1f40 0000
00000140: 7c3a 0000 02d5 0000 1d66 0000 4927 0000
00000150: 59e5 0100 8687 0000 dde3 0080 fe23 0080
00000160: 344b 0080 0fe2 0000 8a5e 0100 6293 0080
00000170: ddaf 0000 ed82 0000 3043 0000 af58 0000
00000180: a311 0100 9535 0000 3a15 0080 3a30 0000
00000190: 694f 0000 0025 0000 0add 0080 5c76 0000
000001a0: 088f 0000 7767 0000 ba97 0000 8d4b 0080
000001b0: f497 0000 396b 0100 4a50 0000 1b5c 0080
000001c0: 2e6b 0080 9a55 0000 470f 0000 695e 0080
000001d0: bfbc 0080 d769 0180 4310 0000 3865 0080
000001e0: 58e0 0080 1ce4 0000 c7b8 0080 6ddc 0000
000001f0: 6dd9 0000 2d6e 0080 8957 0000 9975 0000

bn2.module.bias f4 [128]
-5.1257e-41 -1.38394e-40 -6.9011e-41 5.2605e-41 -3.378e-41 -1.37168e-40 -1.41957e-40 1.04369e-40
-8.328e-42 -2.3766e-41 -1.319e-42 -4.6886e-41 -1.6153e-41 3.8026e-41 -8.6041e-41 2.435e-42
5.3024e-41 -7.071e-41 -1.21389e-40 6.6665e-41 -2.2356e-41 5.172e-42 -9.5368e-41 -5.4323e-41
-3.5268e-41 3.1232e-41 4.6192e-41 -5.9775e-41 1.966e-41 2.825e-41 2.6515e-41 -2.4046e-41
6.9444e-41 -4.155e-42 -4.83e-41 4.984e-41 -9.56e-42 -5.1524e-41 -6.2698e-41 8.6194e-41
1.22035e-40 1.03325e-40 -1.34983e-40 9.6608e-41 6.3711e-41 -2.9035e-41 -3.625e-41 -1.52705e-40
4.6396e-41 -2.8675e-41 -9.893e-41 9.1402e-41 8.182e-42 -1.732e-42 -9.6758e-41 1.2917e-41
9.125e-42 -1.47058e-40 -1.3151e-41 3.9892e-41 1.25461e-40 -9.3254e-41 -7.4311e-41 -2.6015e-41
-2.5717e-41 1.7551e-41 -6.116e-41 7.4298e-41 -7.3896e-41 -8.6263e-41 -3.3411e-41 -1.29849e-40
3.5187e-41 1.11892e-40 1.32676e-40 6.9091e-41 -5.891e-41 4.7854e-41 6.3894e-41 -3.413e-41
-1.2224e-40 2.0382e-41 -2.5094e-41 7.5816e-41 -1.42516e-40 1.00737e-40 -1.5109e-41 -1.1734e-41
-1.03255e-40 -5.1778e-41 -1.0304e-41 2.9195e-41 -1.28746e-40 -1.13466e-40 1.52069e-40 -4.209e-41
9.3087e-41 7.2932e-41 -1.9627e-41 -2.7813e-41 -1.0057e-41 1.14176e-40 1.9372e-41 -5.4512e-41
7.6051e-41 -5.04e-42 -3.1714e-41 -4.8066e-41 -7.3075e-41 -1.3672e-41 -2.2146e-41 1.7516e-41
-2.9385e-41 -5.429e-41 -3.5977e-41 -1.48769e-40 -3.2415e-41 7.3535e-41 -1.0674e-41 -2.611e-41
-4.752e-42 1.64e-42 -1.28523e-40 3.7036e-41 -9.859e-41 -5.6646e-41 9.3869e-41 1.22803e-40
00000000: e28e 0080 c981 0180 60c0 0080 a492 0000
00000010: 2a5e 0080 5e7e 0180 b88b 0180 f022 0100
00000020: 3717 0080 4042 0080 ad03 0080 b382 0080
00000030: 072d 0080 006a 0000 d9ef 0080 ca06 0000
00000040: cf93 0000 1cc5 0080 6252 0180 d6b9 0000
00000050: 523e 0080 6b0e 0000 d909 0180 6e97 0080
00000060: 5062 0080 1057 0000 c480 0000 a1a6 0080
00000070: ce36 0000 c04e 0000 ea49 0000 0843 0080
00000080: 95c1 0000 950b 0080 a486 0080 ef8a 0000
00000090: a61a 0080 a18f 0080 c7ae 0080 46f0 0000
000000a0: 2f54 0100 0720 0100 4778 0180 4e0d 0100
000000b0: 9ab1 0000 f050 0080 0d65 0080 aea9 0180
000000c0: 5581 0000 ef4f 0080 c713 0180 cbfe 0000
000000d0: cf16 0000 d404 0080 b90d 0180 0224 0000
000000e0: 7019 0000 f099 0180 a924 0080 346f 0000
000000f0: bc5d 0100 f403 0180 26cf 0080 8548 0080
00000100: b047 0080 ed30 0000 7daa 0080 1dcf 0000
00000110: fecd 0080 77f0 0080 235d 0080 f769 0180
00000120: 1662 0000 e937 0100 d971 0100 99c0 0000
00000130: 38a4 0080 6685 0000 1cb2 0000 245f 0080
00000140: c154 0180 d138 0000 f445 0080 58d3 0000
00000150: 478d 0180 d018 0100 1e2a 0080 b620 0080
00000160: d51f 0180 5690 0080 b91c 0080 6251 0000
00000170: e466 0180 4c3c 0180 e8a7 0100 5475 0080
00000180: 7d03 0100 4ecb 0000 b636 0080 884d 0080
00000190: 091c 0080 473e 0100 0036 0000 f597 0080
000001a0: 00d4 0000 0d0e 0080 6858 0080 fd85 0080
000001b0: b4cb 0080 1d26 0080 bc3d 0080 d430 0000
000001c0: ea51 0080 5797 0080 4a64 0080 b59e 0180
000001d0: 5c5a 0080 fccc 0000 c11d 0080 c948 0080
000001e0: 3f0d 0080 9204 0000 4566 0180 3e67 0000
000001f0: d412 0180 e89d 0080 ab05 0100 5356 0100

bn2.module.running_mean f4 [128]
4.9768326e-38 -3.111049e-38 -1.237564e-39 -2.6402854e-38 -6.473176e-38 4.278411e-38 -3.478293e-38 1.8973346e-38
-1.1908506e-38 -6.2298277e-38 -1.5528843e-38 1.31228e-39 -2.8915273e-38 -5.6202287e-38 -5.1322063e-38 6.272292e-38
4.9760254e-38 -1.28138e-38 -5.571502e-38 -3.2019e-40 3.706743e-38 -9.252203e-39 -4.4435914e-38 5.241469e-38
-1.278678e-39 3.1440323e-38 5.662665e-38 -7.901226e-39 7.158007e-38 -4.178235e-38 -6.9543595e-38 -2.9671688e-38
1.3327248e-38 2.04329e-40 4.4076834e-38 5.8483483e-38 -9.040987e-39 2.5223725e-38 -3.723172e-38 -1.7117089e-38
-6.5677587e-38 -2.6846253e-38 4.6398674e-38 3.4787133e-38 2.4348727e-38 -6.835659e-38 -4.0587444e-38 -5.244401e-38
4.5957304e-38 -3.016901e-38 -3.1052275e-38 -4.711763e-38 -3.5881262e-38 4.3595208e-38 -2.6930555e-38 5.796904e-38
-3.3052012e-38 5.307594e-38 -7.112347e-38 -3.375495e-39 -5.137841e-38 -6.475435e-38 -1.8952748e-38 2.20254e-38
-1.3348939e-38 1.7744002e-38 9.609466e-39 -5.8445143e-38 6.4625385e-38 6.507967e-38 5.5715363e-38 5.1176664e-38
-3.7816365e-38 4.94379e-38 -1.3611951e-38 5.2950204e-38 1.5096148e-38 -1.0276679e-38 6.2409865e-38 -2.1327177e-38
2.656496e-38 2.070368e-39 5.235994e-38 2.4377047e-38 3.1572605e-38 3.4168152e-38 1.1044911e-38 1.4380339e-38
1.3956839e-38 -3.71884e-40 -4.04786e-40 -1.6736998e-38 -1.4546856e-38 -5.400962e-39 -2.7787e-40 6.799982e-38
3.765034e-38 1.8911888e-38 -3.3349788e-38 2.9811347e-38 -1.49549e-38 -5.0422676e-38 -1.3017967e-38 2.660442e-38
7.156815e-39 -3.191881e-38 3.916969e-38 -5.457798e-39 -5.5291493e-38 -3.0642785e-38 6.0752527e-38 -3.59538e-40
-4.4990004e-38 -1.3949297e-38 1.60133e-40 -5.0702403e-38 2.8851457e-38 -4.822617e-38 1.2541359e-38 6.842033e-38
7.000856e-38 5.3591785e-38 -1.6657786e-38 -6.1257045e-38 6.440678e-38 -2.5860128e-38 -2.7851205e-38 -1.3400058e-38
00000000: 767b 8701 b261 2981 d379 0d80 35c0 0f81
00000010: 7437 b081 59f0 6801 5460 3d81 f899 ce00
00000020: 12ac 8180 9097 a981 1918 a980 1a4a 0e00
00000030: 026e 1d81 47ff 9881 42b6 8b81 7fbf aa01
00000040: d675 8701 a987 8b80 b4ab 9781 8f7c 0380
00000050: 75d0 4901 61bf 6480 a0ee 7181 b5af 8e01
00000060: 6fec 0d80 6a2d 2b01 0427 9a01 6709 5680
00000070: 07dc c201 197c 6381 d050 bd81 4c8c 2181
00000080: f21e 9100 9639 0200 24fa 6f01 0a35 9f01
00000090: 9872 6280 be54 0901 72b5 4a81 7b63 ba80
000000a0: 99ca b281 372a 1281 509e 7c01 3066 3d01
000000b0: 2c91 0401 9715 ba81 a4fa 5c81 24c4 8e81
000000c0: 2237 7a01 7641 2481 8e10 2981 3244 8081
000000d0: 2e5b 4381 da5a 6d01 b79f 1281 86ce 9d01
000000e0: c8f3 3381 887c 9001 d39d c181 82c1 2480
000000f0: 87dd 8b81 3247 b081 8d60 ce80 dbd5 ef00
00000100: 695b 9180 0f37 c100 48a3 6800 521a 9f81
00000110: 52ed af01 e929 b101 f1ab 9701 ee50 8b01
00000120: 52e4 4d81 3095 8601 9538 9480 e824 9001
00000130: eb61 a400 33e7 6f80 54e5 a901 7e3b e880
00000140: 26a2 1001 588b 1600 8d89 8e01 a5b8 0401
00000150: cae5 2b01 7407 3a01 b844 7800 8996 9c00
00000160: fdf9 9700 a90c 0480 6168 0480 f13f b680
00000170: b766 9e80 afcf 3a80 9706 0380 f51c b901
00000180: eafc 4c01 a6ee cd00 d292 3581 f44e 2201
00000190: 2dd8 a280 7a43 8981 ccc0 8d80 26d9 1001
000001a0: 4aee 4d00 54c8 2d81 9442 5501 1f6e 3b80
000001b0: 8c84 9681 cfd5 2681 5562 a501 3fea 0380
000001c0: eaf2 7481 f7e4 9780 63be 0100 6b06 8a81
000001d0: 1015 1d01 bc48 8381 3590 8800 0342 ba01
000001e0: d894 be01 06e4 9101 2163 b580 eec1 a681
000001f0: fa54 af01 c2cb 0c81 eaa2 1781 e9e9 9180

bn2.module.running_var f4 [128]
6e-45 6e-45 6e-45 6e-45 6e-45 6e-45 6e-45 6e-45
6e-45 6e-45 6e-45 6e-45 6e-45 6e-45 6e-45 6e-45
6e-45 6e-45 6e-45 6e-45 6e-45 6e-45 6e-45 6e-45
6e-45 6e-45 6e-45 6e-45 6e-45 6e-45 6e-45 6e-45
6e-45 6e-45 6e-45 6e-45 6e-45 6e-45 6e-45 6e-45
6e-45 6e-45 6e-45 6e-45 6e-45 6e-45 6e-45 6e-45
6e-45 6e-45 6e-45 6e-45 6e-45 6e-45 6e-45 6e-45
6e-45 6e-45 6e-45 6e-45 6e-45 6e-45 6e-45 6e-45
6e-45 6e-45 6e-45 6e-45 6e-45 6e-45 6e-45 6e-45
6e-45 6e-45 6e-45 6e-45 6e-45 6e-45 6e-45 6e-45
6e-45 6e-45 6e-45 6e-45 6e-45 6e-45 6e-45 6e-45
6e-45 6e-45 6e-45 6e-45 6e-45 6e-45 6e-45 6e-45
6e-45 6e-45 6e-45 6e-45 6e-45 6e-45 6e-45 6e-45
6e-45 6e-45 6e-45 6e-45 6e-45 6e-45 6e-45 6e-45
6e-45 6e-45 6e-45 6e-45 6e-45 6e-45 6e-45 6e-45
6e-45 6e-45 6e-45 6e-45 6e-45 6e-45 6e-45 6e-45
00000000: 0400 0000 0400 0000 0400 0000 0400 0000
00000010: 0400 0000 0400 0000 0400 0000 0400 0000
00000020: 0400 0000 0400 0000 0400 0000 0400 0000
00000030: 0400 0000 0400 0000 0400 0000 0400 0000
00000040: 0400 0000 0400 0000 0400 0000 0400 0000
00000050: 0400 0000 0400 0000 0400 0000 0400 0000
00000060: 0400 0000 0400 0000 0400 0000 0400 0000
00000070: 0400 0000 0400 0000 0400 0000 0400 0000
00000080: 0400 0000 0400 0000 0400 0000 0400 0000
00000090: 0400 0000 0400 0000 0400 0000 0400 0000
000000a0: 0400 0000 0400 0000 0400 0000 0400 0000
000000b0: 0400 0000 0400 0000 0400 0000 0400 0000
000000c0: 0400 0000 0400 0000 0400 0000 0400 0000
000000d0: 0400 0000 0400 0000 0400 0000 0400 0000
000000e0: 0400 0000 0400 0000 0400 0000 0400 0000
000000f0: 0400 0000 0400 0000 0400 0000 0400 0000
00000100: 0400 0000 0400 0000 0400 0000 0400 0000
00000110: 0400 0000 0400 0000 0400 0000 0400 0000
00000120: 0400 0000 0400 0000 0400 0000 0400 0000
00000130: 0400 0000 0400 0000 0400 0000 0400 0000
00000140: 0400 0000 0400 0000 0400 0000 0400 0000
00000150: 0400 0000 0400 0000 0400 0000 0400 0000
00000160: 0400 0000 0400 0000 0400 0000 0400 0000
00000170: 0400 0000 0400 0000 0400 0000 0400 0000
00000180: 0400 0000 0400 0000 0400 0000 0400 0000
00000190: 0400 0000 0400 0000 0400 0000 0400 0000
000001a0: 0400 0000 0400 0000 0400 0000 0400 0000
000001b0: 0400 0000 0400 0000 0400 0000 0400 0000
000001c0: 0400 0000 0400 0000 0400 0000 0400 0000
000001d0: 0400 0000 0400 0000 0400 0000 0400 0000
000001e0: 0400 0000 0400 0000 0400 0000 0400 0000
000001f0: 0400 0000 0400 0000 0400 0000 0400 0000

conv3.bias f4 [128]
-5.32887e-38 -4.1439893e-38 2.6567868e-38 -4.975754e-38 5.762934e-38 1.6075505e-38 -4.385294e-38 -5.5488964e-38
-3.0405363e-38 2.5720822e-38 -2.3705632e-38 -2.818992e-38 -5.009864e-38 -6.0910285e-38 -5.0151474e-38 1.1160311e-38
3.3142682e-38 -5.05019e-39 -1.0257897e-38 -6.14974e-40 1.2701347e-38 -3.575375e-38 3.0672686e-38 -6.08129e-38
4.5987118e-38 -3.6726564e-38 -2.126173e-39 -4.1904295e-38 -1.2127498e-38 3.0900425e-38 -3.686083e-38 1.4698489e-38
4.22895e-40 -4.3866404e-38 -4.488964e-39 -6.0843695e-38 4.2800834e-38 6.901228e-38 -4.037115e-38 4.720367e-38
5.1013643e-38 -5.13722e-40 -6.001139e-38 3.6727652e-38 2.1442075e-38 3.3871e-40 1.9840279e-38 -3.303533e-38
6.9535625e-38 4.539179e-38 -4.103882e-38 9.64572e-39 -6.5498787e-38 2.1852016e-38 3.043932e-38 -6.284114e-38
-3.432284e-39 -4.1127168e-38 -9.8248e-41 2.0525648e-38 -3.275978e-38 6.079022e-38 -1.0937011e-38 -5.0333856e-38
1.9850413e-38 5.627385e-38 -4.7872604e-38 -2.4613751e-38 3.5543622e-38 4.2337038e-38 -7.010166e-38 4.7372094e-38
-1.453679e-38 4.002513e-38 1.4126467e-38 -5.680421e-38 -4.5782013e-38 5.9869e-41 1.206981e-38 4.5941077e-38
-4.105208e-38 5.965641e-39 3.1231367e-38 -1.55693e-38 6.493303e-38 -3.872754e-38 -6.735705e-39 -6.374221e-38
3.5004615e-38 3.6716721e-38 -4.0753246e-38 5.625471e-38 4.783031e-38 4.2722967e-38 -2.9970714e-38 -3.444248e-38
-7.1283694e-38 2.7222117e-38 1.966126e-38 6.1451455e-38 9.336627e-39 1.048878e-39 -5.4404056e-38 -1.9613728e-38
5.836241e-38 -5.923211e-38 1.0655799e-38 -6.1962985e-38 -2.7569337e-38 -9.201206e-39 -3.2939964e-38 4.8671625e-38
-3.7960862e-38 4.1063695e-38 3.6071227e-38 6.7856533e-38 3.8047574e-38 1.0378543e-38 -2.263402e-38 3.8849386e-38
5.63904e-38 -3.626251e-38 4.963307e-38 -4.662815e-38 -3.5513242e-38 -1.293061e-38 2.3417614e-38 1.868491e-39
00000000: ce10 9181 c89e 6181 34a6 1001 f273 8781
00000010: cae1 9c01 f80b af00 14c2 6e81 2a0e 9781
00000020: e48a 2581 9809 0c01 d410 0181 047b 1981
00000030: a861 8881 46d0 a581 7a86 8881 6886 7900
00000040: 2872 3401 e0fd 3680 d8b2 6f80 4cb2 0680
00000050: 304e 8a00 74a9 4281 7cff 2601 688c a581
00000060: b060 7a01 5cf5 4781 e826 1780 1026 6481
00000070: 880e 8480 e83c 2801 80b0 4881 680d a000
00000080: dc9a 0400 d8d4 6e81 68e1 3080 dea1 a581
00000090: a807 6901 8ade bb01 2ccd 5b81 2880 8001
000000a0: 52df 8a01 0c98 0580 d65d a381 e0f6 4701
000000b0: c87b e900 30b0 0300 a00a d800 88dc 3381
000000c0: 424b bd01 ec22 7701 c46f 5f81 5808 6900
000000d0: fe4d b281 88f2 ed00 38ba 2501 e211 ab81
000000e0: d05f 2580 e8ea 5f81 e011 0180 2881 df00
000000f0: 785c 3281 9a7c a501 f017 7780 9405 8981
00000100: e026 d800 2631 9901 5652 8281 9002 0681
00000110: 9484 4101 3881 6601 bad5 be81 88f5 8001
00000120: a84a 9e80 e4ea 5901 d8d2 9900 c2a2 9a81
00000130: d042 7981 e4a6 0000 b86d 8300 8420 7a01
00000140: 4082 5f81 c8f5 4000 2c0a 2a01 e088 a980
00000150: b8c3 b001 50da 5281 6858 4980 d685 ad81
00000160: 5095 3e01 a4e7 4701 bce1 5d81 d023 9901
00000170: dc34 8201 209b 6801 142d 2381 d085 3b81
00000180: 7c0d c281 1836 1401 9817 d600 6a49 a701
00000190: b8aa 6500 d86b 0b00 181a 9481 1893 d580
000001a0: aae0 9e01 c23e a181 0808 7400 e6ad a881
000001b0: 0c1a 1681 3831 6480 9c57 3381 2c7f 8401
000001c0: b8ad 4e81 7092 5f01 f463 4401 1ab9 b801
000001d0: 9426 4f01 2803 7100 7076 f680 2484 5301
000001e0: 6082 9901 906e 4581 341d 8701 28de 7d81
000001f0: 3c5a 4181 48cd 8c80 c8fe fe00 9858 1400
