pose_gcn_dropout_model.pt (torch, 7838 bytes, 6 tensors)

conv1.bias f4 [32]
00000000: 84d2 89b1 516e 7c32 e2d8 e2b3 9192 7030
00000010: 9f70 0080 9ecb 9132 ce4a a2ae b526 0180
00000020: 2b3e 0080 5120 0080 812f 0080 bc95 71b4
00000030: 7b90 0180 eff3 de2d 5427 98b0 0e12 0180
00000040: 2a6c 55ab da9e 0180 1b7c ed31 0849 0080
00000050: 0ed2 cfb5 230e 13af 8118 83b3 4f96 0080
00000060: 221c 4db0 d466 14af 1c2f 0080 a257 0080
00000070: 9189 ed2e e2ef 0080 cd7d 0080 7ccc d3ad
-4.0111576e-09 1.4693414e-08 -1.0563396e-07 8.7519775e-10 -4.0401e-41 1.6972816e-08 -7.380195e-11 -1.05721e-40
-2.2302e-41 -1.1593e-41 -1.7041e-41 -2.2499347e-07 -1.43665e-40 2.5346806e-11 -1.1070633e-09 -9.8312e-41
-7.582291e-13 -1.4882e-40 6.911717e-09 -2.6199e-41 -1.5483836e-06 -1.3374594e-10 -6.10462e-08 -5.392e-41
-7.4618545e-10 -1.3497053e-10 -1.69e-41 -3.1437e-41 1.0801949e-10 -8.6054e-41 -4.5129e-41 -2.4078732e-11

conv1.lin.weight f4 [32, 2]
00000000: 8a1d 9630 6042 b1ae f684 bab1 60d9 7bb2
00000010: ba9e e8b3 50dc adb3 6448 482f 50fb 8baf
00000020: ad50 0000 120a 0180 b2f9 7cb2 4547 92b1
00000030: 93e2 9e2e 0173 a42e 333d 0080 ee4a 0080
00000040: 9ff3 0080 e635 0000 0bb9 0080 5def 0080
00000050: 725d 0080 1e31 0080 ba35 0934 a656 9733
00000060: 7235 0100 4833 0180 416f 6cad 5f63 39ae
00000070: 82a4 182f 8e15 ef2f 09b7 0080 60fd 0080
00000080: acf2 832b 1d8c b52a 2a94 0080 c135 0080
00000090: 19fb f7b2 5255 7832 bf23 0080 a6d9 0080
000000a0: f7c1 77b5 a025 59b5 e9f8 d52d 3367 832e
000000b0: 3b90 6bb3 2c80 09b2 e90e 0080 4f18 0080
000000c0: 62e3 9a30 f719 9d30 9eda 902f ecff f9ae
000000d0: a1ec 0080 4f7a 0080 947f 0080 1f6e 0080
000000e0: 12c5 35af cc35 07af 77a4 0180 dd35 0180
000000f0: 1220 0000 fd47 0080 0c3c 6ead e4ba 19ad
1.0922332e-09 -8.060819e-11 -5.4284284e-09 -1.4659548e-08 -1.0832214e-07 -8.096015e-08 1.8215612e-10 -2.546252e-10
2.8941e-41 -9.5448e-41 -1.4725105e-08 -4.2572617e-09 7.225256e-11 7.4782854e-11 -2.1954e-41 -2.688e-41
-8.7395e-41 1.9335e-41 -6.6381e-41 -8.5867e-41 -3.3522e-41 -1.762e-41 1.2778665e-07 7.047247e-08
1.11008e-40 -1.10232e-40 -1.343975e-11 -4.215239e-11 1.3882764e-10 4.3489162e-10 -6.566e-41 -9.0894e-41
9.375465e-13 3.2249282e-13 -5.3151e-41 -1.9283e-41 -2.886877e-08 1.44548995e-08 -1.2823e-41 -7.8078e-41
-9.2296926e-07 -8.089355e-07 2.4325835e-11 5.975522e-11 -5.4846378e-08 -8.0035925e-09 -5.349e-42 -8.72e-42
1.1269601e-09 1.1430633e-09 2.6348784e-10 -1.136867e-10 -8.4886e-41 -4.3876e-41 -4.5766e-41 -3.9504e-41
-1.6531868e-10 -1.2297291e-10 -1.50834e-40 -1.11158e-40 1.1505e-41 -2.5825e-41 -1.3542067e-11 -8.738541e-12

conv2.bias f4 [32]
00000000: 5604 10b2 b161 01b1 ca7d 48b5 01ad e8b5
00000010: a7a8 d1b4 8a65 fdb0 bb61 a7b0 335b aab1
00000020: 37c0 81bb c434 32ba 5e47 0dab 0ec8 61b1
00000030: 41c3 14af a6cd 1032 0640 1bb3 5e48 18af
00000040: 2d6d 59b1 782f fcae 0ec0 32b6 5d94 22b5
00000050: 2abc 35b3 1aa9 aab2 b818 06bb 0c1c 20b0
00000060: 6c9c d8b0 1602 2dba b6bb 9cb1 d344 57b3
00000070: ca0e 88ae 9366 14b0 01ef 2faf 96e1 2caf
-8.382889e-09 -1.8827502e-09 -7.4688853e-07 -1.7335698e-06 -3.9051994e-07 -1.8437032e-09 -1.2178626e-09 -4.9580193e-09
-0.0039596814 -0.0006798024 -5.0192305e-13 -3.2855527e-09 -1.352989e-10 8.428662e-09 -3.614698e-08 -1.385003e-10
-3.1639715e-09 -1.14680654e-10 -2.6635857e-06 -6.05656e-07 -4.231348e-08 -1.9867503e-08 -0.002046151 -5.824752e-10
-1.5760526e-09 -0.0006599737 -4.561538e-09 -5.0121184e-08 -6.187191e-11 -5.3987853e-10 -1.6001069e-10 -1.5723453e-10

conv2.lin.weight f4 [32, 32]
00000000: 04b6 1132 bd09 ae2d 38f4 0aa3 d12b 83ad
00000010: a908 0000 c4a1 2c24 2085 4aa0 244f 0000
00000020: 06e8 0000 ac70 0000 5ca0 e5ab e5f0 caa5
00000030: 5ea1 0080 84f7 573a 8470 c12e 154c 0080
00000040: 5455 3f1e df39 0000 0194 64b1 033c 0100
00000050: 68c1 a32d 8821 0f34 d747 97b7 5a5f 0080
00000060: 4a2a a327 229c 4f25 1efc 0080 131d 0080
00000070: f84c d433 1c70 0180 a077 0000 a51c d318
00000080: 8166 c12f cdb4 d5b5 85c6 379d b2ee 8faf
00000090: 3057 0000 6ca7 9fb5 f44b a6b7 2621 0180
000000a0: 011e 0100 9d6e 0000 8942 a72d a8ea 5f96
000000b0: 5855 0080 ac4f 4a9f b0bd 01b5 613d 0000
000000c0: 8419 0080 9717 0080 6028 6fb9 4a02 0080
000000d0: 1776 5638 26e1 8dae 3a2f 96b2 3c0c 0000
000000e0: b452 ff39 b003 b6b6 7b72 0180 288a 0080
000000f0: d70f a4ac d01b 0000 305d 0080 8d6b 019b
00000100: 4518 6ab7 cc7d cb19 0ed2 0036 b5f2 d5b8
00000110: 6a7f 0080 189e 8435 d820 6ab1 a54c 0100
00000120: f5dd 0080 cf71 0000 138d da38 9d4c a5ad
00000130: 2505 0080 229d cf98 6674 c4b7 e206 0000
00000140: c5a4 0100 4e4b 0080 b450 10b4 fb32 0180
00000150: 84bc ed21 60b4 27b9 ff76 95b2 b16d 0080
00000160: 80b1 c7b8 a484 299e 6dd1 0000 6526 0080
00000170: 4493 143a 41ed 0080 f0f1 0000 4440 27b2
00000180: ec94 ba31 321c c42f 022c 582d 88b7 d8b6
00000190: b91e 0080 220b 1eb8 18dd d430 fc70 0100
000001a0: 8ad6 0080 e595 0000 5c53 7d33 02a7 0cb3
000001b0: 0541 0000 0d45 92a8 148a 6f27 8eca 0080
000001c0: 10c0 4722 4f6c 0000 3034 d0ab d447 0000
000001d0: 5321 9725 de09 48b6 8856 a330 9275 0000
000001e0: f23f 392d eeb2 85b7 6188 0100 d7ff 0000
000001f0: bcc7 3436 041c 0180 f5c8 0080 b2a5 3bb0
00000200: 0c54 8634 56a3 e3b2 3291 9b24 5c47 15ad
00000210: e569 0080 4401 22ab 87ff 9f25 967b 0000
00000220: c1b1 0080 ba19 0100 37dd 15b5 6efe 2da3
00000230: 9434 0080 9231 5f25 b382 c8a5 f6d0 0000
00000240: f2cb ad22 3731 0000 7c55 1bae 1416 0100
00000250: 6597 18b9 bc30 9c23 485e 6ab6 4b38 0080
00000260: 0639 83a7 08cc efb6 66f0 0000 181e 0180
00000270: 1abb 5fb9 7e68 0100 b539 0080 bc71 0923
00000280: 5400 5aa5 f826 8aa6 a0f2 181f f483 e2a0
00000290: 782d 0180 3968 c9b8 63fd 883a e233 0180
000002a0: 8018 0100 145a 0180 300f e72c 9a89 43a4
000002b0: c49d 0100 ca09 9d20 a943 7b35 91d0 0000
000002c0: 1465 839f 3b03 0180 28da 57a7 1397 0000
000002d0: 6c67 2622 7715 5cba 2921 1128 ce7b 0080
000002e0: 2c97 1437 46db b924 916d 0080 463b 0080
000002f0: 67d7 c6a1 8ef7 0080 eb59 0180 2ad8 a036
00000300: 5490 e2aa 2d42 0080 187b 0000 547e 8e32
00000310: 173a 0080 a265 440f 5267 9297 9e64 0000
00000320: 7556 0100 5aa3 0000 d856 bf33 3add 0080
00000330: 48e2 0080 0841 ee0b e28d 26b3 2cb4 0000
00000340: 50fb 0000 295f 0080 9e75 5928 975e 0000
00000350: b94a 0100 527c 96ac 5131 a93a 1011 0080
00000360: d7d6 0580 22d7 8cad d4bb 0000 2a2d 0080
00000370: 7826 7036 087e 0080 90e8 0080 35b1 6b11
00000380: 16d6 b239 1e0b c034 ca40 f7a4 fce6 54ba
00000390: bff2 0080 9a47 b135 7361 01b9 0d20 0180
000003a0: d13e 0180 5668 0000 fe6f 1fb3 cac1 1336
000003b0: fd24 0100 f59d ea27 74b0 41b1 0a47 0180
000003c0: ea45 6638 4e75 0000 e0e0 34b1 241d 0180
000003d0: 67e8 e337 0a64 7e39 44d7 ca38 d679 0000
000003e0: b7f1 8635 262c 18b8 710d 0080 217b 0080
000003f0: fc40 b9b3 85af 0000 f81b b037 ac13 49b4
8.481496e-09 1.9785834e-11 -7.53271e-18 -1.4912434e-11 3.107e-42 3.7433576e-17 -1.7154113e-19 2.839e-41
8.3234e-41 4.0419e-41 -1.6315937e-12 -3.520465e-16 -5.7888e-41 0.0008238482 8.796611e-11 -2.7293e-41
1.0129101e-20 2.076e-41 -3.3262497e-09 1.13364e-40 1.8616844e-11 1.3330111e-07 -1.8034056e-05 -3.4206e-41
4.528744e-15 1.8007288e-16 -9.0443e-41 -1.043e-41 9.88602e-08 -1.32053e-40 4.2913e-41 5.4571145e-24
3.517933e-10 -1.5922357e-06 -2.432248e-21 -2.6181152e-10 3.1277e-41 -1.1895149e-06 -1.982411e-05 -1.03727e-40
1.02599e-40 3.968e-41 1.901525e-11 -1.8087841e-25 -3.0616e-41 -4.2841067e-20 -4.8332276e-07 2.2019e-41
-9.153e-42 -8.462e-42 -0.00022807857 -8.21e-43 5.1131556e-05 -6.451932e-11 -1.7483774e-08 4.389e-42
0.0004869901 -5.424452e-06 -1.32903e-40 -4.9561e-41 -4.662919e-12 9.977e-42 -3.343e-41 -1.0705381e-22
-1.3953138e-05 2.1040517e-23 1.9195754e-06 -0.00010201839 -4.5708e-41 9.880778e-07 -3.4070151e-09 1.1933e-40
-7.9623e-41 4.0827e-41 0.00010421327 -1.8792351e-11 -1.846e-42 -5.366691e-24 -2.3419223e-05 2.469e-42
1.50944e-40 -2.7014e-41 -1.3440405e-07 -1.10124e-40 1.6109644e-18 -0.00015993556 -1.7399996e-08 -3.935e-41
-9.5221214e-05 -8.974215e-21 7.5128e-41 -1.3773e-41 0.0005667696 -8.511e-41 8.6791e-41 -9.735292e-09
5.430243e-09 3.5672226e-10 1.228795e-11 -6.4586675e-06 -1.1021e-41 -3.7680504e-05 1.5487869e-09 1.32367e-40
-7.6962e-41 5.3772e-41 5.8981968e-08 -3.2748183e-08 2.3325e-41 -1.6239202e-14 3.3242765e-15 -7.2663e-41
2.7071206e-18 3.8854e-41 -1.4793774e-12 2.5767e-41 2.6216906e-16 -2.9808066e-06 1.1884405e-09 4.2176e-41
1.0530231e-11 -1.5938156e-05 1.40759e-40 9.1778e-41 2.693835e-06 -1.01886e-40 -7.209e-41 -6.826567e-10
2.5020597e-07 -2.6500555e-08 6.7466505e-17 -8.485514e-12 -3.7988e-41 -5.755572e-13 2.7755255e-16 4.4334e-41
-6.3766e-41 1.01064e-40 -5.5828735e-07 -9.432226e-18 -1.8861e-41 1.9358962e-16 -3.4783035e-16 7.4961e-41
4.710768e-18 1.7655e-41 -3.5318845e-11 9.9756e-41 -0.00014552248 1.6934194e-17 -3.4923596e-06 -2.0194e-41
-3.642163e-15 -7.1465074e-06 8.6239e-41 -1.02631e-40 -0.00021336638 1.2932e-40 -2.0701e-41 7.450869e-18
-1.8908597e-16 -9.586236e-16 3.2387947e-20 -3.8373208e-19 -1.08147e-40 -9.60384e-05 0.0010451492 -1.10448e-40
1.00624e-40 -1.2415e-40 6.567101e-12 -4.2400438e-17 1.48431e-40 2.6603312e-19 9.3603245e-07 7.482e-41
-5.564788e-20 -9.2994e-41 -2.9955507e-15 5.4195e-41 2.2551946e-18 -0.00083955325 8.056307e-15 -4.4413e-41
8.856685e-06 8.0602424e-17 -3.9305e-41 -2.1263e-41 -1.3474018e-18 -8.8806e-41 -1.24092e-40 4.7935364e-06
-4.0245812e-13 -2.374e-41 4.4158e-41 1.6588423e-08 -2.0839e-41 9.68312e-30 -9.461111e-25 3.6095e-41
1.2285e-40 5.86e-41 8.9099274e-08 -7.9361e-41 -8.1174e-41 9.1772114e-32 -3.877893e-08 6.4633e-41
9.0154e-41 -3.4137e-41 1.2071424e-14 3.3932e-41 1.18641e-40 -4.2770587e-12 0.0012908374 -6.121e-42
-5.36247e-40 -1.6011695e-11 6.738e-41 -1.6202e-41 3.5785179e-06 -4.5211e-41 -8.3428e-41 1.8592837e-28
0.00034110312 3.5770876e-07 -1.0722893e-16 -0.00081215776 -8.7081e-41 1.3208366e-06 -0.00012338701 -1.03333e-40
-1.1437e-40 3.7429e-41 -3.712193e-08 2.2017507e-06 1.05104e-40 6.5119304e-15 -2.8185498e-09 -1.1732e-40
5.4901386e-05 4.2081e-41 -2.6321274e-09 -1.02289e-40 2.716873e-05 0.00024260595 9.672207e-05 4.3706e-41
1.0054126e-06 -3.628074e-05 -4.822e-42 -4.417e-41 -8.6265544e-08 6.2965e-41 2.0993859e-05 -1.872674e-07

fc.weight f4 [2, 32]
00000000: 2210 53b1 5eb2 7db0 72c9 6b27 99f4 b5b3
00000010: e8e7 88b2 08b8 a82d fed9 532c e07e 62b1
00000020: 0e1d 703a 253c 94b6 938b b82b d36f 59b1
00000030: 523e 942d dbdb fa31 8e75 9db1 a096 a22e
00000040: b023 9c30 e626 4bae fdc1 d1ab 3e9a 00ac
00000050: 6d88 151e a878 92b0 b46d c1ba 11b0 efae
00000060: 913a 7f30 e848 2d36 7792 ceb1 6cf7 1cb2
00000070: 2d9a 6e2d 2ece 6fb0 ff0b 32ae 1960 56ad
00000080: 1d10 5331 63b2 7d30 c8c9 6ba7 b5f4 b533
00000090: f9e7 8832 26b8 a8ad 1fda 53ac ec7e 6231
000000a0: 831d 70ba 383c 9436 948b b8ab fa6f 5931
000000b0: 4f3e 94ad b6db fab1 9075 9d31 a496 a2ae
000000c0: a923 9cb0 f526 4b2e 9cc1 d12b 2e8f 002c
000000d0: 5387 159e a378 9230 b76d c13a 00b0 ef2e
000000e0: 933a 7fb0 b448 2db6 6992 ce31 76f7 1c32
000000f0: b09a 6ead 3ace 6f30 e10b 322e f95f 562d
-3.0713712e-09 -9.229434e-10 3.2722005e-15 -8.472961e-08 -1.5937943e-08 1.9181115e-11 3.0105913e-12 -3.2959449e-09
0.0009159603 -4.4177455e-06 1.3112726e-12 -3.164122e-09 1.6853328e-11 7.3009523e-09 -4.582666e-09 7.3936635e-11
1.1360637e-09 -4.6191405e-11 -1.4904186e-12 -1.8275516e-12 7.9162065e-21 -1.0657191e-09 -0.0014757426 -1.08997374e-10
9.285169e-10 2.5821446e-06 -6.01204e-09 -9.136652e-09 1.3562968e-11 -8.724069e-10 -4.048317e-11 -1.218583e-11
3.07137e-09 9.2294367e-10 -3.2722187e-15 8.472981e-08 1.5937973e-08 -1.9181167e-11 -3.0105985e-12 3.2959475e-09
-0.0009159671 4.417754e-06 -1.3112727e-12 3.1641307e-09 -1.6853323e-11 -7.300936e-09 4.5826667e-09 -7.393666e-11
-1.1360629e-09 4.6191457e-11 1.4904081e-12 1.8269375e-12 -7.915979e-21 1.0657185e-09 0.0014757429 1.08997256e-10
-9.28517e-10 -2.5821328e-06 6.012034e-09 9.136661e-09 -1.3563081e-11 8.724076e-10 4.0483065e-11 1.2185802e-11

fc.bias f4 [2]
00000000: 814a 603f 5868 61bf
0.87613684 -0.8804984
