pose_gcn_scheduler_model.pt (torch, 7858 bytes, 6 tensors)

conv1.bias f4 [32]
0	0xb8ab3802	-8.164348e-05
1	0x80010b62	-9.5919e-41
2	0x967e51d4	-2.0543777e-25
3	0x80006082	-3.462e-41
4	0x8001d012	-1.66477e-40
5	0xb09d764d	-1.1456877e-09
6	0x80016a08	-1.29872e-40
7	0x80022aef	-1.99073e-40
8	0x80025711	-2.14905e-40
9	0x80012fb9	-1.08955e-40
10	0x800575c6	-5.01427e-40
11	0x800176df	-1.34478e-40
12	0x3ce2f0c0	0.02770269
13	0x800168b9	-1.29403e-40
14	0x8002c8db	-2.55724e-40
15	0x8000c2e9	-6.992e-41
16	0xb7080feb	-8.109938e-06
17	0x800d5017	-1.222592e-39
18	0x800080e8	-4.6243e-41
19	0x9282b37c	-8.2484e-28
20	0x3d0a809b	0.033814054
21	0x800112ae	-9.8537e-41
22	0x80010f8c	-9.7413e-41
23	0x8003a11f	-3.33306e-40
24	0x80012886	-1.06373e-40
25	0xbc1fb943	-0.00974876
26	0xaef9a4e4	-1.13524995e-10
27	0x80008ad5	-4.9804e-41
28	0x8000ffd4	-9.1774e-41
29	0x8001c331	-1.61857e-40
30	0x800073c8	-4.1534e-41
31	0xa419e849	-3.337334e-17

conv1.lin.weight f4 [32, 2]
0	0xb6a24534	-4.8360325e-06
1	0xb499d2e3	-2.865191e-07
2	0x800014f6	-7.52e-42
3	0x800175f5	-1.3415e-40
4	0x94efafbe	-2.4202151e-26
5	0x96f537a0	-3.961699e-25
6	0x80008d43	-5.0675e-41
7	0x00000fce	5.67e-42
8	0x80005a06	-3.2294e-41
9	0x800223e8	-1.96552e-40
10	0x1ecd698e	2.1748876e-20
11	0x90d6fd4c	-8.479838e-29
12	0x80016a20	-1.29906e-40
13	0x80014b36	-1.18816e-40
14	0x00007d80	4.5021e-41
15	0x00002da0	1.6367e-41
16	0x80015770	-1.23202e-40
17	0x8001c2af	-1.61675e-40
18	0x80018d5f	-1.4255e-40
19	0x80008fd0	-5.159e-41
20	0x0001e5dc	1.74294e-40
21	0x800198b1	-1.46611e-40
22	0x00004e7a	2.8152e-41
23	0x000074d4	4.191e-41
24	0x3f60700d	0.87670976
25	0xbc6f4043	-0.0146027235
26	0x800087e2	-4.8746e-41
27	0x00006af3	3.8366e-41
28	0x8001571d	-1.23086e-40
29	0x00010ad9	9.5727e-41
30	0x80013aaa	-1.1288e-40
31	0x80011275	-9.8457e-41
32	0xb4105fe1	-1.3445926e-07
33	0xb0a77103	-1.2182969e-09
34	0x00093c88	8.48234e-40
35	0x800e65bf	-1.322197e-39
36	0x000079af	4.3652e-41
37	0x800032c2	-1.8208e-41
38	0x00062bd3	5.66734e-40
39	0x8002fa65	-2.73496e-40
40	0x3d1a80f3	0.03772063
41	0x3c869699	0.016429232
42	0x8000979a	-5.4384e-41
43	0x0000a8e2	6.0584e-41
44	0x800021df	-1.215e-41
45	0x80002bfd	-1.578e-41
46	0x8000e8e9	-8.3552e-41
47	0x800120e3	-1.03633e-40
48	0x80010460	-9.3405e-41
49	0x0000ada9	6.2298e-41
50	0xbb124a96	-0.0022322289
51	0xbac05ba0	-0.0014675744
52	0xaf012b45	-1.1747854e-10
53	0xaeae0ae3	-7.914538e-11
54	0x800159b2	-1.24012e-40
55	0x80011b64	-1.01661e-40
56	0x800324e1	-2.88736e-40
57	0x80025035	-2.12444e-40
58	0x8000829b	-4.6852e-41
59	0x000044d4	2.4691e-41
60	0x00005d28	3.3418e-41
61	0x8000a9a6	-6.0858e-41
62	0xa090c110	-2.4522307e-19
63	0x235c2106	1.1933217e-17

conv2.bias f4 [32]
0	0xa178b6ec	-8.4267763e-19
1	0xb7bdf672	-2.2645316e-05
2	0x9e236e4a	-8.651955e-21
3	0x881b794c	-4.67862e-34
4	0xac24ef9c	-2.3438812e-12
5	0xb7917617	-1.7340337e-05
6	0xa93714a7	-4.0652076e-14
7	0x3adef574	0.0017010407
8	0xb52d37fe	-6.4529e-07
9	0x91237d15	-1.2896977e-28
10	0x8b8d4a42	-5.4422955e-32
11	0xb6c69d85	-5.9191975e-06
12	0x9fce6d06	-8.742476e-20
13	0xaad0f427	-3.7117637e-13
14	0x871c8555	-1.1775318e-34
15	0xad62794a	-1.2873544e-11
16	0xb19c237f	-4.544233e-09
17	0x3691f326	4.349643e-06
18	0xa1f01630	-1.6268906e-18
19	0x84b92bf5	-4.353366e-36
20	0xb8aaddfa	-8.147578e-05
21	0x903c9b94	-3.7196316e-29
22	0xb8d971be	-0.000103685525
23	0xaa687258	-2.064541e-13
24	0xb8d2d4cc	-0.00010053217
25	0xaebd4bee	-8.608213e-11
26	0x3d5b6679	0.053564522
27	0xb4468f7d	-1.8492388e-07
28	0xa2720b68	-3.2803154e-18
29	0xaefe0187	-1.1550854e-10
30	0xb9b5de3e	-0.00034688594
31	0x3b8692b5	0.0041068443

conv2.lin.weight f4 [32, 32]
0	0x8239bdaa	-1.3646084e-37
1	0x80188930	-2.253266e-39
2	0x01de78c0	8.172319e-38
3	0x80004aac	-2.6787e-41
4	0x0000ce0c	7.3916e-41
5	0x01bd2560	6.9481266e-38
6	0x80013d30	-1.13785e-40
7	0x000065ae	3.6476e-41
8	0x0000b043	6.3231e-41
9	0x011140fc	2.6678918e-38
10	0x82a2256e	-2.3825244e-37
11	0x8000a214	-5.8143e-41
12	0x20323ae2	1.5096669e-19
13	0x800032d2	-1.8231e-41
14	0x80024bf6	-2.1092e-40
15	0x00001fd0	1.1412e-41
16	0x01dd48ac	8.128686e-38
17	0x8001f738	-1.80521e-40
18	0x025162ce	1.538325e-37
19	0x82857f07	-1.9615504e-37
20	0x21b2e26e	1.2121685e-18
21	0x00006092	3.4643e-41
22	0x008cad00	1.291903e-38
23	0x01352460	3.3270547e-38
24	0x8000aa79	-6.1154e-41
25	0x1b2731a4	1.3829956e-22
26	0x02001e6e	9.412688e-38
27	0x800004d5	-1.733e-42
28	0x01dd3670	8.126069e-38
29	0x8000bf7e	-6.8694e-41
30	0x80011b0c	-1.01538e-40
31	0x81e7514c	-8.4972654e-38
32	0x8155f91c	-3.9300649e-38
33	0x8000a054	-5.7515e-41
34	0x021605bf	1.1021909e-37
35	0x80008ad2	-4.98e-41
36	0x80002500	-1.3273e-41
37	0x0681db78	4.884689e-35
38	0x82b3a085	-2.639382e-37
39	0x80007fa8	-4.5794e-41
40	0x8001025e	-9.2685e-41
41	0x00009c6b	5.6112e-41
42	0x01ed22f4	8.7110206e-38
43	0x8001278c	-1.06022e-40
44	0x358fad9f	1.0704861e-06
45	0x0000d991	7.8048e-41
46	0x81f19004	-8.873607e-38
47	0x0001563d	1.22772e-40
48	0x82aaa1d2	-2.5072135e-37
49	0x000397eb	3.30004e-40
50	0x80002b7e	-1.5602e-41
51	0x82089c3f	-1.0036542e-37
52	0xb67c5d63	-3.7605284e-06
53	0x800093b3	-5.2984e-41
54	0x80007b6f	-4.428e-41
55	0x800300a2	-2.75733e-40
56	0x80007574	-4.2134e-41
57	0x0f0b0f4b	6.8561744e-30
58	0xa485ce6e	-5.802926e-17
59	0x80011582	-9.9551e-41
60	0x80007a92	-4.397e-41
61	0x00004406	2.4402e-41
62	0x80000236	-7.93e-43
63	0x1b6f8120	1.9811339e-22
64	0x016def38	4.3701656e-38
65	0x00015eab	1.25796e-40
66	0x811babe4	-2.859233e-38
67	0x01942f58	5.443455e-38
68	0x80006b2c	-3.8446e-41
69	0x00e5ab80	2.1091851e-38
70	0x00036fe0	3.1564e-40
71	0x800310b2	-2.81496e-40
72	0x00012777	1.05993e-40
73	0x000322d2	2.87998e-40
74	0x0003b344	3.39815e-40
75	0x02226307	1.19303e-37
76	0x056f6aea	1.1257363e-35
77	0x80006af7	-3.8372e-41
78	0x0200e1db	9.468772e-38
79	0x000188ba	1.40884e-40
80	0x82543374	-1.5590066e-37
81	0x8007ce2d	-7.1681e-40
82	0x00004cf2	2.7603e-41
83	0x81b1e02c	-6.53412e-38
84	0x00cde061	1.8906769e-38
85	0x0000800d	4.5936e-41
86	0x0289f4dc	2.0270883e-37
87	0x015fba30	4.1092214e-38
88	0x81bf35f8	-7.023976e-38
89	0x00c7cc38	1.8348524e-38
90	0x029b7d03	2.2846956e-37
91	0x02e7b7bc	3.4047858e-37
92	0x02e5696a	3.370903e-37
93	0x00004e54	2.8099e-41
94	0x8000b9a7	-6.66e-41
95	0x817859a8	-4.561473e-38
96	0x00e7fa38	2.1303761e-38
97	0x82e51308	-3.365945e-37
98	0x008bc9a0	1.2837463e-38
99	0x00017020	1.32058e-40
100	0x80008c4f	-5.0333e-41
101	0x81f6ca4c	-9.065641e-38
102	0x82c77eae	-2.9313133e-37
103	0x000128c0	1.06454e-40
104	0x8000e89a	-8.3442e-41
105	0x00013481	1.1067e-40
106	0x02d9ad3d	3.1984718e-37
107	0x000089e5	4.9467e-41
108	0x87aef3e9	-2.6323968e-34
109	0x00000cd2	4.599e-42
110	0x801172b8	-1.602357e-39
111	0x00007368	4.14e-41
112	0x82536450	-1.553062e-37
113	0x02b1b75a	2.6113051e-37
114	0x0000a60b	5.9565e-41
115	0x822d71c9	-1.2742687e-37
116	0x88c0b634	-1.1598415e-33
117	0x00000fc8	5.661e-42
118	0x020070fb	9.436379e-38
119	0x817811ac	-4.5563085e-38
120	0x000035a4	1.9243e-41
121	0x83023568	-3.8264874e-37
122	0x82d04fe6	-3.0608713e-37
123	0x00012adc	1.0721e-40
124	0x82b23430	-2.6184703e-37
125	0x0001386b	1.12074e-40
126	0x00003599	1.9227e-41
127	0x8142ebd0	-3.580136e-38
128	0x021fd4a3	1.1742499e-37
129	0x8000b9a4	-6.6595e-41
130	0x056b5a81	1.106627e-35
131	0x80004a26	-2.66e-41
132	0x00001391	7.019e-42
133	0x03903f90	8.478153e-37
134	0x8000fee5	-9.1439e-41
135	0x00014fa1	1.20401e-40
136	0x00008e02	5.0943e-41
137	0x8001234b	-1.04496e-40
138	0x80045976	-3.99435e-40
139	0x80005beb	-3.2974e-41
140	0x2b935dbb	1.0470994e-12
141	0x00006dc7	3.938e-41
142	0x00012acc	1.07188e-40
143	0x00003af6	2.1151e-41
144	0x8233f4e7	-1.3221127e-37
145	0x01b0f4f2	6.500367e-38
146	0x0000ca2b	7.2524e-41
147	0x80f754d0	-2.2713793e-38
148	0x2a298ba3	1.5058662e-13
149	0x0000481c	2.5868e-41
150	0x000107a7	9.458e-41
151	0x00003948	2.0549e-41
152	0x00019c82	1.4798e-40
153	0xa2fd79d6	-6.8704786e-18
154	0x9a043e26	-2.7347163e-23
155	0x00007e96	4.541e-41
156	0x00008418	4.7386e-41
157	0x8000baf7	-6.707e-41
158	0x8000c169	-6.9382e-41
159	0x8eb0556a	-4.34696e-30
160	0x02531d92	1.5510318e-37
161	0x81fbe326	-9.252878e-38
162	0x0231a867	1.3052235e-37
163	0x00014c9a	1.19315e-40
164	0x000014b6	7.43e-42
165	0x8a8f7980	-1.3816102e-32
166	0x023dbe59	1.3940154e-37
167	0x00007a0c	4.3782e-41
168	0x0000326c	1.8088e-41
169	0x80000f7e	-5.558e-42
170	0x82358044	-1.333459e-37
171	0x0000c07f	6.9055e-41
172	0xb88c6a13	-6.695478e-05
173	0x800051a7	-2.9291e-41
174	0x006b8140	9.872764e-39
175	0x00008c6a	5.0371e-41
176	0x81de73a4	-8.1715857e-38
177	0x81b5590c	-6.6616675e-38
178	0x00003786	1.9918e-41
179	0x8245c57c	-1.4529949e-37
180	0xaf04f754	-1.2093199e-10
181	0x00003da8	2.2118e-41
182	0x8000436c	-2.4186e-41
183	0x818e3aaa	-5.224674e-38
184	0x8000011b	-3.97e-43
185	0x80feaf70	-2.3389151e-38
186	0x807320e0	-1.0572875e-38
187	0x8000d58e	-7.6609e-41
188	0x8209f58c	-1.0135639e-37
189	0x800106ba	-9.4249e-41
190	0x80003456	-1.8775e-41
191	0x02713244	1.7720309e-37
192	0x814c2960	-3.7498568e-38
193	0x0000bb73	6.7244e-41
194	0x8003e9cf	-3.59381e-40
195	0x80005210	-2.9438e-41
196	0x80001558	-7.657e-42
197	0x81ad8a0a	-6.374824e-38
198	0x000144ca	1.16512e-40
199	0x80016c68	-1.30724e-40
200	0x80006595	-3.6441e-41
201	0x0000ada9	6.2298e-41
202	0x80becb20	-1.7521612e-38
203	0x00010253	9.2669e-41
204	0x8c409a53	-1.4837582e-31
205	0x00003e98	2.2454e-41
206	0x8002b624	-2.49011e-40
207	0x8001361f	-1.1125e-40
208	0x00fd3d80	2.3256443e-38
209	0x80009859	-5.4652e-41
210	0x0000169b	8.11e-42
211	0x80063a03	-5.71824e-40
212	0x00078d42	6.93522e-40
213	0x800034a5	-1.8885e-41
214	0x80008a7c	-4.9679e-41
215	0x0000fb80	9.0221e-41
216	0x000095a4	5.3681e-41
217	0x024c6756	1.5017209e-37
218	0x82162232	-1.1030073e-37
219	0x00000a8a	3.781e-42
220	0x80001843	-8.703e-42
221	0x00000147	4.58e-43
222	0x0000000c	1.7e-44
223	0x81a857bc	-6.1839346e-38
224	0x804f1611	-7.26292e-39
225	0x02351a98	1.3305412e-37
226	0x13744b9c	3.0834408e-27
227	0x80009d20	-5.6366e-41
228	0x000046fa	2.5462e-41
229	0x0684a407	4.98939e-35
230	0x021ab173	1.1365059e-37
231	0x0000dfbf	8.0265e-41
232	0x8000cbaa	-7.3061e-41
233	0x8000e91b	-8.3622e-41
234	0x02992152	2.2500454e-37
235	0x00004f0b	2.8355e-41
236	0xbb8ba10a	-0.0042611407
237	0x8000791a	-4.3443e-41
238	0x80025959	-2.15723e-40
239	0x0001a898	1.52316e-40
240	0x003e53e8	5.7239e-39
241	0x8265cf70	-1.6883795e-37
242	0x0000ac2d	6.1765e-41
243	0x81fcd518	-9.2875955e-38
244	0xb9fa4fa3	-0.0004774305
245	0x00002f81	1.7041e-41
246	0x8000dc8c	-7.9117e-41
247	0x8223c1e7	-1.2030996e-37
248	0x800031fa	-1.7928e-41
249	0x389a7b12	7.366216e-05
250	0x2c34dcc2	2.5702084e-12
251	0x800077ae	-4.2933e-41
252	0x80017879	-1.35053e-40
253	0x8000a71e	-5.995e-41
254	0x80003f2b	-2.266e-41
255	0x1fd73ca6	9.1156376e-20

fc.weight f4 [2, 32]
0	0x9f45649f	-4.1799604e-20
1	0xb694111a	-4.4127346e-06
2	0x931b407d	-1.9595546e-27
3	0x048f3842	3.3670803e-36
4	0x2c06e078	1.916715e-12
5	0x38ace111	8.243521e-05
6	0x280f3425	7.949402e-15
7	0xba1e51f9	-0.00060394366
8	0x3501c04d	4.833608e-07
9	0x917388b4	-1.9211445e-28
10	0x80080c02	-7.38992e-40
11	0xb4a7f28d	-3.1282653e-07
12	0x9161ad87	-1.7802843e-28
13	0x1b6e886b	1.9730978e-22
14	0x06435b9c	3.6742728e-35
15	0xaa1706b4	-1.341382e-13
16	0x260273ec	4.5259914e-16
17	0xb61a0095	-2.2948127e-06
18	0x14be5cc9	1.9221695e-26
19	0x038ab568	8.15256e-37
20	0x36a079b8	4.7825415e-06
21	0x0000a32e	5.8538e-41
22	0x36b1142b	5.277359e-06
23	0x24c05299	8.340665e-17
24	0x391670ba	0.00014347109
25	0xacd1336c	-5.9458462e-12
26	0x3f063a6e	0.52432907
27	0xb682bcfb	-3.896302e-06
28	0x22801b3a	3.4723297e-18
29	0x2901505b	2.871345e-14
30	0xb8f233d7	-0.00011549115
31	0xbaf843fb	-0.0018941158
32	0x1f4564b1	4.1799663e-20
33	0x36941115	4.4127323e-06
34	0x131b40a0	1.9595613e-27
35	0x848f3842	-3.3670803e-36
36	0xac06e078	-1.916715e-12
37	0xb8ace17c	-8.243599e-05
38	0xa80f3447	-7.9494305e-15
39	0x3a1e5233	0.00060394703
40	0xb501c04e	-4.8336085e-07
41	0x117388b8	1.921145e-28
42	0x00080c02	7.38992e-40
43	0x34a7f28d	3.1282653e-07
44	0x1161ad87	1.7802843e-28
45	0x9b6e886b	-1.9730978e-22
46	0x86435b9c	-3.6742728e-35
47	0x2a1706b8	1.3413825e-13
48	0xa60273db	-4.5259824e-16
49	0x361a01ff	2.294895e-06
50	0x94be5b2b	-1.9221057e-26
51	0x838ab508	-8.152474e-37
52	0xb6a070e6	-4.7815147e-06
53	0x8001a313	-1.50336e-40
54	0xb6b10f81	-5.276816e-06
55	0xa4c051c3	-8.3405237e-17
56	0xb91670c0	-0.00014347117
57	0x2cd1338c	5.94586e-12
58	0xbf067a16	-0.5253004
59	0x3682bcfd	3.896303e-06
60	0xa2801b39	-3.4723293e-18
61	0xa9015054	-2.8713428e-14
62	0x38f2341d	0.00011549166
63	0x3af8445e	0.0018941273

fc.bias f4 [2]
0	0x3f1b5ba8	0.6068673
1	0xbf2a06c9	-0.66416603
